code/models/ppo_checkpoint_300.pt (torch, 75495 bytes, 7 tensors)

encoder.0.weight f4 [128, 5]
000000 46 37 ce 3e 2e 55 89 3e 55 ae 0b 3e 39 35 94 3e
       0.40276545 0.268228 0.13640721 0.28946856
000010 de 13 cb 3e f9 e4 dd bc ab 0e 97 3d ba 78 d6 3e
       0.39663595 -0.027086722 0.073758446 0.41888982
000020 3d f4 94 be 3e 4d b5 3e e4 04 32 3e 55 db 5b 3e
       -0.2909259 0.35410494 0.17384678 0.21470387
000030 80 c6 a2 3e e8 dd 12 3e 6f 6c bf 3e 1e 90 3f be
       0.31792068 0.14342463 0.37387416 -0.1870732
000040 e5 3c ff bb c2 e8 8f be ef 4b 1a 3e 07 4a aa be
       -0.0077892416 -0.28107268 0.15068029 -0.33259603
000050 40 14 fb bd b5 39 e1 3e db 1a 77 be 6f 9c c4 be
       -0.12259722 0.4398934 -0.24131338 -0.384006
000060 21 66 c7 3d ec 1b b3 3e 3d f4 0c be 9c 99 9d 3e
       0.097362764 0.3498224 -0.13765045 0.30781257
000070 80 ec 86 3e ab c7 3b 3e 74 3a 51 bd aa 16 d2 3e
       0.2635231 0.18337886 -0.051081136 0.41032916
000080 0f 2d b5 3e b6 c2 12 3e 3e 32 1a 3e 2d 9a b7 be
       0.3538594 0.14332089 0.15058228 -0.35859814
000090 b6 53 02 3d ca 6e d8 3e ae 36 d3 3e 03 cd 67 3b
       0.031818114 0.42272025 0.41252655 0.003537
0000a0 76 83 ae bd 7a a4 e3 3c 66 5a 52 3e eb ef 82 bd
       -0.08521168 0.02778839 0.20542297 -0.06393417
0000b0 21 13 95 be d9 f5 00 be 19 2f 8d 3c 76 2c 89 3e
       -0.29116157 -0.12593783 0.017234372 0.26791734
0000c0 82 2d d7 be 21 83 36 3c 1d 23 c4 be 55 20 d1 3e
       -0.42026907 0.011139662 -0.3830804 0.4084498
0000d0 8a 8f c2 be 47 46 bc 3d f8 23 ce be f7 79 92 be
       -0.38000137 0.09193092 -0.40261817 -0.28608677
0000e0 3f c7 e6 3d 63 db bb 3e 7a 70 42 be 0a 61 be 3e
       0.11268472 0.36690816 -0.18988219 0.3718341
0000f0 fb d4 95 3e 77 40 71 be df 79 de 3e 14 1e af bd
       0.29264054 -0.23559748 0.43452355 -0.08550659
000100 38 4e 35 be e9 7f bc be 6f 52 c5 3c 87 ab b4 be
       -0.1770562 -0.36816338 0.024087159 -0.35287115
000110 c7 47 a0 be 60 59 18 be 93 bb ac be fc 57 d6 3e
       -0.31304762 -0.14877844 -0.33736858 0.41864002
000120 ec d6 b6 be ac 74 b6 be 42 56 c7 3e ad 43 3c be
       -0.35710847 -0.3563589 0.38932997 -0.18385191
000130 a3 d0 9c be c7 6a 85 3e ff 07 c5 be 2d 58 af be
       -0.30627927 0.26058027 -0.38482663 -0.3424696
000140 0a 93 73 3e 9d df c2 3e 55 1e ab 3e 3f f1 bc 3e
       0.2378656 0.38061228 0.3342158 0.36902806
000150 93 da ec 3d 07 64 a9 be 06 eb 45 3d 5d 4a 74 bd
       0.11565127 -0.33084127 0.04831984 -0.05964123
000160 ec 56 0e be 0f d6 d4 3c 80 da 2c 3c e6 ef 49 3e
       -0.13900346 0.025980977 0.010550141 0.1972042
000170 1a 2c 64 be 91 1f 15 be 3d b2 7d 3e 94 65 8d be
       -0.22282448 -0.14562823 0.24775024 -0.2761656
000180 d4 24 a2 be 36 74 90 be 3c eb ce be f0 f8 ca be
       -0.31668723 -0.28213662 -0.40413845 -0.3964305
000190 ad 90 d5 be d8 64 9f be cd c2 34 3e b8 b7 e1 3e
       -0.4171194 -0.31131625 0.17652436 0.4408548
0001a0 3c fd a5 3e a1 e5 46 be 6d c7 9e 3e d1 b6 cb 3e
       0.32419765 -0.19423534 0.31011525 0.39787915
0001b0 0e 9c 42 bb dd 88 a4 3d 3e 3a 9b be 3c 09 6d 3e
       -0.0029695067 0.08033917 -0.30317873 0.23148054
0001c0 3b 50 e8 bb cb 11 6a bd 72 d8 d3 be fe 21 cd 3e
       -0.0070896423 -0.057145875 -0.41376072 0.40064996
0001d0 21 9a 2b be 24 b5 d9 3e 7a 5f 1f 3e e2 81 c9 be
       -0.16758014 0.42521012 0.15563765 -0.39356905
0001e0 c3 0e ab bd 73 17 cd 3e 46 86 33 be 93 e9 4d be
       -0.08352425 0.40056953 -0.1753169 -0.20108633
0001f0 b0 b6 6e 3d 41 22 bb be ff d6 af 3e 2d 16 b7 be
       0.058279693 -0.3654957 0.34343717 -0.35759106
000200 1f 1c 32 be b2 cb b2 be 6e 77 91 3e cd 46 0e be
       -0.1739354 -0.34921032 0.2841143 -0.13894196
000210 08 2c cb be fa de 5d 3e 7d 89 5a bd 51 d7 3d 3d
       -0.3968203 0.2166709 -0.053353775 0.04634792
000220 5f f0 4a be 5a 14 14 be 0b ec 89 bd 50 03 4f bd
       -0.19818257 -0.14460889 -0.06734475 -0.05054027
000230 27 2c dc 3e aa d1 7a be 98 3f 70 3e 63 40 b2 be
       0.43002436 -0.24494043 0.23461759 -0.34814748
000240 e2 c0 b5 3e f1 7d 86 3e 9d 04 0a 3e 31 e0 bb be
       0.3549872 0.2626796 0.13478322 -0.36694482
000250 ca 0d cd be e7 84 a0 3e ee e0 00 be 59 64 4a 3e
       -0.40049583 0.31351396 -0.12585804 0.19764842
000260 c4 5e 5c 3c f4 4d ae 3e 8b 07 90 bd 3f 01 26 3e
       0.013450328 0.3404385 -0.07032689 0.16211413
000270 11 2d 34 be 18 7f b5 3e e7 cd ce be 04 3a d8 bc
       -0.17595316 0.35448527 -0.40391466 -0.026394852
000280 5e b4 2e be ca a7 ef 3d 06 5b a7 3d 77 84 47 bd
       -0.17060992 0.11701925 0.08171658 -0.048710313
000290 f3 e4 fc bc e1 99 01 bc 65 fd bc bb e5 4f 9f 3e
       -0.03087089 -0.007910223 -0.0057675117 0.31115642
0002a0 02 99 47 be bc 8f 60 3e 49 44 5f 3e 97 78 1a 3e
       -0.19491962 0.2192983 0.21803392 0.15085064
0002b0 0b ca c6 3e 8d 62 89 be 0c 73 91 3d 34 b5 e4 bb
       0.38826022 -0.26833 0.071020216 -0.006979609
0002c0 0a fe 83 be 71 be cd be 39 a2 9b 3e 10 af 4a 3e
       -0.25779754 -0.40184358 0.30397204 0.19793344
0002d0 ef 1a 7d bd a1 e8 da be 0f eb b2 bd 45 82 9b be
       -0.061793264 -0.42755607 -0.0873624 -0.30372825
0002e0 3b ef d1 3e 59 3b 69 be f8 de c9 be 8b 95 78 bd
       0.4100283 -0.22776546 -0.39427924 -0.06068949
0002f0 f1 17 bc be 46 9e 7e 3c 1d e3 ce bd da a0 35 bd
       -0.36737016 0.015540665 -0.10101912 -0.044342853
000300 12 77 e4 be 6b 2b 6a 3d 47 30 9d 3a 3a b8 88 3c
       -0.44622093 0.057170313 0.0011992537 0.016689409
000310 af af 90 3c 59 b9 08 3e d1 3c 7e be d8 21 e5 3d
       0.017661897 0.13351955 -0.24827887 0.11188096
000320 94 bf cd be 5c cc 28 be 39 12 fc bd a6 bb 50 3e
       -0.40185225 -0.16484207 -0.12308163 0.20384082
000330 c2 23 bd 3e e5 17 c7 be 1c 23 63 3e 2d 72 bc 3d
       0.36941344 -0.38885418 0.22181362 0.09201465
000340 8a f5 26 be 94 94 bf 3e 00 fe 32 3e 46 fd a5 3e
       -0.16304603 0.37418044 0.17479706 0.32419795
000350 ef 76 8d be c3 ec b2 bd 65 32 73 be 67 af 81 be
       -0.27629802 -0.08736565 -0.23749693 -0.25329134
000360 11 21 cb 3e 24 23 e0 be 8d f8 92 be 9f a1 c5 be
       0.39673665 -0.4377681 -0.28705254 -0.3859987
000370 d9 f9 2e be 6d 1e ad be e5 32 a6 bc 15 9e ff 3b
       -0.17087497 -0.33812276 -0.02028794 0.0078008273
000380 04 5d 63 be 3c 3d af be 0e 33 bb 3d a4 d3 a9 bd
       -0.22203451 -0.34226406 0.09140597 -0.0829232
000390 93 41 15 be f9 90 a4 bd 2c 2b c4 3e 55 7f aa be
       -0.14575796 -0.08035464 0.38314188 -0.33300272
0003a0 c3 07 a4 3e eb 9f c0 be 03 a7 86 3e b7 0f af be
       0.32037172 -0.37622008 0.26299295 -0.34191677
0003b0 ee cc e3 3b 6a 9c d3 be 56 4f a9 3e 44 7e c7 3d
       0.0069519198 -0.41330272 0.3306834 0.0974088
0003c0 c9 63 14 3e 07 7a 29 3e e3 52 61 3e 57 28 d9 be
       0.1449119 0.16550456 0.22004275 -0.4241359
0003d0 a9 61 cf bd 47 25 a8 3e 41 df c2 3e 81 38 a2 be
       -0.10126049 0.3284094 0.38060954 -0.31683734
0003e0 02 8c 4d be be 38 4d 3e a9 34 d7 bd ed 87 9d 3c
       -0.2007294 0.20041177 -0.10508091 0.019229854
0003f0 f2 0d 6b be 84 c8 90 be 2c 33 84 3e c8 81 df bd
       -0.22954538 -0.2827798 0.2582029 -0.10913426

encoder.0.bias f4 [128]
000000 56 fe 9b 3d 92 c0 61 be 78 3c 78 be 03 45 5c be
       0.0761687 -0.22046116 -0.24241817 -0.21510701
000010 7c f7 93 be 5f 19 a3 3c 90 14 22 be b4 3b b5 3e
       -0.28899753 0.019909559 -0.15828156 0.35397112
000020 19 64 70 3e 4c 60 c9 be 77 d0 8e 3e 83 ef ae 3e
       0.23475684 -0.3933128 0.2789342 0.34167108
000030 ed b2 a2 3d 7c 64 0a be ae 1c b5 3d 51 82 84 be
       0.07944284 -0.13514894 0.08843361 -0.25880674
000040 96 43 8d 3e 16 dd af be 8c cf 4b be 90 9f 93 3c
       0.27590626 -0.34348363 -0.19903392 0.018020421
000050 9f e0 92 3e 16 73 89 be 46 ad 13 3d f0 1b 8c be
       0.28686997 -0.26845616 0.03605392 -0.27365065
000060 d0 f1 96 be 9d 26 ca 3e cf 6e 03 be 91 f5 94 3c
       -0.29481363 0.39482585 -0.12835239 0.018183501
000070 55 fa a1 be 0e a1 c1 3e 82 32 cd 3e 21 2c 13 3e
       -0.316363 0.37818187 0.40077597 0.14372303
000080 05 b0 8f 3e 27 a8 ba 3e 4a 78 9c 3e fc 30 b4 be
       0.2806398 0.36456415 0.30560523 -0.35193622
000090 c6 01 ab 3e 1f 60 17 3e 69 d5 d8 be 1c bc 92 3e
       0.3339979 0.14782761 -0.4235032 0.2865914
0000a0 a3 95 51 be a2 ae 26 3d 03 f1 a2 bd 4e f2 95 3e
       -0.20467238 0.040693887 -0.079561256 0.29286426
0000b0 3b ce db 3e ea 0d a7 3e 64 49 18 3e 93 f9 2d bd
       0.4293078 0.32627803 0.14871746 -0.04247434
0000c0 39 84 63 3d 25 51 1f 3e 2d ac bd be 82 bc a3 bd
       0.05554602 0.15558298 -0.37045422 -0.079949394
0000d0 c2 63 6c 3e f7 20 c8 3e 7d c6 d8 3e 9d 33 0a be
       0.2308493 0.3908765 0.42338935 -0.13496251
0000e0 75 9a d0 be 3c 66 0f 3e 4a 10 4e 3e 10 4e ea be
       -0.4074284 0.14003843 0.20123401 -0.45762682
0000f0 06 88 db be 11 6d aa bd 51 87 d2 be b8 a8 1d 3c
       -0.42877215 -0.08321584 -0.41118863 0.009622745
000100 87 19 d3 3e b4 6b 93 be 21 54 e0 be ca 48 67 be
       0.41230413 -0.28793108 -0.43814185 -0.2258636
000110 f3 a6 25 be 32 3f 71 be 57 77 46 3e 1f c1 b7 be
       -0.16176967 -0.23559263 0.19381462 -0.35889527
000120 aa aa 9d bd 67 f3 86 3c 23 79 8b bc 45 d4 88 3e
       -0.07698567 0.016473485 -0.017025536 0.2672445
000130 e5 fc 86 3e e8 56 9e be 2e e7 e6 bd b9 9c 84 be
       0.26364818 -0.3092568 -0.11274563 -0.2590082
000140 7d 16 6c 3e c4 75 af 3e 42 95 1b 3e 21 22 c7 bd
       0.23055454 0.34269536 0.15193656 -0.097233064
000150 a5 58 e0 be 40 83 4a 3e d7 09 a1 3e d2 ba 4a be
       -0.4381763 0.1977663 0.3145282 -0.19797829
000160 71 a7 cc be a4 1d ce 3e 41 e4 2c be ad f9 45 3e
       -0.39971498 0.4025699 -0.16883947 0.19333525
000170 75 b4 10 be 4a 95 c9 3e 59 99 37 3e 61 53 59 be
       -0.14131339 0.3937171 0.17929591 -0.21223213
000180 85 4d ad 3e 8c 6b 33 3e d0 d6 1a be 1f 9c 43 bd
       0.33848205 0.17521495 -0.15121007 -0.04775631
000190 69 da ea 3c f6 df bd 3e 42 a3 98 bd 6e 38 b2 be
       0.0286686 0.3708493 -0.07453014 -0.34808677
0001a0 5c 52 96 3e 1d 03 8e 3e 85 09 87 be 3c ee 3e 3e
       0.2935971 0.2773675 -0.2637445 0.18645567
0001b0 aa 59 00 3e bb 8d 1e be f6 cd b8 bd fb dc c4 be
       0.12534204 -0.15483753 -0.09023659 -0.38449845
0001c0 f9 46 dc be b6 cb d8 3e 94 34 38 be d6 bf 7a be
       -0.43022898 0.4234292 -0.17988807 -0.24487242
0001d0 7e d7 81 3e 54 6a 0b 3e 30 2e e1 bd 24 5f 39 3e
       0.2535972 0.1361478 -0.10995138 0.181027
0001e0 88 a3 d0 3d 8c f5 bd bd 98 2e a2 3e 47 d4 85 be
       0.10187441 -0.0927535 0.31676173 -0.26138517
0001f0 ef c1 b3 3e fa c9 79 be e3 3c 88 be 09 a1 be 3e
       0.35108897 -0.24393454 -0.26608953 0.37232235

encoder.2.weight f4 [128, 128]
000000 72 86 81 bb 63 68 f4 3c ee 53 f7 bb 12 03 33 bd
       -0.0039527947 0.029834932 -0.007547847 -0.0437041
000010 20 bb a3 bc 7a ab 6b 3d 3e 20 ce bc 82 c7 75 3c
       -0.01998669 0.05753658 -0.025161859 0.01500118
000020 02 0b 80 bd e7 0b b1 bd aa 43 30 3c 4c 90 93 bb
       -0.062520996 -0.08644848 0.01075832 -0.0045032855
000030 d6 70 80 bd 31 56 94 bd e9 a5 8d 3d bd 1e 41 3c
       -0.06271522 -0.07243002 0.069164105 0.011787114
000040 1d a7 87 bd 13 08 97 3d 9e 25 4f bd b9 a8 92 3d
       -0.06623671 0.07374587 -0.050572984 0.071610875
000050 3a 42 d2 bc 0a a5 a5 bd 0e c0 46 3d 3e e5 a4 bd
       -0.025666345 -0.08088119 0.048523 -0.08051537
000060 5e b5 90 3d 21 d5 b9 3c ef f0 c0 3c 97 10 4d 3d
       0.07065843 0.022684636 0.023552386 0.05006465
000070 c9 eb 9b bd 88 38 16 bc f7 2a ad bd ee 33 93 bb
       -0.07613332 -0.009168752 -0.084554605 -0.0044922745
000080 6a b3 27 bc f5 b6 f1 bc e6 81 82 3d ec c8 1b 3d
       -0.010235647 -0.029506186 0.063724324 0.03803341
000090 7f 24 9e 3d 22 d7 64 bd 23 cf 24 3d 32 90 8b 3d
       0.07721805 -0.05586923 0.040236603 0.068146124
0000a0 9d 1d 5c 3d 4f 2d 2b 3c 1a ff ac 3d 76 bd 81 bd
       0.05373918 0.010447814 0.08447094 -0.06334965
0000b0 be 4b 8a 3d 55 21 2b bd 4e ee 48 bc 23 8b 1d 3d
       0.06752728 -0.041779835 -0.0122638475 0.03846277
0000c0 40 61 15 bd d7 69 64 bd e2 c7 9c 3d ee da b2 3b
       -0.036469698 -0.055765 0.07655312 0.0054582274
0000d0 21 08 79 bc 6e 33 55 3d a1 b4 4f bd e6 33 88 bd
       -0.015199692 0.052051 -0.05070937 -0.06650524
0000e0 bb 19 ab bc a3 39 53 3d 26 cd a0 3d d6 2d 8c bd
       -0.020886293 0.05156864 0.07851629 -0.0684468
0000f0 c2 05 a9 bd c0 fb 9e bd c1 86 a3 3b ae 62 d8 3c
       -0.08253051 -0.07762861 0.004990429 0.026414242
000100 c4 89 72 bd fe 22 92 bd 01 ee fd 3b d3 bd 48 3d
       -0.059213415 -0.071355805 0.0077493195 0.049009155
000110 5a 82 8b bd 2f 1b 89 3d fd db bf 3a 0b d4 9f 3d
       -0.06811972 0.06694638 0.0014637705 0.07804116
000120 bc 01 7a 3c 3a 18 2b bc b1 33 0c 3d f4 78 1b bd
       0.015259203 -0.010442788 0.034228984 -0.037957147
000130 57 a2 21 bc 77 8c 86 bd 02 4c 87 3d fe 9b 9e bc
       -0.009865365 -0.0656976 0.06606294 -0.019361492
000140 35 10 87 bd 33 48 09 bd 86 ee 2f 3d 53 ca eb bc
       -0.06594888 -0.03351612 0.042952083 -0.028783
000150 cb bc 71 bc b3 c4 6d bd 82 af 7c 3d 4c 71 77 bd
       -0.014754484 -0.058048915 0.061690815 -0.060410783
000160 54 e5 99 3d 73 5f 2a 3c ea f6 a7 bd 1e 39 ac bd
       0.07514444 0.010398733 -0.08201392 -0.08409332
000170 d7 09 51 ba a2 60 97 3c 3c 81 78 bd 97 6e 21 3c
       -0.00079741835 0.018478695 -0.060670123 0.009853027
000180 da 03 b4 bc 20 8f 56 bc d7 59 87 bd 12 ec 4f 3d
       -0.021974493 -0.013095647 -0.066089325 0.050762244
000190 af 47 ca 3c a7 98 62 bc 2d 75 5c bd 23 cc f3 3c
       0.024692385 -0.0138303405 -0.053822685 0.029760426
0001a0 c9 c7 ef bc dc 87 a6 3d e8 cc b4 bd f5 7f 9f bd
       -0.02927007 0.08131382 -0.08828145 -0.07788078
0001b0 19 8a 8f bd a1 e2 02 bd fb 8b 91 bd 8c 19 26 bd
       -0.07008762 -0.03195441 -0.07106777 -0.040551707
0001c0 94 36 74 3c 02 f7 a5 3d 97 e9 65 3d ee e9 9c 3d
       0.014905591 0.081037536 0.05613097 0.07661806
0001d0 0a 00 3c bd 2e 83 02 3d 19 fd 16 3d 69 6b 85 3d
       -0.045898475 0.031863384 0.036862466 0.065146275
0001e0 44 80 02 bd c9 d4 d0 3c d0 28 9c bd e6 b4 cc bc
       -0.031860605 0.025492089 -0.07624972 -0.024988603
0001f0 5e 55 f3 3b 3d 4d 9a 3c a3 7a 96 bd 89 7a 29 3d
       0.007425948 0.018835658 -0.0734761 0.041376624
000200 35 ec 82 3d aa 31 aa bd 63 78 aa 3d 4a c6 e8 bc
       0.06392709 -0.08310254 0.08323743 -0.028414864
000210 19 0f ce bc 54 b9 a4 3d be f9 29 3d ee 06 3e 3d
       -0.025153683 0.08043161 0.04149794 0.046393327
000220 cb 36 76 bb 56 52 67 3d 4a 77 f4 3c 13 d8 b2 3b
       -0.003756928 0.056475006 0.029842038 0.005457887
000230 6e 0a 55 3d c8 05 8f bc f3 e3 0b 3d a5 cf df bc
       0.0520119 -0.017458811 0.034152936 -0.027320692
000240 c5 96 4d bd 62 e8 14 bd 42 31 a8 bc 9d fe 91 3d
       -0.050192613 -0.03635443 -0.0205313 0.07128642
000250 9d c7 9d 3c e2 e2 70 3d 2f 63 a9 bd e8 34 12 3d
       0.019260222 0.058810122 -0.08270871 0.035694987
000260 3e 64 9a 3d a9 a8 35 bd 40 ef b8 3d e6 6d 8e 3d
       0.07538651 -0.0443503 0.09030008 0.06954555
000270 40 3b 36 3d 7d c7 5f 3d 96 02 8f 3d c8 08 bc bc
       0.0444901 0.054633606 0.06982915 -0.022953406
000280 6d 0f 21 bd 3a 85 98 bd 59 7b ac bd 0b 67 2c 3d
       -0.03932135 -0.07447286 -0.08421964 0.042090457
000290 4c 76 95 3c 5c 6a 34 bd 73 73 99 bc 25 80 8c bc
       0.018244885 -0.044046745 -0.018731808 -0.017150948
0002a0 6b 4a 41 3d b3 ef fe bc f2 d8 a4 3d 6e c5 a4 3d
       0.04719011 -0.031120157 0.080491915 0.08045469
0002b0 55 14 ab bd 73 55 87 3d 2d 69 aa 3d a7 28 35 3d
       -0.083534874 0.06608095 0.08320842 0.044228222
0002c0 f0 d8 92 bd 56 09 60 3d 40 7a 26 bd 7c 6b 26 3d
       -0.07170284 0.054696403 -0.04064393 0.04062985
0002d0 c3 19 96 3d c9 e2 1d bc 97 a1 9e bd 96 65 0a 3b
       0.073291324 -0.009636589 -0.077456646 0.002111768
0002e0 79 1b a8 bd 88 62 0c 3d 4c 3c b6 3c 36 16 1f 3d
       -0.08208365 0.034273654 0.022245549 0.03883954
0002f0 a5 ee 98 3d 1e 81 ad 3d d7 dd db 3c dc 16 88 bc
       0.07467393 0.08471893 0.02683918 -0.016612463
000300 cd 64 71 3d ff f6 9f bc cb 59 a2 bc 0b d1 23 3d
       0.05893402 -0.019526957 -0.019818207 0.03999428
000310 d0 a2 b1 bd 1b 6d fc 3c 50 99 b5 ba 5f 5b 0e bb
       -0.08673632 0.030813744 -0.0013854895 -0.0021721942
000320 3c b9 3a bd 2a b9 b1 3d 62 a6 21 3c 63 63 5e bd
       -0.04558681 0.08677895 0.009866329 -0.054294
000330 62 fd a0 bd db a4 01 3c 1f 6c fa 3c 51 16 af bd
       -0.07860829 0.00791284 0.030569134 -0.085491784
000340 9c 48 42 bd 74 d4 a3 3d 4e 45 49 3d 7b 4e 2a bd
       -0.047432527 0.079995066 0.04913836 -0.04157875
000350 b0 30 25 bd ca ac 91 3d 12 4e 50 3d d6 21 ec 3c
       -0.040329635 0.07113035 0.050855704 0.028824728
000360 d6 15 96 bd 4c a7 90 3d d4 c1 73 3d ba ba 48 bd
       -0.073283836 0.07063159 0.05951102 -0.0490062
000370 89 f9 74 bd 97 c6 3f bd 1f 60 32 bc 82 8d 7a bd
       -0.059808288 -0.04682025 -0.010887175 -0.06117011
000380 38 8d ad 3d d4 ad 2e 3c ee 8d 7f bd c0 fc 8c bd
       0.08474201 0.010661561 -0.062391214 -0.06884146
000390 03 bb 4d bc 7f 77 94 bd 2b 08 71 bc 5a 8f 09 3d
       -0.012556794 -0.072493546 -0.01471142 0.033583976
0003a0 0d f2 0b bd 88 32 89 3c 1d 8c bc ba 71 b9 cf bc
       -0.034166384 0.016747728 -0.0014385019 -0.02535698
0003b0 92 a7 9a 3d 62 9a eb bc e5 7e b9 ba 09 dc 83 3d
       0.07551493 -0.028760139 -0.0014152197 0.06438453
0003c0 af a5 8a bc dc 1c 8b 3c fb 4d 5d 3d 22 12 a6 3d
       -0.016924707 0.016981535 0.054029446 0.08108927
0003d0 4a 6e e3 bc 2a ee a0 bb fa 30 b2 bd 1a 36 b0 3d
       -0.02776255 -0.004911204 -0.08700748 0.08604069
0003e0 d7 9c 1d 3c 43 6d aa bd b2 6d 97 bd 02 f6 7c 3d
       0.009619913 -0.08321621 -0.073939696 0.06175805
0003f0 63 32 db 3c f6 a4 66 3d 6a bb e1 bb 09 3b 2e 3d
       0.026757425 0.056309663 -0.0068887966 0.04253677

encoder.2.bias f4 [128]
000000 8c e3 24 3d 8a 6b 69 bc 1b 02 4b 3d 18 ee 07 3c
       0.040256068 -0.014246831 0.049562555 0.008296512
000010 a1 ce 86 3d 2d 1d be 3c fd b9 49 3c d3 d4 96 bc
       0.0658238 0.023207271 0.0123124095 -0.01841203
000020 a4 0b 9f bd da 0b 85 3d b8 36 38 bc 3e ba f7 3c
       -0.07765892 0.06496401 -0.011243515 0.030240174
000030 7d 92 63 bd 0d a1 33 3d f3 1f 07 3d 15 61 98 bd
       -0.055559624 0.043854762 0.032989454 -0.07440392
000040 94 90 7d bb d9 91 ce bb ab 96 14 bd 97 bc 2b 3b
       -0.0038690912 -0.0063040075 -0.0362765 0.0026204938
000050 e5 b5 89 bd 2a cb ec 3b 13 0c c1 bd e9 7f 9d 3d
       -0.06724147 0.0072263675 -0.09426131 0.076904126
000060 20 2c 9c 3c 3b f4 8d bc 46 09 d6 bc f1 70 ac bd
       0.01906401 -0.017328372 -0.026127469 -0.08419979
000070 a6 de 47 bd ff 04 97 bd b5 f1 3a bd 4d b4 1f bd
       -0.04879632 -0.07374 -0.045640666 -0.038990308
000080 cc 2c e8 3c 58 67 75 bd 20 e3 dc bc 57 3a 8f bd
       0.028341673 -0.05991301 -0.02696377 -0.06993549
000090 98 f1 cd bc b5 03 12 bd e0 b3 66 bd 10 15 4c bb
       -0.025139615 -0.035648067 -0.056323886 -0.0031140484
0000a0 50 51 61 bc 08 72 96 bd 35 68 9d 3d d9 f5 60 3d
       -0.013752297 -0.073459685 0.076858915 0.05492196
0000b0 84 16 0d 3d 7c 39 4e bd 5f 50 e3 3c d2 f6 95 bd
       0.0344453 -0.05034779 0.027748285 -0.07322468
0000c0 1b 83 ef 3b ff 33 04 bd 81 a0 fc bc 98 68 91 bd
       0.00730933 -0.03227615 -0.030838253 -0.07100028
0000d0 c1 21 42 bd 32 10 95 3d fd 1e ab 3d 84 dc 59 3d
       -0.04739547 0.0727848 0.0835552 0.053188816
0000e0 35 88 0c bd bb 9a c4 bd f9 21 5d 3d f3 de 90 3d
       -0.034309585 -0.09599825 0.053987477 0.07073774
0000f0 c9 e0 3f 3d 4f 84 9f bd 39 f4 29 3d b7 d4 90 3c
       0.04684523 -0.07788908 0.041492674 0.017679555
000100 65 51 61 3d 6f 85 b3 3c c8 78 2f 3d 55 43 07 bd
       0.055009264 0.021914212 0.042839795 -0.033023197
000110 c5 82 83 3d 77 05 85 3b 8f 70 12 3d e6 46 f2 3c
       0.06421427 0.0040594894 0.035751875 0.029574823
000120 4f 60 b1 3d 5d 0d 0b 3d bb 48 52 3d e7 88 9a bd
       0.086609475 0.03394829 0.051338892 -0.07545643
000130 f2 cb b8 bd 10 ab ee bc 0a 9c 31 3d 6b 6d 88 39
       -0.090232745 -0.029134303 0.0433617 0.00026021464
000140 5f 18 85 3d a6 51 55 3d 60 dc 30 bc f7 1d 2a bd
       0.06498789 0.05207982 -0.010794729 -0.041532483
000150 a5 80 3c bd 79 18 9c bc 01 ac a7 bd 16 aa c9 bc
       -0.046021122 -0.019054638 -0.08187104 -0.024617236
000160 57 52 16 3b 27 f3 28 3d 8b 0f 3f bd 52 5d 03 3b
       0.0022937262 0.041247513 -0.046645682 0.0020044637
000170 d3 b3 c7 bc c7 a1 38 3d 8b 5d 88 bd bf 84 9a 3d
       -0.024377739 0.045076158 -0.06658467 0.075448506
000180 21 7d cf bc 12 a6 a3 bd a2 cc 8c 3d aa b5 34 bd
       -0.02532822 -0.0799066 0.06874968 -0.04411856
000190 07 8d db bc d3 00 7f 3d 1d 79 8d bb ab c4 ef 3c
       -0.026800646 0.062256645 -0.0043174163 0.029268583
0001a0 4a 6b 3c bd 2d a4 51 3d 41 ad 67 3d fb 94 97 3d
       -0.046000756 0.05118196 0.056561712 0.07401463
0001b0 e5 08 0f 3d f5 ed ae bb fb 5d ba 3c 3e a8 b3 bd
       0.03492059 -0.0053384253 0.022749892 -0.08772324
0001c0 cd c3 a2 bd 2e 8b 87 3d 54 40 3e 3d 02 7f 06 3c
       -0.07947502 0.06618343 0.046448067 0.008208992
0001d0 28 1d 35 3d 3e eb 3e bd 3b a2 0e bd 3a 63 3f bc
       0.04421726 -0.046611063 -0.034822684 -0.011681372
0001e0 c0 8a 2d bb c3 b4 8f 3d 70 ac 9f 3d db db 59 3d
       -0.0026480407 0.070168994 0.07796562 0.053188186
0001f0 9b a2 2f bc fb bf 86 3d dd 26 cf 3c 68 97 9b bd
       -0.0107199205 0.06579586 0.025287086 -0.07597238

actor.weight f4 [4, 128]
000000 3e 48 36 3d 6f 33 81 bd f2 ff 49 bd d3 1a b6 bb
       0.04450249 -0.06308638 -0.049316354 -0.005557397
000010 59 1e b0 bd 4a 6f 7c 3d 50 d2 42 3c 8b 49 b4 3c
       -0.08599538 0.06162957 0.011890963 0.022007724
000020 2f e1 30 bc 82 49 41 bc 93 b1 9b bd 49 27 d4 3d
       -0.010795875 -0.011797311 -0.07602229 0.103590555
000030 8e 3b a3 bc bc 7a a4 bc 1f 20 2d bd ed c2 f4 bc
       -0.019925859 -0.020078056 -0.04226696 -0.029878104
000040 c3 ac 68 bd 97 3f 18 bd 09 df 13 3d cd bf a0 3d
       -0.056805383 -0.03717002 0.036101375 0.07849083
000050 d9 d2 68 bb 5e be 9c bd 62 a1 5b 3d f8 d2 cf 3d
       -0.0035526066 -0.07653497 0.053620704 0.10147661
000060 3b d4 9f 3d 09 4c 09 3d da 55 19 3d 0d 1d 3a 3d
       0.078041516 0.03351978 0.03743539 0.04543786
000070 dd 05 b3 3d 94 83 78 3d 62 4c 6e bd 5f da 58 bd
       0.08741353 0.060672358 -0.058178313 -0.05294263
000080 c9 e0 9b 3d 0d 72 a8 bd 69 47 87 bd af 33 3c bc
       0.07611234 -0.082248785 -0.06605417 -0.011486932
000090 00 84 8c bd cd 92 10 bd 6e ae 40 3d 33 ad 9e 3d
       -0.068611145 -0.03529625 0.04704135 0.07747879
0000a0 09 60 b0 bd 9f aa 8a 3d 8a c5 c6 3d 6e 2f 1e 3a
       -0.08612067 0.06770825 0.09705646 0.0006034289
0000b0 61 c2 b0 3d cd fd 14 3c ce 63 74 bd d2 75 16 3c
       0.08630825 0.009093714 -0.059665494 0.009183364
0000c0 9a fc f6 3b e9 5f ab bb ef e4 3e 3d 3d 97 4c 3c
       0.0075374367 -0.0052299392 0.046605047 0.01248723
0000d0 07 be 50 bd 65 7a 6d bd b3 f7 d4 ba b3 da ae 3d
       -0.050962474 -0.057978053 -0.0016248137 0.08537807
0000e0 8d d6 8a 3d e1 77 56 3d bc 37 66 3d 23 b5 ca 3d
       0.067792036 0.05236042 0.056205496 0.0989783
0000f0 2f c8 2e bd b3 82 9a 3c 76 19 d3 bc 3c ac 8f bc
       -0.04267138 0.01886115 -0.025768977 -0.017538182
000100 55 13 ea bc b9 48 3a bd 11 4c 63 3d 09 ec c4 3d
       -0.028573671 -0.04547951 0.055492464 0.09615333
000110 99 7e 83 bd 1c c8 b2 ba e2 e5 81 3d 32 50 ae 3d
       -0.06420631 -0.001363996 0.06342675 0.0851139
000120 24 2d 1c bc ec 64 7a 3c 97 6b d4 3d d7 9a 0a 3d
       -0.009532247 0.015282851 0.10372084 0.033839073
000130 aa d1 a9 3c e5 3e 83 bd a7 87 9b bc f3 4a ad 3c
       0.020729858 -0.064084806 -0.018985583 0.021153903
000140 ca 35 05 bd 32 b1 c3 3d 05 75 d6 3d cf a1 43 3c
       -0.032522 0.09555282 0.104715385 0.011940434
000150 e4 c6 d8 bc 49 57 5d 3c a2 98 7b 3b 9a 8c 97 bd
       -0.026462026 0.01350958 0.0038390537 -0.073998645
000160 55 80 19 bd d2 4f 3e 3d 77 94 f0 bc 1a 9d 08 bd
       -0.037475903 0.04646284 -0.029367669 -0.03335295
000170 02 a4 b3 3d 44 c9 4b bd 14 f5 11 bd 4d c1 6c 38
       0.087715164 -0.04975249 -0.035634115 5.644681e-05
000180 ed 79 2b 3b a1 d7 68 3d 8c 15 3d 3b f6 66 21 bb
       0.0026165203 0.056846265 0.0028851954 -0.002462802
000190 4c 22 2f bd 95 72 3c bd a6 7b e9 bb 7d db 57 bd
       -0.042757317 -0.04600771 -0.0071253357 -0.052699555
0001a0 58 ef 9e 3d 7d 13 46 bd 58 ae fd bb 01 f5 3f bc
       0.07760495 -0.04835843 -0.0077417307 -0.011716128
0001b0 1d 27 4c 3d 5d 33 8e 3d 17 c9 c1 b8 2d aa de ba
       0.04984199 0.069433905 -9.240413e-05 -0.0016987972
0001c0 50 ff 25 bc 62 37 8c 3d 2a 7f f0 3a b5 df 8e bc
       -0.010131672 0.06846501 0.0018348445 -0.017440656
0001d0 16 12 6e bd 23 53 57 bd 4d 0e 32 bd b0 8d b9 3c
       -0.058122717 -0.05256952 -0.04347067 0.02265057
0001e0 02 72 8b 3c 03 78 ae bd cd 4a 0f bc 85 6b 86 bc
       0.017022137 -0.08518984 -0.008745861 -0.016408691
0001f0 87 27 e8 3c 14 b2 29 3d 0d 79 45 bd 22 9b 87 bd
       0.02833916 0.041429594 -0.048211146 -0.06621386
000200 f8 45 83 bd 6e b5 15 bd 9f 86 9f 3d 4e 26 ab 3d
       -0.0640983 -0.036549978 0.07789349 0.083569154
000210 1d 18 75 3d 15 2b 07 bc 89 db 95 bd e7 8c 5d bd
       0.05983745 -0.008250018 -0.07317264 -0.054089453
000220 7d 86 af bd 33 ad 44 bd 97 89 04 bd d6 73 bc bd
       -0.085705735 -0.04801674 -0.03235778 -0.092017815
000230 33 c3 4a bd dd 9a ab bc a7 12 bc 3c 1c 77 95 3c
       -0.049502563 -0.020947868 0.022958113 0.018245272
000240 07 25 2a 3c 5d 5e d2 bc 89 75 9e 3c 37 34 23 bd
       0.010384805 -0.025679762 0.019343155 -0.039844718
000250 f3 e9 4a bc 25 cf 16 3c fc 96 a0 3c 88 4b 1c 3c
       -0.012384879 0.009204661 0.019603245 0.009539492
000260 d6 35 f7 3c 54 ab b0 bd 4c 55 52 3c 1e b0 87 3d
       0.030177038 -0.08626428 0.012837719 0.066253886
000270 7b d3 ca 3c 28 48 9a 3b 36 17 88 3d f5 c2 43 bd
       0.024759045 0.0047083087 0.06645052 -0.047793347
000280 5b 09 9f bd f7 ea 98 bc 97 e7 62 bc 54 2d 04 3d
       -0.07765456 -0.018666727 -0.013849161 0.03226979
000290 73 b0 23 3d fb 76 86 3d fe 11 a0 3d 96 f5 9c 3a
       0.039963197 0.065656625 0.07815932 0.0011975046
0002a0 2e 6b 5a 3d 37 30 ae 3d c1 39 ff 3c a9 df 3f bd
       0.05332487 0.0850529 0.031155469 -0.04684416
0002b0 a6 1c 0d 3d b4 39 62 bd 46 99 58 bd 51 85 06 bd
       0.03445115 -0.05523081 -0.052880548 -0.032841984
0002c0 e8 5a ce 3c c8 42 30 3b 84 ca 0e 3d 77 00 22 3d
       0.025189832 0.0026895273 0.034861103 0.039551225
0002d0 9b 03 83 3d 3d d3 72 bd 62 16 16 3d 55 d5 77 3c
       0.06397172 -0.059283484 0.03664244 0.015126546
0002e0 57 b1 2e ba 9a a6 07 bd 0e 17 05 3c 36 3a 14 3d
       -0.0006663999 -0.033117868 0.008123172 0.036188327
0002f0 19 41 0a bc 12 77 57 3d cf 23 29 3d d0 62 87 bd
       -0.008438372 0.05260379 0.041293915 -0.06610644
000300 c0 7a c2 bc d2 b2 3e bd ec 78 90 bc 3b d4 a2 3b
       -0.023740172 -0.046557255 -0.017635785 0.0049691475
000310 52 9e f7 3c 68 ed a3 bc 97 34 7a bc 45 f0 a3 3d
       0.03022686 -0.020010665 -0.015271327 0.08004812
000320 a6 c1 c8 3c fe 3c 14 bc dd b5 1b bd e8 78 37 bd
       0.024506401 -0.009047745 -0.038015235 -0.04479304
000330 f3 e5 14 bd 00 5f b2 3d 05 31 29 3c 21 75 21 bd
       -0.03635211 0.08709526 0.010326629 -0.039418343
000340 ca e6 7c 3d 88 55 a5 3d 42 a6 b3 bd 32 69 4e 3d
       0.061743535 0.080729544 -0.087719455 0.05039329
000350 79 d5 d8 3b cc 9f 35 3d 6d 82 3d bd ae 8c 9b 3d
       0.006617245 0.044341847 -0.04626696 0.07595192
000360 28 e6 49 bd 52 7a 65 3d b6 b4 c9 bc a1 cc 88 3b
       -0.04929176 0.056024857 -0.024622303 0.0041747843
000370 bb 43 7a 3d 82 15 81 bd 92 6c 99 3d 3e 0b b1 3d
       0.06109975 -0.063029304 0.07491411 0.086447224
000380 bc f1 fe bb 53 b8 d7 3c d1 a3 b2 bd 31 07 8c 3d
       -0.007780282 0.02633301 -0.08722652 0.06837309
000390 8f 8d 91 bd 66 da af 3d bf 6c 75 3d 8f b7 85 bd
       -0.07107078 0.08586578 0.05991816 -0.06529152
0003a0 fd 88 68 3d 14 22 4d 3d 9b 96 a5 3d 15 68 a5 3d
       0.056771267 0.050081328 0.08085366 0.08076493
0003b0 dc 1f 94 bc ef bb ad 3d 86 4c 4e 3c e8 ba a2 bd
       -0.018081598 0.08483111 0.012591487 -0.07945806
0003c0 bf 6e a4 bd 7b 84 7e 3d 75 8e 12 3d 90 08 12 3c
       -0.08028936 0.062138062 0.03578039 0.008913174
0003d0 60 fb 33 bd 5e 1e 77 3b 42 89 26 3d f6 5f c3 3b
       -0.0439409 0.003770731 0.040658243 0.005962367
0003e0 f9 69 71 3d 2f d0 73 3c 0e 40 8c 3a a1 46 5a bc
       0.058938954 0.014881178 0.0010700242 -0.013322503
0003f0 e2 a3 1c 3d e0 34 1f 3d b1 80 ca 3c 40 fb 0c bd
       0.03824223 0.038868785 0.024719568 -0.0344193

actor.bias f4 [4]
000000 ce ab a6 3d 0e 26 02 3d 3b e4 d7 bd ac ea 85 bd
       0.08138238 0.031774573 -0.105415784 -0.06538901

critic.weight f4 [1, 128]
000000 d5 fb e5 bb e8 bf 48 3d 5b bd f7 bc 4b 83 0c bd
       -0.007018546 0.04901114 -0.030241659 -0.0343049
000010 63 db 1a 3d fa 5a 35 bd 26 f5 2a 3d 31 73 af bd
       0.03780688 -0.044276215 0.041737698 -0.08566893
000020 f7 e0 95 3d 46 ad 86 bc 6e cd 3f 3d b4 bd 91 3c
       0.07318299 -0.016440045 0.046826772 0.017790653
000030 dc d1 22 3d b7 39 89 bd 6d 3a 8d 3d 5b 34 46 3c
       0.03975092 -0.06700461 0.068959095 0.012097443
000040 01 d6 5e 3d 72 02 d1 bc 64 40 c8 3c 1a 42 af 3d
       0.05440331 -0.025513861 0.024444766 0.0855753
000050 34 c7 32 3d 0b c0 5a 3d 76 3a a1 bc c6 1f 80 bd
       0.043647006 0.053405803 -0.019681197 -0.0625606
000060 27 b9 39 bb 6b b2 a6 3d 6c 8e 8e bd 79 ec 5d bd
       -0.002833912 0.08139499 -0.069607586 -0.054180596
000070 65 43 54 3d aa 29 03 bd 16 57 a5 39 76 f7 80 3d
       0.051822085 -0.032022156 0.00031536137 0.062971994
000080 7e 87 7b bb f3 5e 3d 3c 82 dc 62 3d b6 20 2c 3d
       -0.003838032 0.011558282 0.055386074 0.042023383
000090 a1 bf 30 3c 0b e3 5d 3d 07 4f 94 bd 87 8e b3 3c
       0.010787875 0.054171603 -0.07241636 0.021918548
0000a0 d4 52 8f bd 60 3e 61 bd c4 25 2e bd 54 ff 55 3c
       -0.0699822 -0.054991126 -0.042516485 0.013061363
0000b0 e4 22 40 bc a1 49 4d bc 53 4d 81 3b c9 67 82 3c
       -0.011727069 -0.0125297615 0.0039459853 0.01591863
0000c0 90 b6 f4 3c 4b 0e 3a bd 45 a7 a9 3d d5 05 aa 3d
       0.029872209 -0.045423787 0.08283857 0.083018936
0000d0 8b 50 d9 3c db e3 82 bd 76 31 ee bc eb 51 9b 3d
       0.026527664 -0.06391116 -0.02907632 0.07583984
0000e0 d8 9a c5 b9 79 e3 5a ba 42 f8 81 3d 5f 14 c3 3c
       -0.00037690136 -0.0008349936 0.063461795 0.023813425
0000f0 e6 45 e2 bc e3 e2 26 3d c3 15 e0 3c 49 30 14 bd
       -0.02762122 0.04074372 0.027354127 -0.03617886
000100 01 6b a9 bd 7b 08 8a bd 9c c7 94 bd 13 12 a3 bd
       -0.082723625 -0.06739899 -0.07264635 -0.07962432
000110 22 08 ac bd 4e f1 7c bd 80 51 74 3d 22 e1 b2 3d
       -0.08399989 -0.061753564 0.059648037 0.08734347
000120 08 af 96 bd 87 b8 76 3d 59 37 9a 3d d6 b3 e5 3c
       -0.07357603 0.060234573 0.07530088 0.028039854
000130 52 bd 4b bd 71 91 7d bd 4e 70 fa bb 7a f3 33 3c
       -0.049741097 -0.06190628 -0.0076427823 0.010983342
000140 45 5d b7 3c a4 f2 15 bd 6e 3e 82 bc 25 3a 5d 3d
       0.022383342 -0.036608353 -0.01589891 0.05401053
000150 42 92 9f 3d 4a 74 e6 3c 15 43 d2 bc b1 e3 7c 3c
       0.07791568 0.028131623 -0.025666753 0.015435145
000160 39 71 ad 3d fb 58 3b bd 40 13 77 3d 96 f9 98 3c
       0.08468861 -0.045739155 0.060321093 0.0186737
000170 5b 07 45 3d 93 07 12 3d 2b b0 30 bd 7c 9d 36 3d
       0.048102718 0.035651755 -0.043136757 0.044583783
000180 c0 ad 5e 3d 4c 84 ac bd 30 cb fc bc e2 84 ea bb
       0.05436492 -0.08423671 -0.030858606 -0.007156954
000190 ce 1d b0 bd e1 94 8d 3a ea 91 ac 3d ed 4c 8a 3b
       -0.08599435 0.0010801816 0.084262684 0.004220596
0001a0 4f 2f 71 3d 61 31 1f bd bb 48 a2 bd da 0e 2e 3d
       0.058883008 -0.03886545 -0.079240285 0.042494632
0001b0 23 d3 86 bd 47 17 9a 3d 68 ef 69 3d 11 06 8a bd
       -0.0658324 0.07523971 0.05711308 -0.06739438
0001c0 cc 1e b3 3a 62 c7 cc bc b8 ab 6e 3d a9 b1 ac bd
       0.0013665794 -0.024997417 0.058269233 -0.084323235
0001d0 b1 2e 26 3d c7 ed bf bc 8b f1 78 3c eb 65 e4 3c
       0.040571872 -0.02342881 0.015194307 0.02788063
0001e0 5d ee 9e bc 45 a9 8e bb d1 fd 96 bb 09 90 55 bd
       -0.01940077 -0.0043536746 -0.004607894 -0.052139316
0001f0 f0 fc 83 3d ae d5 9f 3d 32 aa 47 3d b4 9c 99 bd
       0.064447284 0.07804428 0.048746295 -0.07500592
