code/models/ppo_uncertainty_checkpoint_100.pt (torch, 75727 bytes, 7 tensors)

encoder.0.weight f4 [128, 5]
0.18682969 0.06500997 -0.33112997 0.43373698 -0.0010906572 0.14600533 -0.09453913 0.3780386
-0.16047803 -0.115374185 0.25184458 0.021727046 0.310478 -0.118503936 -0.20749927 -0.07593361
0.23797667 0.11452224 0.0798447 -0.08005604 -0.36768058 -0.23404713 0.015124368 -0.3022261
-0.18720493 -0.28678554 0.01751034 -0.3017312 -0.2836209 0.24591899 -0.26389372 -0.102580614
0.3068061 -0.19154054 0.41273063 -0.05662221 -0.27500874 -0.37798607 -0.09985644 0.23624627
0.043013733 -0.24567482 -0.43607035 -0.34079993 0.22928138 0.12859069 0.27984065 0.058901876
-0.0003085686 -0.2888244 0.43338168 -0.047773775 0.43028608 0.358349 -0.020504387 -0.22878274
0.10149239 0.19319458 -0.35210675 -0.14150411 0.39496982 0.36246723 0.28522626 -0.33659798
0.27841362 0.35962164 -0.22264233 0.11792322 0.2299728 -0.08918487 -0.056633078 0.25647983
0.29554576 0.2615424 -0.10506332 -0.43459556 0.34610152 0.11891893 -0.27491727 -0.21062015
-0.38750973 0.2305295 0.15942328 -0.16342202 -0.2655838 0.110743925 -0.4362132 -0.3522133
-0.20344974 -0.25335085 -0.038018614 0.19857971 0.20788078 -0.4178358 0.23390423 -0.27151832
-0.07337829 0.07058965 -0.14939955 0.11730339 0.025069647 -0.19624154 0.20299722 0.14640023
0.37812483 -0.13286941 0.27388272 0.34864196 -0.43286678 0.42030925 0.38431254 0.102774054
0.10427235 0.27472425 -0.2218241 -0.043222368 0.009594081 0.4021443 -0.27530783 0.37471762
0.31364357 -0.45223874 0.1087136 0.39789066 -0.064275526 0.3864472 -0.2012973 0.20733258
0.32521176 -0.12675203 -0.28931653 -0.09103422 -0.37366152 0.36598477 -0.1031676 0.3060272
0.27962938 0.07482722 -0.3865066 -0.060373776 -0.24314734 -0.18688507 -0.23712914 -0.056568317
0.41768593 -0.29227117 0.19223423 0.4465796 -0.061749175 0.3010522 0.39392474 -0.060567893
0.28450024 0.09990055 -0.30859286 0.37023684 0.3592881 -0.060332194 0.4501894 0.08230757
0.38534036 0.38715833 0.14487638 0.22087404 0.100787215 0.19102007 -0.28900388 -0.08445806
0.0301045 -0.18145613 -0.35489514 -0.39928448 -0.2192931 -0.26071793 0.010569054 -0.1475988
0.44410133 -0.15989101 0.023968466 0.24139339 0.32291248 0.19238402 -0.049620487 0.07785968
0.38386554 0.09955479 -0.04727445 0.2659371 -0.32368788 0.33236843 -0.09692176 -0.14587545
0.33888087 0.03442735 -0.017425032 -0.19370963 0.060248353 -0.08136789 -0.4262921 0.31037483
0.38568136 -0.119069435 0.3525331 0.2248719 -0.2657943 0.26710084 0.21734737 0.0019748705
0.061480388 -0.2651554 0.19262874 0.124707535 -0.164239 -0.28021583 0.43318036 0.36825353
0.14469564 0.28068632 -0.048195932 -0.3758868 -0.33967462 -0.38515002 0.20384188 0.15652587
-0.2601322 0.32534105 0.16610031 -0.4489673 0.02093778 0.2987985 0.21085536 -0.3136951
0.25358576 -0.37212867 0.30389762 -0.18885067 0.112439044 0.2727895 -0.10344984 -0.06745132
-0.4057113 -0.24458422 0.12810795 0.19494294 -0.16512895 0.4426331 0.3569732 0.21396779
0.3545803 0.11893825 0.20372231 0.029201528 0.34985104 0.3596674 0.42259905 0.008004585
00000000: 4850 3f3e f223 853d de89 a9be c612 de3e
00000010: 62f4 8eba 6c82 153e bb9d c1bd 468e c13e
00000020: 5a54 24be 4d49 ecbd c6f1 803e ebfc b13c
00000030: f9f6 9e3e 31b2 f2bd b07a 54be 1583 9bbd
00000040: 28b0 733e a38a ea3d 9e85 a33d 6cf4 a3bd
00000050: a140 bcbe 0daa 6fbe 32cc 773c 61bd 9abe
00000060: a6b2 3fbe 8ed5 92be d871 8f3c 837c 9abe
00000070: c236 91be 30d2 7b3e 141d 87be c915 d2bd
00000080: b015 9d3e 3423 44be 6e51 d33e b1ec 67bd
00000090: f2cd 8cbe 6487 c1be 8981 ccbd 8bea 713e
000000a0: 2b2f 303d 2e92 7bbe 9d44 dfbe 547d aebe
000000b0: bdc8 6a3e 47ad 033e 4647 8f3e 1843 713d
000000c0: 60c7 a1b9 cbe0 93be 34e4 dd3e 6fae 43bd
000000d0: 754e dc3e 8579 b73e d1f8 a7bc 0646 6abe
000000e0: 3edb cf3d cdd4 453e 5647 b4be 74e6 10be
000000f0: 7c39 ca3e 4e95 b93e 2d09 923e 9256 acbe
00000100: 3b8c 8e3e 5420 b83e 5afc 63be bb81 f13d
00000110: fd7d 6b3e 8fa6 b6bd 16f8 67bd 5351 833e
00000120: c651 973e e3e8 853e 702b d7bd 4f83 debe
00000130: 3834 b13e c58b f33d f5c1 8cbe cfac 57be
00000140: ad67 c6be ed0f 6c3e db3f 233e 1a58 27be
00000150: 9afa 87be b6cd e23d 5657 dfbe 4d55 b4be
00000160: 2155 50be 34b7 81be 68b9 1bbd 7b58 4b3e
00000170: b3de 543e 93ee d5be 9784 6f3e 7304 8bbe
00000180: 5b47 96bd 4e91 903d 32fc 18be c23c f03d
00000190: dc5e cd3c 8bf3 48be 81de 4f3e f1e9 153e
000001a0: 9499 c13e eb0e 08be 5b3a 8c3e 3381 b23e
000001b0: b7a0 ddbe c632 d73e 9dc4 c43e 347b d23d
000001c0: be8c d53d a8a8 8c3e db25 63be f009 31bd
000001d0: 7e30 1d3c dce5 cd3e 26f5 8cbe fdda bf3e
000001e0: e495 a03e d68b e7be 3ca5 de3d 53b8 cb3e
000001f0: e3a2 83bd 68dc c53e e120 4ebe fe4e 543e
00000200: 2882 a63e 49cb 01be 4c21 94be 2670 babd
00000210: 9050 bfbe 5b62 bb3e 8949 d3bd 99af 9c3e
00000220: 952b 8f3e 033f 993d 31e4 c5be 7e4a 77bd
00000230: 9efb 78be cd5e 3fbe fbd1 72be 2eb4 67bd
00000240: eeda d53e 91a4 95be 0dd9 443e 15a6 e43e
00000250: b4ec 7cbd 8423 9a3e 81b0 c93e 0a16 78bd
00000260: 04aa 913e a998 cc3d e2ff 9dbe af8f bd3e
00000270: 9cf4 b73e e41e 77bd 3a7f e63e df90 a83d
00000280: 554b c53e 9e39 c63e 795a 143e ce2c 623e
00000290: 8769 ce3d c49a 433e 51f8 93be 59f8 acbd
000002a0: b69d f63c a3cf 39be d1b4 b5be 046f ccbe
000002b0: 5f8e 60be d27c 85be d329 2d3c 2424 17be
000002c0: 4061 e33e 78ba 23be 8459 c43c d42f 773e
000002d0: c954 a53e 5100 453e da3e 4bbd e574 9f3d
000002e0: 068a c43e 62e3 cb3d dba2 41bd e828 883e
000002f0: 6bba a5be 322c aa3e ea7e c6bd 6060 15be
00000300: cb81 ad3e b103 0d3d f1be 8ebc d15b 46be
00000310: fac6 763d 35a4 a6bd f542 dabe 73e9 9e3e
00000320: 0778 c53e adda f3bd 387f b43e d244 663e
00000330: 3116 88be 71c1 883e 4f90 5e3e d46c 013b
00000340: dcd2 7b3d 73c2 87be 7840 453e aa66 ff3d
00000350: 452e 28be 7378 8fbe d1c9 dd3e ba8b bc3e
00000360: 182b 143e 1eb6 8f3e 1969 45bd 3c74 c0be
00000370: d5e9 adbe 6232 c5be edbb 503e 5148 203e
00000380: 0c30 85be 1a93 a63e 3316 2a3e 0bdf e5be
00000390: b585 ab3c 1efc 983e 78ea 573e a59c a0be
000003a0: fed5 813e a687 bebe 7898 9b3e 1262 41be
000003b0: 7146 e63d 11ab 8b3e 82dd d3bd eb23 8abd
000003c0: 64b9 cfbe 4974 7abe bb2e 033e 1f9f 473e
000003d0: 9017 29be cea0 e23e 31c5 b63e 5f1a 5b3e
000003e0: 8d8b b53e e695 f33d 959c 503e 0b38 ef3c
000003f0: ad1f b33e 5326 b83e e75e d83e aa25 033c

encoder.0.bias f4 [128]
-0.2638987 0.34646142 0.16668503 0.05667597 -0.29904103 -0.18336166 -0.2416341 0.30223125
-0.29423183 -0.1996744 0.14465916 -0.017848881 -0.010717796 0.15346342 -0.14011611 -0.17131795
0.122717224 -0.096654095 0.33947954 0.06884073 -0.27256843 0.26477432 0.4279225 0.003047108
0.42744792 0.4260068 -0.057637244 -0.17002371 -0.1746466 -0.20237413 0.16745724 -0.066304944
0.410282 -0.37303743 -0.10263384 0.016903823 -0.22231612 0.054316882 -0.2370756 0.3291365
0.031693343 -0.059159737 0.19263335 0.37630478 -0.17063797 -0.32669145 0.21663494 -0.43717363
0.19621892 -0.31190658 0.34669903 0.094037384 0.34709013 0.097691335 0.07785925 0.11345651
0.32051924 -0.16158314 0.27032432 -0.17671515 0.15962768 -0.17328131 -0.10771676 0.4203527
0.3783856 -0.24738833 -0.29610896 0.3299435 -0.1034847 0.09364392 0.27164486 0.35812432
0.23537649 -0.24275276 0.34750563 -0.36929908 0.22560556 0.35801584 0.13797799 -0.12625918
0.23572871 0.40971652 0.013796271 0.17415792 -0.22971356 0.31206092 -0.060371917 -0.010555683
-0.37207884 -0.12925367 0.20411988 0.3753576 -0.38811904 0.17291045 0.31018835 0.3177912
0.20975825 -0.32302466 -0.045844175 -0.41368052 -0.049841136 0.0114538 -0.3413724 0.03138088
0.0032478098 -0.16201797 0.40867138 0.27475977 0.22943453 0.4324325 -0.092022814 -0.36386865
0.28373736 -0.16086343 -0.26533514 0.14361012 -0.023022387 -0.3609781 0.26547888 0.3174292
0.12478224 -0.41565657 0.32886195 0.34790564 0.084604 0.105128326 0.03358642 -0.3840662
00000000: bb1d 87be 6463 b13e 7baf 2a3e 1025 683d
00000010: e81b 99be 29c3 3bbe ee6e 77be 0ebe 9a3e
00000020: 8ea5 96be 7277 4cbe 8821 143e d137 92bc
00000030: b299 2fbc 8425 1d3e 997a 0fbe f96d 2fbe
00000040: 2b53 fb3d 95f2 c5bd 43d0 ad3e 5efc 8c3d
00000050: 178e 8bbe 8090 873e a818 db3e fdb1 473b
00000060: 74da da3e 901d da3e 0815 6cbd b21a 2ebe
00000070: 8fd6 32be 2a3b 4fbe e979 2b3e e3ca 87bd
00000080: 7b10 d23e c3fe bebe b131 d2bd e379 8a3c
00000090: d6a6 63be 617b 5e3d f2c3 72be 9484 a83e
000000a0: e1d0 013d 7b51 72bd ad41 453e 05ab c03e
000000b0: b8bb 2ebe 1a44 a7be 8dd5 5d3e 39d5 dfbe
000000c0: 9ded 483e 38b2 9fbe 8982 b13e ac96 c03d
000000d0: ccb5 b13e 6512 c83d ac74 9f3d e35b e83d
000000e0: 191b a43e 0d76 25be f367 8a3e d1f4 34be
000000f0: 7075 233e a870 31be 9b9a dcbd 7838 d73e
00000100: c2bb c13e 5e53 7dbe 989b 97be 5bee a83e
00000110: c9ef d3bd 62c8 bf3d 0915 8b3e 125c b73e
00000120: 8906 713e 2e94 78be 42ec b13e c514 bdbe
00000130: 2505 673e da4d b73e 1a4a 0d3e 164a 01be
00000140: de62 713e 5dc6 d13e c109 623c 7456 323e
00000150: 083a 6bbe 73c6 9f3e 8b48 77bd bef1 2cbc
00000160: 1e81 bebe 135b 04be cd04 513e df2e c03e
00000170: 8ab7 c6be 700f 313e 02d1 9e3e 87b5 a23e
00000180: deca 563e 7d63 a5be 1ac7 3bbd efcd d3be
00000190: 3826 4cbd b8a8 3b3c 5dc8 aebe 3d89 003d
000001a0: 35d9 543b 0ae8 25be 603d d13e 50ad 8c3e
000001b0: e3f0 6a3e cb67 dd3e 7576 bcbd fe4c babe
000001c0: 0646 913e 62b9 24be 02da 87be 880e 133e
000001d0: 7299 bcbc 1fd2 b8be d9ec 873e 1586 a23e
000001e0: d58d ff3d f0d0 d4be 9860 a83e b020 b23e
000001f0: dd44 ad3d 854d d73d ea91 093d 53a4 c4be

encoder.2.weight f4 [128, 128]
0.047769476 -0.04318656 0.009858032 -0.08610248 -0.0115113715 0.029070184 -0.008863171 -0.06208413
-0.05745822 -0.027656771 -0.07974572 0.026599173 0.066603765 -0.039490893 -0.04854473 0.051317338
0.060674567 0.04999243 0.07818946 -0.06301252 0.0577971 0.04015005 -0.054457795 0.06574932
0.018976534 -0.043784305 -0.08446436 0.03720423 -0.083793595 0.03859303 -0.060517326 -0.01290971
0.030785343 -0.00739262 -0.082356855 0.08526807 -0.024392122 -0.06004128 -0.0642815 -0.060559973
0.077634655 0.010184073 -0.08304062 0.07597704 -0.08141172 0.07120752 -0.02393707 0.031496573
0.07184335 0.040272493 -0.05157473 -0.080531426 -0.0759792 -0.026071735 0.05768697 0.06306408
-0.0072097364 0.03521791 -0.07202753 -0.057529733 -0.06431281 -0.08184441 0.003943965 -0.06788646
0.07417295 -0.021782495 -0.027199943 0.047239356 0.06821385 0.0019354823 -0.019821662 -0.006610657
-0.044979677 -0.025827546 -0.07772641 0.074971445 -0.06089414 -0.07424794 0.065650485 -0.02004108
-0.046543468 0.029348304 0.06324885 0.070806295 0.0591598 -0.06380761 0.06275334 0.03484661
0.07934628 0.055167582 0.00015570143 0.002820721 -0.017814541 0.021367367 0.036804873 -0.020376679
-0.048915707 0.067894615 -0.028862925 0.059023462 0.035347614 -0.006880206 0.061305318 0.048475124
0.036433853 -0.085862815 -0.034605112 -0.070704155 -0.057018165 0.0035163432 -0.034156013 -0.08649443
-0.039685313 0.006360012 0.004624551 0.06879121 -0.007212064 0.024094217 -0.04291694 -0.034832306
0.004496702 0.041821852 0.066186704 -0.06930146 0.03079383 -0.05546682 -0.07009682 0.050777894
0.013615177 0.009389682 0.08309037 0.067476355 -0.02953511 0.015780326 -0.084298864 0.07030281
-0.06011761 0.05138547 -0.02472845 -0.019254463 0.061904047 0.08593228 0.053600803 -0.06450287
0.01761178 -0.051615737 0.086592786 0.056418337 0.06800318 -0.039736465 0.06445358 0.02903066
-0.08664889 0.063324474 -0.06336025 0.06838798 0.08018797 -0.06625239 0.054166127 0.0087099895
-0.021303693 -0.04851483 0.083147 -0.08427289 -0.044834904 -0.08654724 0.08381705 -0.09223686
0.07305482 -0.037573457 0.070396446 0.036490534 -0.034234487 0.026726423 0.077884905 -0.0015111011
0.07505146 0.0073714657 -0.026317416 0.058317654 -0.07746176 -0.007635401 0.0668122 -0.07911056
0.07248653 0.08829895 -0.08658898 -0.048260935 -0.00036031313 0.031436205 -0.01165352 0.017279059
-0.013084984 0.060819324 0.077553436 -0.061467115 0.008451665 0.06879742 -0.049216636 -0.016021129
0.012244664 0.016275361 -0.050616294 -0.010119768 0.043845642 0.014473325 -0.026128562 -0.061384548
-0.009961629 -0.07034403 -0.0831584 -0.00092312816 0.0032237226 0.04548795 -0.00872419 0.021553295
-0.04159319 -0.028397322 0.03357814 0.062379725 0.013118651 -0.06489338 -0.035124246 -0.066590406
0.03054576 -0.01288558 -0.066044435 0.077891245 -0.08284968 -0.028355159 -0.009866546 0.08302651
0.062418345 0.060996618 0.079531014 0.08535018 0.062516496 -0.04042556 -0.028387807 -0.042873822
-0.012453255 0.0149370255 0.05451455 0.05852466 0.0069406424 -0.0567679 -0.0055253976 0.029198399
0.08553017 0.02406794 -0.0061974674 -0.08792487 -0.08562962 0.08563644 -0.049374428 -0.023865419
00000000: eda9 433d 64e4 30bd 9583 213c 7f56 b0bd
00000010: 319a 3cbc 9824 ee3c d536 11bc ee4b 7ebd
00000020: 4f59 6bbd 7490 e2bc b951 a3bd 82e6 d93c
00000030: 8e67 883d 34c1 21bd d7d6 46bd 2132 523d
00000040: e585 783d ddc4 4c3d cc21 a03d b50c 81bd
00000050: a7bc 6c3d 6174 243d 230f 5fbd 94a7 863d
00000060: ad74 9b3c 2c57 33bd a6fb acbd 7663 183d
00000070: fa9b abbd ba13 1e3d 04e1 77bd 4083 53bc
00000080: 8b31 fc3c cb3d f2bb b6aa a8bd 07a1 ae3d
00000090: fdd1 c7bc d8ed 75bd 05a6 83bd bc0d 78bd
000000a0: ebfe 9e3d 19db 263c 3311 aabd da99 9b3d
000000b0: 30bb a6bd 40d5 913d ad17 c4bc 8d02 013d
000000c0: 9b22 933d c5f4 243d 0640 53bd a9ed a4bd
000000d0: fc9a 9bbd 6494 d5bc 2c49 6c3d be27 813d
000000e0: a73f ecbb a840 103d 2b83 93bd 4ca4 6bbd
000000f0: 6fb6 83bd 0b9e a7bd 603c 813b 0e08 8bbd
00000100: fde7 973d 3471 b2bc 6ad2 debc 0e7e 413d
00000110: b4b3 8b3d 02b0 fd3a 0a61 a2bc 369e d8bb
00000120: 9c3c 38bd 4a94 d3bc 062f 9fbd a18a 993d
00000130: 226c 79bd 4e0f 98bd c373 863d 312d a4bc
00000140: 5da4 3ebd db6b f03c 9d88 813d e402 913d
00000150: 8c51 723d 90ad 82bd d384 803d 52bb 0e3d
00000160: 4d80 a23d 67f7 613d c943 2339 d8db 383b
00000170: cdef 91bc 9e0a af3c b5c0 163d feec a6bc
00000180: d65b 48bd 550c 8b3d f171 ecbc 96c2 713d
00000190: a9c8 103d 5a73 e1bb 491b 7b3d da8d 463d
000001a0: aa3b 153d d8d8 afbd 17be 0dbd 57cd 90bd
000001b0: e18b 69bd 7372 663b 2de7 0bbd fe23 b1bd
000001c0: 118d 22bd a667 d03b 8c89 973b 68e2 8c3d
000001d0: 2e53 ecbb 3c61 c53c acc9 2fbd 52ac 0ebd
000001e0: 1259 933b 644d 2b3d e58c 873d eded 8dbd
000001f0: 5843 fc3c 2d31 63bd ec8e 8fbd 7bfc 4f3d
00000200: 3112 5f3c 2ed7 193c 492b aa3d 0b31 8a3d
00000210: 9df3 f1bc be45 813c e2a4 acbd ebfa 8f3d
00000220: e23d 76bd 9279 523d 5293 cabc 89bb 9dbc
00000230: 198f 7d3d 43fd af3d 848c 5b3d 151a 84bd
00000240: 9446 903c 066b 53bd 8f57 b13d ea16 673d
00000250: 4045 8b3d b4c2 22bd 3d00 843d b5d1 ed3c
00000260: f974 b1bd 43b0 813d 05c3 81bd ff0e 8c3d
00000270: 9739 a43d 55af 87bd 4ddd 5d3d 58b4 0e3c
00000280: 1585 aebc 7db7 46bd f948 aa3d 4497 acbd
00000290: cea4 37bd ae3f b1bd 46a8 ab3d aee6 bcbd
000002a0: c49d 953d a0e6 19bd 032c 903d 1977 153d
000002b0: 7639 0cbd 5ff1 da3c 1f82 9f3d 2410 c6ba
000002c0: 94b4 993d 568c f13b 9f97 d7bc 7ede 6e3d
000002d0: 45a4 9ebd 6332 fabb d6d4 883d b804 a2bd
000002e0: d173 943d 14d6 b43d 9055 b1bd 42ad 45bd
000002f0: 69e8 bcb9 40c3 003d 68ee 3ebc d08c 8d3c
00000300: 6762 56bc af1d 793d 56d4 9e3d f1c4 7bbd
00000310: da78 0a3c a9e5 8c3d 6297 49bd be3e 83bc
00000320: d89d 483c e853 853c 0853 4fbd 62cd 25bc
00000330: 7d97 333d 8621 6d3c 910b d6bc 5d6e 7bbd
00000340: 1a36 23bc 8810 90bd f44e aabd 15fe 71ba
00000350: 1745 533b 9351 3a3d e8ef 0ebc 8990 b03c
00000360: 9f5d 2abd 80a1 e8bc 3b89 093d e281 7f3d
00000370: 9cef 563c d2e6 84bd 71de 0fbd 8d60 88bd
00000380: 1a3b fa3c 0a1e 53bc 4e42 87bd 7285 9f3d
00000390: 18ad a9bd 1449 e8bc 4ba7 21bc ce09 aa3d
000003a0: 61aa 7f3d 97d7 793d 28e1 a23d 13cc ae3d
000003b0: a608 803d 4695 25bd 8c8d e8bc 769c 2fbd
000003c0: bd08 4cbc 6dba 743c a64a 5f3d 8eb7 6f3d
000003d0: 546e e33b 7585 68bd 650e b5bb 7b31 ef3c
000003e0: 712a af3d 212a c53c 2014 cbbb f411 b4bd
000003f0: 955e afbd 2862 af3d d73c 4abd 6981 c3bc

encoder.2.bias f4 [128]
0.07069621 -0.069135234 0.03487435 0.0028516734 -0.07747479 -0.057803955 -0.06524194 0.03721267
-0.08466154 -0.01769449 0.07906338 0.0032919978 -0.07703273 -0.035532754 -0.009944587 0.06217559
-0.04569849 -0.03782631 -0.024657127 0.019059066 -0.013124454 -0.08517427 0.04050742 0.00089769444
0.06081435 -0.031622276 0.078490935 -0.046154194 -0.08586126 0.08213894 0.079190835 -0.021765668
0.046421986 0.083098 0.02917532 0.04602379 -0.018160582 -0.06881664 0.079541154 0.048928924
-0.041800033 0.060213495 0.06553969 0.04014102 -0.02152855 0.04068776 0.07655483 0.0030927502
-0.009622513 0.03140103 -0.018998556 0.06832479 0.06687228 0.046348706 -0.056835625 0.043666396
0.033866774 0.081279725 0.045987707 -0.040993247 0.041603606 0.02699534 -0.034448724 -0.08694075
0.03063953 -0.0063234284 0.056545395 -0.023448901 -0.021364653 0.026910005 -0.01638056 -0.004318279
0.012723408 -0.023389438 -0.055458155 -0.01602852 0.016531307 0.049105212 0.0038215886 0.042503856
-0.003818774 0.078879 0.0073615685 0.080694415 0.071062595 -0.06823379 0.0796989 0.03490659
0.06104934 -0.09017946 0.03545425 0.049752235 -0.057738442 -0.0072180713 -0.05835348 0.061573274
0.0035836832 -0.07971713 0.030178608 -0.0781024 -0.039278537 -0.03628898 -0.062332697 0.031210745
-0.053615265 -0.050511442 -0.015109759 0.00048279407 -0.061733846 -0.0233847 0.08072392 -0.065065965
0.08898966 -0.06729238 -0.02260716 0.06995478 -0.0013973117 -0.0031546073 0.07813925 0.06767472
-0.09298933 0.01789599 -0.039945025 -0.03479073 0.033088468 -0.08415344 0.066845424 0.0767234
00000000: 2dc9 903d c696 8dbd 68d8 0e3d 24e3 3a3b
00000010: 1aab 9ebd d7c3 6cbd 919d 85bd 506c 183d
00000020: 0863 adbd 09f4 90bc fbeb a13d 8fbe 573b
00000030: 56c3 9dbd cb8a 11bd 9fee 22bc d5ab 7e3d
00000040: 572e 3bbd c3ef 1abd befd c9bc c221 9c3c
00000050: f307 57bc d96f aebd 1ceb 253d 4153 6b3a
00000060: 7818 793d 5c86 01bd dbbf a03d 2e0c 3dbd
00000070: 07d8 afbd 7638 a83d ce2e a23d ea4d b2bc
00000080: fb24 3e3d 492f aa3d 1501 ef3c 7183 3c3d
00000090: 80c5 94bc bdef 8cbd 79e6 a23d b269 483d
000000a0: 8336 2bbd 6da2 763d ac39 863d e96a 243d
000000b0: a45c b0bc 35a8 263d c7c8 9c3d bdaf 4a3b
000000c0: bfa7 1dbc 5e9e 003d dca2 9bbc deed 8b3d
000000d0: 55f4 883d 24d8 3d3d 79cc 68bd 89db 323d
000000e0: e3b7 0a3d fc75 a63d 9b5d 3c3d 89e8 27bd
000000f0: 8b68 2a3d 5525 dd3c 1b1a 0dbd fe0d b2bd
00000100: c0ff fa3c c334 cfbb 259c 673d e917 c0bc
00000110: ed04 afbc 5f72 dc3c 8630 86bc 5a80 8dbb
00000120: d775 503c 359b bfbc 1728 63bd 3e4e 83bc
00000130: aa6c 873c 8c22 493d 9e73 7a3b 8618 2e3d
00000140: 6544 7abb 508b a13d 5039 f13b 1d43 a53d
00000150: 4489 913d 28be 8bbd 2d39 a33d 36fa 0e3d
00000160: df0e 7a3d 02b0 b8bd 7a38 113d 00c9 4b3d
00000170: 257f 6cbd 9285 ecbb 0f04 6fbd 4234 7c3d
00000180: 3adc 6a3b bc42 a3bd 2139 f73c 27f4 9fbd
00000190: 88e2 20bd c1a3 14bd 9250 7fbd adad ff3c
000001a0: ae9b 5bbd 16e5 4ebd ec8e 77bc 861f fd39
000001b0: a1dc 7cbd 4591 bfbc 9552 a53d 4e41 85bd
000001c0: 3640 b63d 96d0 89bd a732 b9bc 7444 8f3d
000001d0: 0026 b7ba 87bd 4ebb 7907 a03d 0b99 8a3d
000001e0: 3171 bebd 9c9a 923c 659d 23bd b980 0ebd
000001f0: c687 073d a458 acbd 41e6 883d 2821 9d3d

actor.weight f4 [4, 128]
-0.029802656 0.08865473 0.08819313 0.0051038633 0.0126923015 -0.03489096 0.0814855 -0.013257083
-0.04518549 -0.040102463 -0.08626011 -0.079917036 0.0144348005 -0.050153404 -0.0030956708 0.04400373
0.021683488 0.015322197 0.04182588 -0.06303942 -0.05286233 0.015752703 0.024407566 0.080096655
-0.053604256 -0.031582136 0.014577909 0.047258142 0.068831965 0.07485793 -0.015156253 0.08463296
0.00023675122 -0.060098838 -0.04282783 -0.010708661 -0.042493537 -0.05771708 -0.0030677742 0.021358833
0.03918414 0.037929215 0.08311236 0.055034637 0.03624161 0.016262129 0.031919714 0.067939945
0.031051384 -0.01331056 0.088818565 -0.0655078 -0.040126607 0.0723287 0.08341744 0.025861584
-0.01046016 -0.0063564004 -0.07682897 0.027783196 -0.0070248703 -0.07282749 -0.06570082 0.011667846
0.04108795 -0.07421372 0.0076474263 0.027788246 -0.029505635 0.0748454 0.0586285 -0.033316053
-0.033332966 0.061049245 0.08612132 0.07761206 -0.03947037 -0.08152197 -0.038733616 -0.006411155
-0.028116299 0.07543466 0.0069192164 -0.0011698806 0.01172185 -0.026059976 0.041464854 -0.030236943
0.07134339 0.07671528 -0.055041555 -0.048387267 -0.07520395 0.042107474 0.018402562 -0.013097462
0.060689047 0.053916924 0.005216386 0.06973776 -0.059146054 -0.05968811 -0.04506522 -0.019051453
-0.06479169 0.076946385 -0.028151434 -0.012552297 -0.07085458 -0.08127417 -0.08550367 -0.022483293
-0.012941367 -0.025531823 0.04711374 0.08146131 -0.03412122 -0.0002760197 -0.032239337 0.067018785
0.016677884 -0.021760194 -0.0250439 -0.018597033 -0.085205846 0.05407569 0.07272633 -0.036923084
-0.033629056 0.062143873 -0.034415554 -0.08959682 -0.06811029 0.010165207 -0.041631572 0.026579756
0.03679766 -0.028131915 -0.06662851 -0.04031755 0.08473345 0.032107856 0.035669196 0.057653297
0.071473956 0.049219105 0.0089907525 -0.08296764 0.036096323 0.042408526 0.012639208 0.00062353816
0.06441595 0.017428456 -0.014947442 0.026133556 -0.050389815 -0.032519538 -0.010295302 0.047698367
0.017972976 -0.08566588 -0.053620145 -0.009561234 0.038496688 0.04115926 0.08823864 -0.058792245
-0.09056892 -0.06546111 0.022198359 -0.0010712527 0.04241079 0.05617197 -0.023143493 -0.043545865
-0.07886119 -0.056165166 -0.026154585 0.052856293 0.085604124 0.00081599614 -0.022002287 -0.026134672
0.06001581 -0.08296012 0.073879786 -0.011742813 0.0024416302 0.06920925 0.06461504 -0.08402416
0.077532955 -0.012060332 0.07301346 -0.08453178 0.08320231 -0.014602222 0.07319125 -0.049785893
0.028840395 0.01585725 -0.0016716102 0.011104019 -0.044891693 -0.041753557 0.06839101 -0.07029596
-0.0845254 0.045563042 -0.030980134 0.047934696 0.037889224 0.05784144 0.0060789334 -0.041010913
0.043318436 0.03760226 -0.048271965 0.007402546 -0.08694696 -0.017455978 -0.029325636 0.07872963
-0.038584564 -0.020770134 0.018274263 -0.029306365 0.06840012 -0.013696453 0.08937063 0.063433394
-0.017004099 0.07794262 -0.045855924 -0.0734142 0.06262719 0.023460433 -0.030687694 0.02105209
-0.017856402 -0.0630395 -0.047223236 0.08127458 0.03393832 0.03955485 -0.005847601 0.0029476767
0.07206151 0.07612192 0.06307648 0.05898583 0.031198172 -0.016465941 -0.027412547 0.0052777864
00000000: b324 f4bc 9c90 b53d 9a9e b43d 4f3e a73b
00000010: 5ff3 4f3c d3e9 0ebd dfe1 a63d 3c34 59bc
00000020: 6c14 39bd 7b42 24bd 24a9 b0bd 8bab a3bd
00000030: f17f 6c3c a86d 4dbd bde0 4abb 413d 343d
00000040: 92a1 b13c f409 7b3c 9d51 2b3d d01a 81bd
00000050: 2c86 58bd d00b 813c 60f2 c73c b709 a43d
00000060: 2390 5bbd 455c 01bd 2fd8 6e3c c191 413d
00000070: c6f7 8c3d 1d4f 993d ef51 78bc 0c54 ad3d
00000080: 6c40 7839 332a 76bd 3c6c 2fbd 6173 2fbc
00000090: b40d 2ebd bf68 6cbd b60c 49bb b8f8 ae3c
000000a0: 8c7f 203d aa5b 1b3d d036 aa3d 006c 613d
000000b0: 1572 143d 2838 853c 3fbe 023d 1924 8b3d
000000c0: 795f fe3c 8914 5abc 82e6 b53d f428 86bd
000000d0: cc5b 24bd 1221 943d c3d6 aa3d acdb d33c
000000e0: 1761 2bbc 5a49 d0bb 8258 9dbd 9699 e33c
000000f0: e230 e6bb 9426 95bd 278e 86bd 7e2a 3f3c
00000100: d74b 283d 5dfd 97bd 4397 fa3b 2da4 e33c
00000110: cdb5 f1bc 8c48 993d 7024 703d 6a76 08bd
00000120: 2688 08bd c60e 7a3d 6060 b03d 12f3 9e3d
00000130: afab 21bd fef4 a6bd 24a7 1ebd ab14 d2bb
00000140: 2754 e6bc 7d7d 9a3d 98ba e23b ae56 99ba
00000150: 010d 403c bb7b d5bc 0dd7 293d 77b3 f7bc
00000160: 7c1c 923d e71c 9d3d 4173 61bd ba31 46bd
00000170: 8704 9abd e378 2c3d f8c0 963c bd96 56bc
00000180: 1495 783d fed7 5c3d 38ee aa3b acd2 8e3d
00000190: 2243 72bd 857b 74bd 4f96 38bd cb11 9cbc
000001a0: 81b1 84bd 1196 9d3d d69d e6bc 26a8 4dbc
000001b0: 351c 91bd 1273 a6bd 8c1c afbd e22e b8bc
000001c0: 0708 54bc 1d28 d1bc 56fa 403d 30d5 a63d
000001d0: b1c2 0bbd bdb6 90b9 650d 04bd 2541 893d
000001e0: 0fa0 883c 6f42 b2bc dd28 cdbc ce58 98bc
000001f0: 6780 aebd 797e 5d3d 8bf1 943d a93c 17bd
00000200: 9fbe 09bd 938a 7e3d 53f7 0cbd 8a7e b7bd
00000210: 687d 8bbd f88b 263c de85 2abd cabd d93c
00000220: 25b9 163d e774 e6bc 8774 88bd 0424 25bd
00000230: bb88 ad3d 8783 033d dd19 123d dd25 6c3d
00000240: f060 923d f999 493d f34d 133c f0ea a9bd
00000250: bdd9 133d 90b4 2d3d ae14 4f3c f074 233a
00000260: 82ec 833d 1fc6 8e3c 1ee6 74bc 0a16 d63c
00000270: 8d65 4ebd 3533 05bd a0ad 28bc 5d5f 433d
00000280: 103c 933c 9871 afbd cca0 5bbd b9a6 1cbc
00000290: b4ae 1d3d 9d96 283d 76b6 b43d 23d0 70bd
000002a0: 337c b9bd 7910 86bd 55d9 b53c 4769 8cba
000002b0: f0b6 2d3d 9414 663d 6c97 bdbc 265d 32bd
000002c0: fa81 a1bd 720d 66bd 2442 d6bc d77f 583d
000002d0: 3751 af3d 93e8 553a 243e b4bc 6118 d6bc
000002e0: 23d3 753d ffe6 a9bd 494e 973d ed64 40bc
000002f0: c203 203b 94bd 8d3d e454 843d dc14 acbd
00000300: 99c9 9e3d b398 45bc 1588 953d ff1e adbd
00000310: f965 aa3d 283e 6fbc 4be5 953d 4bec 4bbd
00000320: b142 ec3c 10e7 813c ee19 dbba a2ed 353c
00000330: 5ae0 37bd c705 2bbd 9610 8c3d 54f7 8fbd
00000340: a71b adbd 50a0 3a3d 0dca fdbc 2c57 443d
00000350: bb31 1b3d 25eb 6c3d ca31 c73b 0ffb 27bd
00000360: ac6e 313d d404 1a3d d3b8 45bd 0e91 f23b
00000370: 3f11 b2bd d7ff 8ebc 513c f0bc 003d a13d
00000380: d90a 1ebd 2126 aabc e8b3 953c e713 f0bc
00000390: 5d15 8c3d 1667 60bc f307 b73d 5ee9 813d
000003a0: 2e4c 8bbc 61a0 9f3d 6cd3 3bbd 2f5a 96bd
000003b0: af42 803d 1830 c03c c264 fbbc 6f75 ac3c
000003c0: 9747 92bc da1a 81bd 276d 41bd 4973 a63d
000003d0: e802 0b3d 4404 223d 3c9d bfbb cf2d 413b
000003e0: fc94 933d cfe5 9b3d 3e2e 813d 209b 713d
000003f0: 4f93 ff3c 95e3 86bc 4790 e0bc 48f1 ac3b

actor.bias f4 [4]
0.04503987 -0.016855353 -0.058831044 -0.027662499
00000000: ba7b 383d 3d14 8abc d2f8 70bd 779c e2bc

critic.weight f4 [1, 128]
0.0676996 -0.07064299 0.05651818 0.06923138 -0.030948136 -0.06561254 -0.07304468 -0.049769532
0.00034207286 -0.08169934 -0.040609784 -0.06670036 -0.076387905 -0.018928092 0.076328255 -0.04169077
0.038810562 0.04166933 -0.04845347 0.07222827 -0.027651988 0.05223145 0.066224076 -0.043337747
-0.032165207 -0.08461881 -0.011013688 -0.008436697 0.021450024 0.068876594 -0.03906148 0.008090874
0.04875851 0.02756182 0.046297196 -0.042483937 0.019400362 -0.024538325 0.07796087 0.0049252007
-0.023872383 0.07364417 -0.027708268 0.061533004 0.08492373 -0.00059821655 -0.041210707 0.08281193
0.07688688 0.021248478 -0.05321009 -0.005434962 -0.08536439 -0.05648615 0.011198112 -0.0067001386
0.03045324 0.08122973 0.03229681 0.05420495 0.046948437 0.057397477 -0.01453968 -0.08838895
0.05204061 -0.0043724417 -0.04946556 0.040874217 0.039919287 0.08107537 0.06497399 0.03934269
-0.0020702046 -0.07216843 -0.07240676 0.024204418 0.05673743 -0.06447256 0.001588718 -0.017211782
0.08064976 -0.045863308 -0.050526917 0.05719168 -0.08626068 -0.00074420794 -0.048809193 -0.08306294
0.06971352 -0.0054208073 0.0839794 -0.08443154 0.031010784 0.030739458 0.0686951 -0.06908301
-0.061170965 -0.06798523 -0.052869752 0.036764555 0.011171884 0.032400213 -0.0009567898 -0.05415549
0.007931478 0.020742927 0.02662635 -0.040067997 -0.048866652 0.07681543 -0.040523004 -0.0014265978
0.029469993 -0.018961716 0.025805283 0.018235063 0.04418357 -0.038780674 -0.08715054 -0.0031355254
-0.06093017 0.01970314 0.045251 0.052770257 -0.027061047 0.016969364 0.026673561 0.07237675
00000000: 16a6 8a3d 46ad 90bd 9b7f 673d 2fc9 8d3d
00000010: f286 fdbc de5f 86bd 7398 95bd 23db 4bbd
00000020: 3e58 b339 fc51 a7bd 7256 26bd 339a 88bd
00000030: 4371 9cbd 160f 9bbc fd51 9c3d f1c3 2abd
00000040: d3f7 1e3d 76ad 2a3d 2577 46bd 6aec 933d
00000050: 6c86 e2bc a5f0 553d 7da0 873d ec82 31bd
00000060: aabf 03bd a04c adbd c172 34bc 123a 0abc
00000070: f6b7 af3c 2c0f 8d3d eefe 1fbd 968f 043c
00000080: 01b7 473d 53c9 e13c 21a2 3d3d a303 2ebd
00000090: 82ed 9e3c 9904 c9bc f3a9 9f3d 9463 a13b
000000a0: 0490 c3bc c1d2 963d 73fc e2bc 080a 7c3d
000000b0: 7eec ad3d a2d1 1cba 8fcc 28bd 4d99 a93d
000000c0: de76 9d3d 4a11 ae3c d3f2 59bd c417 b2bb
000000d0: 86d3 aebd 055e 67bd 4978 373c d68c dbbb
000000e0: 1379 f93c c65b a63d a949 043d 0206 5e3d
000000f0: 014d 403d 9e19 6b3d d737 6ebc 4405 b5bd
00000100: 8928 553d b346 8fbb 669c 4abd b96b 273d
00000110: 6882 233d d80a a63d 1511 853d cd25 213d
00000120: 45ac 07bb 0bcd 93bd ff49 94bd 5848 c63c
00000130: 8265 683d 310a 84bd 883c d03a b9ff 8cbc
00000140: b42b a53d 2adb 3bbd 50f5 4ebd d341 6a3d
00000150: 70a9 b0bd f316 43ba 26ec 47bd e71c aabd
00000160: f6c5 8e3d 07a1 b1bb 64fd ab3d 71ea acbd
00000170: 540a fe3c 51d1 fb3c 04b0 8c3d 657b 8dbd
00000180: 688e 7abd d73b 8bbd f48d 58bd 6e96 163d
00000190: 470a 373c 16b6 043d 14d1 7aba 26d2 5dbd
000001a0: 08f3 013c 12ed a93c 811f da3c 571e 24bd
000001b0: 6628 48bd 6851 9d3d 73fb 25bd aefc baba
000001c0: 0e6b f13c 9a55 9bbc 9a65 d33c b361 953c
000001d0: d5f9 343d 7cd8 1ebd fb7b b2bd 637d 4dbb
000001e0: ea91 79bd 7b68 a13c 1d59 393d a025 583d
000001f0: 21af ddbc 5603 8b3c 8382 da3c 433a 943d
