code/models/ppo_uncertainty_checkpoint_300.pt (torch, 75727 bytes, 7 tensors)

encoder.0.weight f4 [128, 5]
00000000: 76a1 3f3e 9bab 853d d125 abbe d376 dc3e
00000010: 62f4 8eba ba29 143e da76 c5bd af6d c33e
00000020: 8b95 20be 4d49 ecbd 541e 803e 538f aa3c
00000030: 3274 9c3e 4dbd fcbd b07a 54be ec44 9bbd
00000040: 5474 723e 11a0 e33d 0c9b 9c3d 6cf4 a3bd
00000050: 0261 bcbe 6b1f 70be 0203 7b3c a9a3 9abe
00000060: a6b2 3fbe 9b32 93be c9cf 9e3c 57ad 98be
00000070: 9667 8fbe 30d2 7b3e b8fd 85be 24c9 d5bd
00000080: e789 9b3e ce3a 47be 6e51 d33e b1ec 67bd
00000090: f2cd 8cbe 6487 c1be 8981 ccbd 8bea 713e
000000a0: 2b2f 303d 2e92 7bbe 9d44 dfbe 547d aebe
000000b0: bdc8 6a3e 1559 033e 77f9 8e3e 9f22 7e3d
000000c0: bebf 393b cbe0 93be d193 dc3e c2f1 48bd
000000d0: 0dba dc3e 1de5 b73e d1f8 a7bc 1feb 66be
000000e0: a542 cf3d 1e85 463e 33ef b3be 74e6 10be
000000f0: e806 ca3e 8e61 b93e 7bc7 933e 4498 aabe
00000100: 3b8c 8e3e 2759 b53e 68b1 6dbe ecaa e83d
00000110: 9212 673e 8fa6 b6bd 2ba9 68bd 0cf5 823e
00000120: b665 973e d3fc 853e 702b d7bd 9d70 dfbe
00000130: a5f9 af3e d592 f03d 2480 8dbe cfac 57be
00000140: af87 c6be 2c21 6b3e c121 233e 3476 27be
00000150: 9afa 87be f0a9 ea3d 4960 ddbe 405e b2be
00000160: 0a67 4cbe 34b7 81be d57b 08bd ac77 483e
00000170: e014 563e 7a53 d5be 9784 6f3e d2c9 8abe
00000180: ab51 94bd 6bbf 903d 1ee5 18be c23c f03d
00000190: a450 e23c 48d3 45be 193c 533e 8947 193e
000001a0: 9499 c13e bb4c 0abe aaf2 8a3e 89e9 b23e
000001b0: 6138 ddbe c632 d73e a258 c43e ee99 d03d
000001c0: d06b db3d 7020 8e3e db25 63be 7507 12bd
000001d0: ff80 3e3c e726 d13e 1bb4 89be fdda bf3e
000001e0: 5cc1 993e a66a eebe dcfb bc3d 094e c33e
000001f0: e3a2 83bd cfb1 c43e 812f 51be b9a8 573e
00000200: fa2e a83e 49cb 01be 8b6b 94be ea97 babd
00000210: 78cb bebe 73e7 bb3e 8949 d3bd 547c 9c3e
00000220: 3517 8f3e 5cac 903d df08 c8be 7e4a 77bd
00000230: f346 7abe 6ba3 3ebe 9952 71be b6b6 61bd
00000240: eeda d53e 7e82 95be 29d4 433e 1d88 e53e
00000250: a2dc 75bd 8423 9a3e edc4 c83e 6872 7bbd
00000260: 9f2f 933e 19af d23d e2ff 9dbe a449 bd3e
00000270: bb74 b73e ca63 67bd a976 e83e df90 a83d
00000280: 460a c43e 7531 c63e 2f8b 0e3e 855d 5c3e
00000290: 8769 ce3d 1358 463e dce5 91be 24b0 aabd
000002a0: 94be ff3c a3cf 39be 3673 b8be 9fb0 c9be
000002b0: 9511 5bbe 6dbe 82be d329 2d3c 0f3f 16be
000002c0: b883 e33e d6ba 26be b656 ac3c d42f 773e
000002d0: 0329 a53e f3c4 443e 39f0 5bbd 2d1c 973d
000002e0: 068a c43e 38f8 c43d 815d 4fbd 7ec5 843e
000002f0: d51d a9be 322c aa3e 246a cabd 82f9 12be
00000300: 371d af3e 4fdf 193d f1be 8ebc 99a1 47be
00000310: 24a9 763d 91a3 a3bd bf82 d9be 73e9 9e3e
00000320: bade c43e 0348 f6bd c744 b63e ffcf 693e
00000330: 3116 88be 00e9 863e d8b9 5d3e c13d 7e3b
00000340: f7cf 813d 73c2 87be f949 433e 9ea2 fa3d
00000350: a115 28be 296c 8fbe d1c9 dd3e ac6b bc3e
00000360: d3ce 143e b8df 913e 2e1c 34bd 3c74 c0be
00000370: 8ddd acbe af07 c6be 8327 4f3e e7b3 1e3e
00000380: 0c30 85be 169d a53e 5fa3 293e bc47 e7be
00000390: b3f9 943c 1efc 983e 0fe1 5b3e 5ef0 9dbe
000003a0: 5155 823e 5308 bebe 7898 9b3e 94e8 41be
000003b0: 45da e43d 5521 8c3e 8a04 d2bd eb23 8abd
000003c0: 007f cebe e0cd 7cbe fd71 fe3d 61a9 433e
000003d0: 9017 29be 8fdd e13e eba0 b53e 039f 5d3e
000003e0: e3cd b63e e695 f33d 0340 4d3e d74a d13c
000003f0: 2555 b43e cb5b b93e e75e d83e aa25 033c
0.18713936 0.06526872 -0.3342729 0.43059406 -0.0010906572 0.14469042 -0.0964181 0.3816962
-0.15682046 -0.115374185 0.2502314 0.020820295 0.305574 -0.12340794 -0.20749927 -0.07581505
0.23677188 0.111145146 0.0764676 -0.08005604 -0.3679276 -0.23449485 0.015320541 -0.30202988
-0.18720493 -0.28749546 0.019386189 -0.29819748 -0.28008717 0.24591899 -0.26170135 -0.10438755
0.3037865 -0.19456026 0.41273063 -0.05662221 -0.27500874 -0.37798607 -0.09985644 0.23624627
0.043013733 -0.24567482 -0.43607035 -0.34079993 0.22928138 0.12826951 0.27924702 0.062044736
0.0028343047 -0.2888244 0.43081525 -0.049058683 0.43110695 0.35916987 -0.020504387 -0.22550629
0.10120133 0.19386718 -0.35143432 -0.14150411 0.39458394 0.3620724 0.2886313 -0.33319294
0.27841362 0.3541958 -0.23212206 0.11360726 0.22565678 -0.08918487 -0.056801956 0.2557758
0.29569787 0.26169452 -0.10506332 -0.43640605 0.3437015 0.11746756 -0.27636826 -0.21062015
-0.38775393 0.22961873 0.15930845 -0.16353685 -0.2655838 0.11458194 -0.43237522 -0.34837532
-0.19961181 -0.25335085 -0.03332122 0.19576901 0.209064 -0.4166525 0.23390423 -0.27107102
-0.072421394 0.0706776 -0.14931151 0.11730339 0.027626343 -0.19318879 0.20628394 0.14968695
0.37812483 -0.13505833 0.27138263 0.34943798 -0.43207076 0.42030925 0.3834887 0.1018561
0.10713923 0.27759123 -0.2218241 -0.035651643 0.011627435 0.40849993 -0.26895222 0.37471762
0.30030334 -0.4656574 0.09227726 0.38145474 -0.064275526 0.38416907 -0.20428278 0.21060456
0.3284834 -0.12675203 -0.289883 -0.091110066 -0.3726461 0.3670002 -0.1031676 0.30563605
0.27947393 0.07064125 -0.39069268 -0.060373776 -0.24441127 -0.18617027 -0.23566665 -0.055105887
0.41768593 -0.2920112 0.19123901 0.4483041 -0.060024865 0.3010522 0.39212742 -0.061388403
0.2874727 0.102873035 -0.30859286 0.36970246 0.35831246 -0.05649165 0.4540303 0.08230757
0.38289088 0.38709608 0.13920282 0.2152005 0.100787215 0.19369535 -0.2849568 -0.083343774
0.031218804 -0.18145613 -0.360254 -0.39392564 -0.21393426 -0.25535908 0.010569054 -0.14672492
0.4443643 -0.1628221 0.02103744 0.24139339 0.32257852 0.19215755 -0.05369589 0.07378421
0.38386554 0.096176565 -0.05062628 0.25931925 -0.33030573 0.33236843 -0.09883526 -0.14352992
0.34201977 0.03756648 -0.017425032 -0.19495238 0.0602199 -0.07990182 -0.42482564 0.31037483
0.38451177 -0.12025454 0.35599348 0.2283325 -0.2657943 0.2634964 0.21652925 0.0038794132
0.06338494 -0.2651554 0.19071187 0.12238048 -0.16414501 -0.28012207 0.43318036 0.36800897
0.14532022 0.28490996 -0.043972187 -0.3758868 -0.3376278 -0.38677737 0.20229916 0.15498315
-0.2601322 0.3234641 0.16566227 -0.45171916 0.018185472 0.2987985 0.21472572 -0.30847448
0.25455716 -0.37115726 0.30389762 -0.18936378 0.11174444 0.2736918 -0.10254772 -0.06745132
-0.40331268 -0.2468791 0.12424085 0.19107582 -0.16512895 0.44114348 0.35474333 0.2164269
0.35703954 0.11893825 0.2004395 0.025548382 0.3522121 0.36202845 0.42259905 0.008004585

encoder.0.bias f4 [128]
00000000: 957b 81be c532 ac3e af93 313e bc0a 883d
00000010: 5481 99be 6533 35be 1475 75be 0ebe 9a3e
00000020: 8ea5 96be f8c2 58be 202f 083e ac1f d5bc
00000030: cad4 acbc 7938 0e3e 45e6 1bbe 9282 3cbe
00000040: c15d e83d 6616 bebd 3de6 af3e 7a8b 943d
00000050: 0067 8abe 0510 843e 8a00 d53e 9a24 6f3a
00000060: 3305 d83e 77e4 d33e 0922 77bd 01a0 22be
00000070: c58e 32be 63b8 58be 7a95 203e d353 9fbd
00000080: 5e90 d13e 6b21 babe 2638 c7bd 8fe7 e83c
00000090: 51c9 58be 3c67 703d 673c 70be 9d9e ac3e
000000a0: 8b8c a83c 149e 91bd 99b1 393e dee4 bb3e
000000b0: 5fb0 30be 030d a2be a081 693e d112 e5be
000000c0: 0dd3 483e 0053 a5be 9090 a83e ac96 c03d
000000d0: 343b b53e a969 d53d 5550 843d afce ff3d
000000e0: 785d 9e3e 1f56 1abe 9588 8e3e d1f4 34be
000000f0: 60f2 183e 6d4b 3cbe bc01 d6bd f9ad d03e
00000100: c2bb c13e c198 75be 989b 97be 2c6d a43e
00000110: c9ef d3bd ec07 d23d 0915 8b3e a75e b43e
00000120: fb51 5f3e df4b 6ebe 51c3 b43e de85 b9be
00000130: fe73 6c3e 88f5 b83e 6935 193e b872 ecbd
00000140: 5d55 7b3e 955e d83e 58ae 373c e94d 2e3e
00000150: 4bb2 6cbe f634 9f3e 1e30 4bbd 9727 c6bc
00000160: 48da b8be 12ef f8bd 9312 5b3e b0ad c23e
00000170: ea5b c3be 8673 383e 8114 9d3e 0249 a53e
00000180: deca 563e ed65 a0be 2392 73bd 22cc cdbe
00000190: 3826 4cbd f713 123c 7d81 aebe 0cc6 033d
000001a0: 0a61 22bb 4125 2ebe 8b5d cc3e 094d 923e
000001b0: 41cd 673e cb67 dd3e ab54 a9bd ddc9 c0be
000001c0: 0188 8e3e 62bb 1abe a72a 8dbe a069 083e
000001d0: db1d 14bc 61fe b8be ec41 8d3e 1586 a23e
000001e0: 81e5 f33d 0838 d3be 7751 ac3e 5c35 ac3e
000001f0: 714d bf3d 70cb d23d bcf5 da3c b9e6 bfbe
-0.25289598 0.33632484 0.17341493 0.066426724 -0.29981482 -0.17695387 -0.23970443 0.30223125
-0.29423183 -0.21168125 0.13299227 -0.026016079 -0.02109756 0.1388873 -0.1522456 -0.18409184
0.11346007 -0.09281616 0.34355345 0.072531655 -0.27031708 0.25793472 0.41601974 0.00091225805
0.42191467 0.41385242 -0.060335193 -0.15881349 -0.17437275 -0.21164088 0.15682021 -0.0777966
0.40930456 -0.3635362 -0.09727506 0.028430728 -0.21170546 0.058692202 -0.23460542 0.33714762
0.020574829 -0.07110229 0.18134154 0.3669805 -0.1725478 -0.31650552 0.22803354 -0.44740918
0.1961176 -0.32289886 0.32922792 0.094037384 0.3539673 0.10420544 0.064606346 0.12490594
0.30930686 -0.15071915 0.2783858 -0.17671515 0.14936209 -0.18388148 -0.104495496 0.4075773
0.3783856 -0.23984052 -0.29610896 0.32114542 -0.1034847 0.10255417 0.27164486 0.35228464
0.21808617 -0.2327113 0.35305265 -0.36234945 0.23091123 0.36124825 0.1496178 -0.11545318
0.24544282 0.4225966 0.011211 0.17021908 -0.23114888 0.31095093 -0.049606435 -0.0241888
-0.36104035 -0.12154974 0.21393804 0.38023138 -0.38156062 0.18012819 0.30679706 0.32282263
0.20975825 -0.31327763 -0.05946554 -0.40194803 -0.049841136 0.008915893 -0.34083167 0.032171294
-0.0024777078 -0.17006399 0.39915118 0.28574398 0.22636892 0.4324325 -0.08268102 -0.3765401
0.27838138 -0.15110543 -0.27571604 0.13321543 -0.009040321 -0.36131576 0.27589357 0.3174292
0.11909009 -0.41253686 0.33655903 0.3363446 0.09340943 0.10292709 0.026728503 -0.37480715

encoder.2.weight f4 [128, 128]
00000000: c7cc 4e3d cbbd 16bd 44ff 593c 0485 aebd
00000010: f534 54bc 4d89 fa3c 5fc1 2cbc ee4b 7ebd
00000020: 4f59 6bbd 02d1 d3bc e620 9bbd 1173 dc3c
00000030: e61d 8d3d 198d 03bd 60c0 42bd de47 503d
00000040: 5797 763d ddc4 4c3d 616b a23d cd5f 84bd
00000050: a7bc 6c3d 9f5e 273d e73d 53bd 9a0e 853d
00000060: ad74 9b3c 243e 17bd 6093 afbd 6f11 223d
00000070: d7e5 aebd 49b8 1b3d 39a2 62bd 1966 30bc
00000080: 62d2 063d cb3d f2bb 47a4 b3bd a175 b03d
00000090: 0516 b3bc ee45 4dbd 6b5c 8cbd d850 73bd
000000a0: 2cf6 aa3d e748 4d3c 2660 a4bd f252 a13d
000000b0: 94f1 aebd 858d 973d ad17 c4bc a320 fd3c
000000c0: e4f2 8e3d e3f6 2d3d bbfd 48bd a9ed a4bd
000000d0: fd17 8bbd 5274 9fbc 113d 6c3d 60a6 893d
000000e0: 221f 9cbb 886d 163d 1189 8ebd 4ca4 6bbd
000000f0: e0ac 7dbd bfcb a5bd 92f0 8d3b 3c26 86bd
00000100: fde7 973d fc54 a9bc 6ad2 debc 10da 6a3d
00000110: b4b3 8b3d 49a4 d33b 0a61 a2bc 0627 27bb
00000120: b767 2cbd e185 c6bc 2383 8bbd a18a 993d
00000130: c916 72bd 5267 99bd e902 893d b1a9 99bc
00000140: 1313 50bd 5758 013d 546a 7e3d dd14 983d
00000150: 8c51 723d 9bbe 8abd 0ce1 853d eaf2 133d
00000160: 06d1 a13d 8cb8 683d 955e 393b cbc8 3e3c
00000170: 057c ddbb e61f 153d 86cb d03c e0cf 96bc
00000180: d65b 48bd 0b50 8f3d 5644 d9bc 3ece 703d
00000190: a9c8 103d 0f17 f6bb 22aa 703d 3cae 443d
000001a0: 8aad 153d 022a acbd 86e4 0fbd 3acd 8abd
000001b0: e420 63bd 7372 663b 6500 e3bc b1bf a9bd
000001c0: 2b80 38bd cfc4 e33b 5c19 1e3c 354e 8e3d
000001d0: 4a7a a8bb 4391 bd3c 60d1 28bd 52ac 0ebd
000001e0: 50ad 833b 085b 4a3d 5f19 873d 7163 8dbd
000001f0: 4b80 063d c95b 6fbd 4f52 84bd cdc3 4d3d
00000200: e84b 5f3c 58b5 283c d944 aa3d 9b22 8b3d
00000210: 1ee2 e5bc f15f 693c 2d4a a9bd ebfa 8f3d
00000220: e23d 76bd 77be 513d 6736 c7bc f717 a1bc
00000230: 4d32 7c3d 7263 b13d 27e3 5e3d de61 83bd
00000240: f237 933c 8fb2 43bd b4dc af3d b68d 6d3d
00000250: d6f4 9b3d fb01 24bd 8b2b 843d aaf5 f53c
00000260: c58f b1bd 0ee7 823d 927d 7ebd 2fd9 8a3d
00000270: 039f a73d f347 86bd fdc1 5d3d 8bc3 0e3c
00000280: 54be aebc f6e4 4dbd 8a42 b53d fab8 acbd
00000290: ed8c 38bd e53f b2bd b92e b43d d36e bfbd
000002a0: cb30 963d 32d1 1abd 5680 8d3d 191c 153d
000002b0: 3894 f7bc e370 d43c cd90 9b3d e409 7aba
000002c0: e4cb 9d3d d4df f43b 847c d0bc 7ede 6e3d
000002d0: 7179 9dbd 828f e7bb f206 893d 973f a9bd
000002e0: 9fb2 933d 56da b33d dcf9 b1bd 42ad 45bd
000002f0: c635 b2ba e276 003d 67d0 46bc a4fb 883c
00000300: 6762 56bc 851c 743d 56d4 9e3d 1f2c 7bbd
00000310: da78 0a3c 89c4 8b3d 6297 49bd af04 7ebc
00000320: 57e7 4f3c 09ad 873c f8f3 50bd d32e 38bc
00000330: 2e06 2c3d 70f1 783c b351 ddbc 256d 80bd
00000340: c50c bebb b80c 93bd 3f08 a8bd b77f 07bb
00000350: 9df3 d73b 9180 4a3d 4818 13bc 7885 b93c
00000360: 8778 29bd 0301 eabc e377 093d b11f 7d3d
00000370: 173e 593c babe 85bd af6a 01bd 7e4e 88bd
00000380: 1a3b fa3c 4959 52bc 8215 87bd 66e9 9f3d
00000390: 18ad a9bd 3f8f e3bc 63c1 f1bb a8bd aa3d
000003a0: dccb 7e3d 68e8 763d 2810 a43d f790 ad3d
000003b0: 0697 793d 4695 25bd 3469 02bd 7dd3 30bd
000003c0: b778 e8bb 7a9c 6a3c 1952 5e3d 5d39 703d
000003d0: a63b a53b 5c7d 64bd 4ab9 b2bb 7b31 ef3c
000003e0: 28e3 af3d 526d c73c 1976 c7bb ba2f b5bd
000003f0: 0ded aebd cd54 b53d 134e 49bd 3322 c0bc
0.05048826 -0.036802094 0.013305489 -0.085214645 -0.012952079 0.030583048 -0.01054415 -0.06208413
-0.05745822 -0.025856499 -0.07574634 0.026910337 0.06890468 -0.032116983 -0.047546744 0.050849788
0.060202923 0.04999243 0.07930637 -0.06463585 0.0577971 0.040861722 -0.051572707 0.06496926
0.018976534 -0.036924496 -0.085730314 0.039567407 -0.08539932 0.038017545 -0.05533049 -0.0107665295
0.03291548 -0.00739262 -0.08771568 0.08616186 -0.021861086 -0.05011552 -0.06853565 -0.05940327
0.08347735 0.012529588 -0.08026151 0.07877149 -0.08542171 0.074000396 -0.02393707 0.030899351
0.069799215 0.042471778 -0.0490701 -0.080531426 -0.06791685 -0.019464646 0.057675425 0.06721187
-0.0047644535 0.03672555 -0.06959737 -0.057529733 -0.061932445 -0.08095502 0.0043316567 -0.065502614
0.07417295 -0.020670407 -0.027199943 0.057336867 0.06821385 0.0064587933 -0.019821662 -0.0025505438
-0.042091098 -0.02423376 -0.06812122 0.074971445 -0.05910376 -0.0749041 0.06690008 -0.018757673
-0.05079944 0.031578388 0.06211312 0.07425854 0.0591598 -0.06774636 0.06537065 0.036120333
0.07901196 0.056816623 0.0028285135 0.011644552 -0.006759169 0.036407374 0.025487673 -0.01840967
-0.048915707 0.06997689 -0.026521843 0.058790438 0.035347614 -0.007510073 0.058756 0.048017725
0.036542453 -0.0840645 -0.035130046 -0.06777425 -0.05545129 0.0035163432 -0.027710149 -0.08288515
-0.045044105 0.0069509516 0.009649601 0.069485106 -0.005141531 0.023140555 -0.0412153 -0.034832306
0.004018463 0.04940322 0.06596636 -0.069037326 0.032837193 -0.058437143 -0.064610116 0.05023556
0.013628937 0.010297142 0.08313913 0.0679371 -0.028061923 0.014244066 -0.08266101 0.07030281
-0.06011761 0.051207032 -0.024317933 -0.019664748 0.061571408 0.08661546 0.054415848 -0.06415151
0.017971013 -0.04777771 0.08587018 0.057996474 0.07615058 -0.04004095 0.06453618 0.030024368
-0.0867 0.063917264 -0.062131472 0.06779706 0.08184626 -0.06556692 0.05414008 0.008713613
-0.02133099 -0.050267182 0.08850582 -0.08433719 -0.045056272 -0.08703593 0.08797974 -0.0934731
0.07333525 -0.03779716 0.06909244 0.03640375 -0.030222043 0.025932735 0.07595978 -0.0009538217
0.07704905 0.0074729715 -0.025449999 0.058317654 -0.07689179 -0.007066668 0.06690778 -0.08264082
0.07211804 0.08781879 -0.08690235 -0.048260935 -0.0013596348 0.031363375 -0.012134648 0.016721554
-0.013084984 0.05959751 0.077553436 -0.061321374 0.008451665 0.068245955 -0.049216636 -0.015504046
0.012689433 0.016562002 -0.051013917 -0.0112416325 0.04199808 0.015194282 -0.027016496 -0.06270818
-0.005799862 -0.0718016 -0.08204698 -0.002067549 0.0065903203 0.049439017 -0.008977957 0.02264665
-0.04137471 -0.028564936 0.0335616 0.0617978 0.013259432 -0.06530519 -0.031595882 -0.06655596
0.03054576 -0.01283867 -0.06595899 0.07808189 -0.08284968 -0.027778266 -0.00737779 0.08336955
0.062206134 0.060280234 0.08010894 0.084749155 0.060935043 -0.04042556 -0.03183861 -0.04317044
-0.0070944685 0.0143195335 0.054277513 0.058648456 0.005042511 -0.055783615 -0.005454217 0.029198399
0.085882485 0.02434412 -0.0060870764 -0.08846994 -0.085413076 0.08854065 -0.049146723 -0.023453807

encoder.2.bias f4 [128]
00000000: 9cc7 a63d 4f27 a5bd cf64 3d3d d6b0 113c
00000010: 1aab 9ebd 577e 7abd 919d 85bd 7543 d43c
00000020: 8ab5 aebd 678f ebbc fbeb a13d 2162 c73a
00000030: 56c3 9dbd 7636 3abd 7e45 c23a 7f04 503d
00000040: 16ba 0abd b0c5 1ebd 1225 06bd 4a2e a23c
00000050: 23ba bbbc e8f8 a7bd 79f8 0f3d 8b11 2fbc
00000060: df5e 493d 1475 2fbd dbbf a03d df49 6abd
00000070: c9d9 9abd 8334 bf3d 4235 8a3d 16fc 34bc
00000080: 0fad 3d3d fc46 bc3d 8502 253d 508a 3e3d
00000090: 80c5 94bc fb51 a4bd 79e6 a23d 722b 713d
000000a0: d41d 5bbd 6da2 763d c104 613d 876e 2a3d
000000b0: f7fc 18bc 3957 043d cd91 873d e2f9 6b3c
000000c0: 47c2 af3a fdcc 2d3d 2261 fabc 5f7b 8e3d
000000d0: ceea 663d 215b 0e3d 79cc 68bd 694a 0a3d
000000e0: b1ae 013d 63f5 bd3d c751 6a3d fbf7 f2bc
000000f0: e1c9 543d f19d ee3c 2eff 37bd f4c1 c9bd
00000100: ed80 2b3d c334 cfbb 2b3b 383d 849e 4abc
00000110: c9d8 afbc 84cd 1c3d 62c1 a5bb 8c55 b83b
00000120: 1951 2d3b 8c87 d0bc b413 63bd 3e4e 83bc
00000130: d4c9 ed3c 8c22 493d ad29 7c3b 9c60 043d
00000140: f133 f83b 862c a23d 5039 f13b 1d43 a53d
00000150: ad72 733d 5e2d 83bd b5cf a33d a8ad c83c
00000160: df0e 7a3d 09a5 cdbd 5e80 213d 00c9 4b3d
00000170: 7cdc 3fbd 30c8 f0bb 4c50 40bd 9ba5 7e3d
00000180: 3adc 6a3b bc42 a3bd 7c16 e03c 326c 89bd
00000190: da91 e8bc e4d9 14bd 9250 7fbd 673b a03c
000001a0: 2036 3cbd 8969 2fbd 326f 74bb ffad b7bb
000001b0: 59c6 96bd aa1a 47bc 921f 8e3d 595c 92bd
000001c0: 2379 cd3d d4b2 a0bd c82d 10bc c1d9 923d
000001d0: 00ac 1f3c 87bd 4ebb 7907 a03d 0949 8b3d
000001e0: 88e9 cbbd aa6e ee3c 1703 fdbc b980 0ebd
000001f0: c687 073d a458 acbd 1a06 923d 2821 9d3d
0.08143541 -0.08064138 0.046238717 0.008892259 -0.07747479 -0.061155643 -0.06524194 0.025911072
-0.085307196 -0.028754903 0.07906338 0.001521174 -0.07703273 -0.045462094 0.0014821736 0.050785538
-0.03386887 -0.03876275 -0.032750197 0.019797463 -0.022915905 -0.08201772 0.03514907 -0.010685335
0.04916274 -0.042836264 0.078490935 -0.057199355 -0.075610705 0.09336188 0.06748439 -0.01104643
0.04630762 0.09193227 0.040285606 0.046518624 -0.018160582 -0.08023449 0.079541154 0.058879323
-0.053495243 0.060213495 0.054936174 0.041609313 -0.009337655 0.032309745 0.06619606 0.014402838
0.001340934 0.04243182 -0.030563895 0.06957125 0.05637627 0.034754876 -0.056835625 0.03376237
0.03166074 0.092753194 0.057206895 -0.029659262 0.05195034 0.029128047 -0.044921093 -0.09851447
0.041871 -0.0063234284 0.044978302 -0.012366895 -0.021465676 0.038281932 -0.0050584534 0.0056254324
0.0026446043 -0.025455259 -0.055438712 -0.01602852 0.029026903 0.049105212 0.003847699 0.032318696
0.0075745513 0.079186484 0.0073615685 0.080694415 0.059435535 -0.064051375 0.07998601 0.024496868
0.06104934 -0.100412436 0.03942906 0.049752235 -0.04684113 -0.007348083 -0.046951577 0.062169652
0.0035836832 -0.07971713 0.027354471 -0.0671009 -0.02838986 -0.03634061 -0.062332697 0.019559575
-0.045950055 -0.042825256 -0.0037297723 -0.0056054587 -0.073620506 -0.012152353 0.06939615 -0.0714652
0.100328706 -0.07846609 -0.008799978 0.071704395 0.009745598 -0.0031546073 0.07813925 0.0680104
-0.09956652 0.029105503 -0.030885262 -0.03479073 0.033088468 -0.08415344 0.0713007 0.0767234

actor.weight f4 [4, 128]
00000000: 0025 f4bc a090 b53d 9a9e b43d 4e3a a73b
00000010: 5ff3 4f3c 7fc9 0ebd dfe1 a63d b632 59bc
00000020: 7414 39bd c643 24bd 24a9 b0bd 8bab a3bd
00000030: f17f 6c3c 4b51 4dbd 8ce2 4abb 203d 343d
00000040: cea1 b13c ec09 7b3c d46a 2b3d d91a 81bd
00000050: 5586 58bd 8e0b 813c 0af2 c73c a509 a43d
00000060: 2590 5bbd 755c 01bd 2fd8 6e3c 0392 413d
00000070: b8f7 8c3d 374f 993d cd51 78bc 0754 ad3d
00000080: 2140 7839 a429 76bd 506c 2fbd 8700 30bc
00000090: b40d 2ebd d168 6cbd b60c 49bb 83f8 ae3c
000000a0: a67f 203d aa5b 1b3d cb36 aa3d 006c 613d
000000b0: 8c72 143d 7138 853c c1c5 023d 1424 8b3d
000000c0: aa5f fe3c c513 5abc 85e6 b53d f428 86bd
000000d0: 5550 24bd 1c21 943d c3d6 aa3d 3fbc d33c
000000e0: c689 4cbc 8f49 d0bb 7458 9dbd 7999 e33c
000000f0: d82f e6bb 4226 95bd b48d 86bd 3b2a 3f3c
00000100: b34b 283d 5dfd 97bd b596 fa3b 10a4 e33c
00000110: 29b8 f1bc 8648 993d 5624 703d 9576 08bd
00000120: 4688 08bd c60e 7a3d 6060 b03d 12f3 9e3d
00000130: a023 22bd fef4 a6bd 33a7 1ebd ede6 d1bb
00000140: 6154 e6bc 7d7d 9a3d 98ba e23b ae56 99ba
00000150: 23f0 3f3c 4993 b8bc 0dd7 293d aab3 f7bc
00000160: 7c1c 923d 471b 9d3d 52c5 60bd ba31 46bd
00000170: 9204 9abd a31c 2c3d f1c0 963c bd96 56bc
00000180: 1495 783d fed7 5c3d a6ed aa3b b0d2 8e3d
00000190: 2043 72bd 877b 74bd 4f96 38bd 1b12 9cbc
000001a0: 0e9b 84bd 1a96 9d3d e19d e6bc 4775 4dbc
000001b0: 4c1c 91bd 1373 a6bd 8c1c afbd 0c2f b8bc
000001c0: 2e08 54bc b727 d1bc 7cfb 403d ccdf a63d
000001d0: ccc2 0bbd bdb6 90b9 650d 04bd c439 893d
000001e0: 14a0 883c 9142 b2bc f38f ccbc ce58 98bc
000001f0: 6780 aebd 797e 5d3d 14ea 943d a93c 17bd
00000200: 77be 09bd a88a 7e3d 40f7 0cbd 457e b7bd
00000210: 687d 8bbd c60a 263c de85 2abd 06bd d93c
00000220: 2eb9 163d 4e72 e6bc 8774 88bd 0424 25bd
00000230: bb88 ad3d 4367 033d fb19 123d fd25 6c3d
00000240: dc60 923d f999 493d 3fe9 123c e7ea a9bd
00000250: e6d9 133d aab4 2d3d 6015 4f3c 1182 233a
00000260: 78ec 833d 80c6 8e3c 1ee6 74bc 9615 d63c
00000270: 6365 4ebd 5d33 05bd baad 28bc 7f5f 433d
00000280: 103c 933c e071 afbd b9a0 5bbd 7519 1cbc
00000290: b4ae 1d3d b296 283d 76b6 b43d 09d0 70bd
000002a0: 467c b9bd 7910 86bd 9bd9 b53c 8368 8cba
000002b0: 80b6 2d3d 6f14 663d efa5 bdbc 055d 32bd
000002c0: 0582 a1bd a80d 66bd 0242 d6bc d77f 583d
000002d0: 7a4b af3d 24e8 553a 243e b4bc 32f9 d5bc
000002e0: 4b1d 7e3d 03e7 a9bd 3c4e 973d aa64 40bc
000002f0: b001 203b 42bd 8d3d 7754 843d de14 acbd
00000300: a3c9 9e3d b398 45bc 1588 953d ff1e adbd
00000310: 8266 aa3d a73d 6fbc 4be5 953d 21ec 4bbd
00000320: fb42 ec3c 10e7 813c ee19 dbba a2ed 353c
00000330: 7039 37bd c705 2bbd 9710 8c3d 13fa 8fbd
00000340: a41b adbd 50a0 3a3d 0dca fdbc 2c57 443d
00000350: e138 1b3d 87d0 5e3d cd31 c73b f4fa 27bd
00000360: ac6e 313d 1108 1a3d c266 46bd 0e91 f23b
00000370: 3311 b2bd 6347 8ebc 483c f0bc 003d a13d
00000380: d90a 1ebd 2126 aabc feb3 953c c713 f0bc
00000390: 5715 8c3d df66 60bc f307 b73d 66e9 813d
000003a0: dba5 8bbc 58a0 9f3d 68d3 3bbd 9060 96bd
000003b0: c742 803d 4b30 c03c 8d64 fbbc 9975 ac3c
000003c0: 7d47 92bc fb1a 81bd 3a6e 41bd ad68 a63d
000003d0: 0603 0b3d 4404 223d 3c9d bfbb ed19 423b
000003e0: fc94 933d cee5 9b3d f707 813d 209b 713d
000003f0: 4f93 ff3c 95e3 86bc 0e72 e0bc 48f1 ac3b
-0.0298028 0.08865476 0.08819313 0.005103386 0.0126923015 -0.03486013 0.0814855 -0.013256719
-0.04518552 -0.040103696 -0.08626011 -0.079917036 0.0144348005 -0.050126355 -0.0030957786 0.044003606
0.0216836 0.01532219 0.041849926 -0.06303949 -0.052862484 0.01575258 0.024407405 0.08009652
-0.053604264 -0.031582315 0.014577909 0.04725839 0.06883186 0.07485812 -0.015156222 0.084632926
0.00023675013 -0.060098305 -0.042827904 -0.010742313 -0.042493537 -0.05771715 -0.0030677742 0.021358734
0.039184235 0.037929215 0.08311232 0.055034637 0.036242053 0.016262265 0.031926874 0.06793991
0.031051476 -0.0133103775 0.08881859 -0.0655078 -0.040115673 0.072328776 0.08341744 0.025846599
-0.01248402 -0.006356425 -0.07682887 0.027783142 -0.0070247464 -0.07282688 -0.065699965 0.011667783
0.041087817 -0.07421372 0.00764736 0.027788192 -0.02950676 0.07484536 0.058628403 -0.033316214
-0.033333085 0.061049245 0.08612132 0.07761206 -0.039584756 -0.08152197 -0.038733672 -0.0064057023
-0.028116407 0.07543466 0.0069192164 -0.0011698806 0.011714968 -0.022531169 0.041464854 -0.030237038
0.07134339 0.07671218 -0.05487568 -0.048387267 -0.07520403 0.042019498 0.018402549 -0.013097462
0.060689047 0.053916924 0.005216318 0.06973779 -0.059146047 -0.059688117 -0.04506522 -0.019051602
-0.06474887 0.07694645 -0.028151454 -0.012540168 -0.07085475 -0.081274174 -0.08550367 -0.022483371
-0.012941403 -0.025531633 0.047114834 0.081481546 -0.03412132 -0.0002760197 -0.032239337 0.06700471
0.016677894 -0.021760257 -0.024970984 -0.018597033 -0.085205846 0.05407569 0.07271209 -0.036923084
-0.033628907 0.06214395 -0.034415483 -0.08959631 -0.06811029 0.0101344045 -0.041631572 0.026579391
0.036797695 -0.028130677 -0.06662851 -0.04031755 0.08473345 0.0320809 0.03566931 0.057653416
0.07147381 0.049219105 0.008966743 -0.08296757 0.036096476 0.042408623 0.012639374 0.0006237338
0.06441587 0.017428637 -0.014947442 0.02613334 -0.05038966 -0.032519687 -0.010295326 0.047698494
0.017972976 -0.08566642 -0.053620074 -0.009527554 0.038496688 0.04115934 0.08823864 -0.058792148
-0.090569064 -0.06546111 0.022198489 -0.0010712299 0.042410374 0.05617183 -0.023150412 -0.04354574
-0.078861274 -0.056165367 -0.026154522 0.052856293 0.08559318 0.0008159897 -0.022002287 -0.026119802
0.062039655 -0.08296015 0.07387969 -0.01174275 0.0024415068 0.06920864 0.06461423 -0.084024176
0.07753303 -0.012060332 0.07301346 -0.08453178 0.08320333 -0.014602101 0.07319125 -0.049785737
0.028840533 0.01585725 -0.0016716102 0.011104019 -0.04473251 -0.041753557 0.06839102 -0.0703012
-0.08452538 0.045563042 -0.030980134 0.047934696 0.03789604 0.054398086 0.0060789348 -0.041010812
0.043318436 0.03760535 -0.04843784 0.007402546 -0.08694687 -0.017368024 -0.02932562 0.07872963
-0.038584564 -0.020770134 0.018274304 -0.029306306 0.06840008 -0.013696401 0.08937063 0.06343345
-0.01704686 0.07794255 -0.04585591 -0.073426366 0.06262737 0.023460528 -0.030687595 0.021052169
-0.017856354 -0.06303974 -0.04722426 0.08125434 0.03393843 0.03955485 -0.005847601 0.0029617504
0.07206151 0.07612191 0.06300347 0.05898583 0.031198172 -0.016465941 -0.027398136 0.0052777864

actor.bias f4 [4]
00000000: 927b 383d e613 8abc b7f8 70bd 2eb0 e2bc
0.04503972 -0.016855191 -0.058830943 -0.0276719

critic.weight f4 [1, 128]
00000000: 4c34 873d cf91 8ebd 8f4f 653d de5b 8c3d
00000010: f286 fdbc 99ea 88bd 7398 95bd 8d97 45bd
00000020: 0e86 fab8 c17f a5bd 7256 26bd c67d 87bd
00000030: 4371 9cbd 8281 97bc 1e15 9b3d c5b8 26bd
00000040: 1935 1d3d c410 2a3d 484f 48bd a7c2 8c3d
00000050: 3d77 d2bc e7a5 4c3d d84d 793d 2e78 2fbd
00000060: c906 03bd 6d50 a9bd c172 34bc 4e94 e8bb
00000070: 83ff 9c3c cf79 8b3d 1060 1fbd 99d5 f93b
00000080: d79f 473d 9b23 df3c b4d6 323d 3f8d 30bd
00000090: 82ed 9e3c ff77 b8bc f3a9 9f3d 6794 973b
000000a0: ad03 bdbc c1d2 963d f3b3 d2bc 95f2 723d
000000b0: b4e7 ab3d 5d93 7438 ea01 1ebd 22fb a63d
000000c0: 87e0 9b3d 6aed a53c 755e 58bd 7ce5 d9bb
000000d0: 1b60 aebd 2c95 65bd 4978 373c aabb 00bc
000000e0: a166 e73c d6d1 a53d 84c8 033d be44 5c3d
000000f0: 6ab1 3d3d 94eb 603d 2117 64bc 4873 b4bd
00000100: 3711 4c3d b346 8fbb ed33 49bd 0d4d 1d3d
00000110: b17e 193d 3f46 a43d 3138 833d 179a 1b3d
00000120: fadc 60ba 7044 92bd c0c1 93bd 5848 c63c
00000130: 94fc 6b3d 310a 84bd 84ea 103a e341 82bc
00000140: e10a a43d b4bc 41bd 50f5 4ebd d341 6a3d
00000150: c9ea b1bd 1caa 8ebb 5835 46bd a809 a1bd
00000160: f6c5 8e3d 909e 95bb e7df a23d 71ea acbd
00000170: 232e ef3c a5c0 fa3c 0f66 8b3d 70c7 8fbd
00000180: 688e 7abd d73b 8bbd 4de8 57bd 4bc7 0f3d
00000190: b66e 303c 5fc4 eb3c 07d1 7aba d9e8 5cbd
000001a0: 36df db3b 967a a13c 566a da3c 54a0 17bd
000001b0: 2a8e 45bd 56ed 993d 998c 20bd bd85 b8b9
000001c0: e403 f03c 8ec9 8fbc 4bab d63c 84c4 663c
000001d0: 64f8 2b3d 7cd8 1ebd fb7b b2bd 9652 b1bb
000001e0: 4b5e 78bd 9df3 9c3c 78b0 343d a025 583d
000001f0: 21af ddbc 5603 8b3c c224 cd3c 433a 943d
0.06601772 -0.069614045 0.055984076 0.0685346 -0.030948136 -0.06685371 -0.07304468 -0.048240233
-0.000119458986 -0.08081008 -0.040609784 -0.06615786 -0.076387905 -0.018494371 0.07572387 -0.040703554
0.038380716 0.041519895 -0.048903733 0.068730645 -0.025691623 0.049962904 0.060865253 -0.04283922
-0.031988893 -0.08267293 -0.011013688 -0.0070977574 0.019164806 0.068103425 -0.03890997 0.00762434
0.04873642 0.027238658 0.043661788 -0.043103453 0.019400362 -0.022518156 0.07796087 0.0046258452
-0.023073042 0.07364417 -0.025720572 0.059313376 0.08393803 5.8311376e-05 -0.038576044 0.081533685
0.076111846 0.02025481 -0.052824456 -0.006649671 -0.085144244 -0.056050465 0.011198112 -0.007857243
0.02824718 0.08096664 0.03217365 0.053776495 0.046311773 0.054912165 -0.01392153 -0.08811051
0.049821105 -0.0043724417 -0.049121786 0.03840356 0.037474338 0.08021211 0.06407202 0.03798875
-0.000857785 -0.0714196 -0.07214689 0.024204418 0.057613924 -0.06447256 0.00055281096 -0.015900558
0.080098875 -0.047299102 -0.050526917 0.05719168 -0.0868736 -0.0043537747 -0.048390716 -0.0786317
0.06971352 -0.0045660213 0.07952862 -0.08443154 0.029196804 0.030609438 0.068065755 -0.070204616
-0.061170965 -0.06798523 -0.052711774 0.03510217 0.010768583 0.02878016 -0.00095678907 -0.053933
0.0067099584 0.019711774 0.026662033 -0.037018135 -0.04823128 0.07515971 -0.039196584 -0.00035194858
0.02929873 -0.017552163 0.026204726 0.014084939 0.04198493 -0.038780674 -0.08715054 -0.0054114563
-0.0606368 0.019159133 0.044113606 0.052770257 -0.027061047 0.016969364 0.025041942 0.07237675
