code/models/ppo_trained_500ep_time_penalty.pt (torch, 75727 bytes, 7 tensors)

encoder.0.weight f4 [128, 5]
0	0x3e8980d3	0.26856098
1	0xbe5eb580	-0.21748924
2	0x3d537aac	0.05163066
3	0x3db22f0f	0.08700382
4	0xbea803da	-0.32815439
5	0x3ea5a208	0.32350183
6	0x3ecf7f4e	0.40526813
7	0xbd2f0c25	-0.04273619
8	0x3e0f9602	0.14022067
9	0x3e61c5ff	0.22048186
10	0xbe877c07	-0.26461813
11	0x3cd44bb0	0.025914997
12	0xbc90e11a	-0.017685462
13	0xbe15cd96	-0.14629206
14	0x3bd025f2	0.0063521797
15	0x3a1633f6	0.00057297887
16	0x3c651688	0.013982423
17	0xbec57a63	-0.38569936
18	0x3e81bcf4	0.25339472
19	0xbe99b10e	-0.30017895
20	0xbe7c7949	-0.24655642
21	0x3e8f82f2	0.2802959
22	0xbe78a519	-0.2428173
23	0xbea7e5cc	-0.3279251
24	0xbeb6a0f4	-0.35669672
25	0x3e2d1ef3	0.16906337
26	0xbee096bb	-0.43864998
27	0x3eac14a4	0.33609498
28	0xbe5d03c9	-0.21583475
29	0xbc60dd1c	-0.013724592
30	0x3eb7df92	0.35912758
31	0x3e975cb0	0.29562902
32	0xbe82f166	-0.25574797
33	0xbed230dd	-0.41052905
34	0x3e686b93	0.22697286
35	0x3ea59d0b	0.32346377
36	0xbeaa5231	-0.33265832
37	0xbe2fdc72	-0.17173937
38	0x3ed0b532	0.4076324
39	0x3bf6bc73	0.007529789
40	0xbcd99f55	-0.026565233
41	0x3d26e176	0.04074236
42	0xbd7f41d8	-0.062318653
43	0xbe40dc28	-0.18833983
44	0xbe7a8267	-0.24463807
45	0xbdfcfd3e	-0.123529896
46	0x3d6f34c7	0.05839994
47	0xbe552773	-0.2081583
48	0xbec22850	-0.3792138
49	0xbedc647d	-0.43045416
50	0xbe196370	-0.14979339
51	0x3e10c133	0.141362
52	0x3ed4ba4f	0.41548392
53	0x3e0bf407	0.13667308
54	0xbe274b41	-0.16337301
55	0xbecdd572	-0.40201908
56	0xbeb8136a	-0.35952312
57	0xbe9705ce	-0.29496616
58	0x3dedda7a	0.11613937
59	0xbed810e1	-0.42200378
60	0xbe4968fa	-0.19668952
61	0x3de525b1	0.1118883
62	0x3e3c7c39	0.18406762
63	0x3e1a91a0	0.15094614
64	0x3d4fbc12	0.050716467
65	0x3e224d6f	0.15849851
66	0x3ed6cd45	0.41953483
67	0xbe22cd34	-0.15898591
68	0x3ed8f7c8	0.42376542
69	0xbec44943	-0.38337144
70	0xbe09d8d6	-0.13461623
71	0x3ee10ee0	0.4395666
72	0x3e14fa72	0.14548662
73	0x3e3be9bf	0.18350886
74	0x3e9789bf	0.2959728
75	0x3e291e2c	0.16515416
76	0x3eded990	0.43525362
77	0x3da1df91	0.0790397
78	0x3d88f145	0.066866435
79	0xbe83fbae	-0.25777954
80	0xbe27a81c	-0.16372722
81	0xbe4939bd	-0.19650932
82	0xbe4ca82d	-0.19986029
83	0x3e4de78e	0.20107862
84	0x3d7dc58b	0.06195597
85	0x3df731a5	0.12070016
86	0xbeda9b68	-0.4269669
87	0xbd901651	-0.070355065
88	0x3ec5fef0	0.38671064
89	0x3eae4ba5	0.34042087
90	0x3ec02249	0.37526157
91	0xbec6eb46	-0.38851374
92	0x3e2d4c91	0.16923739
93	0xbdf9695b	-0.12178298
94	0x3e49b038	0.19696128
95	0x3df06615	0.117382206
96	0x3eb9eb25	0.36312214
97	0xbebb2dd3	-0.365584
98	0x3ee1e63d	0.4412097
99	0x3eb98c0d	0.36239663
100	0x3c97fc08	0.018552795
101	0xbe35e0a7	-0.1776148
102	0x3e31b22d	0.17353125
103	0x3eacf8fd	0.33783713
104	0x3ebab45a	0.36465722
105	0x3ea2dfba	0.31811315
106	0x3ebb35e5	0.36564556
107	0xbe8e5e17	-0.2780616
108	0xbda43e68	-0.080197155
109	0x3dfe9595	0.12430874
110	0x3e557deb	0.20848815
111	0xbdc8d2d6	-0.09805839
112	0xbe98e4da	-0.298621
113	0x3edd367b	0.43205628
114	0x3eaaac92	0.33334786
115	0x3e8296de	0.25505728
116	0x3eac109e	0.33606428
117	0xbea5cbf5	-0.3238217
118	0xbe64218e	-0.22278425
119	0x3db33eb0	0.08752191
120	0xbe9a2ec9	-0.3011382
121	0xbe37f43f	-0.17964266
122	0xbe180c33	-0.14848404
123	0xbe8cacd8	-0.2747562
124	0x3dbb13e8	0.09134656
125	0x3eb93ba7	0.36178324
126	0x3ea49c74	0.32150614
127	0xbe78feb2	-0.24315909
128	0xbe30b70d	-0.17257328
129	0xbdf08074	-0.117432505
130	0x3ecce649	0.40019444
131	0x3e409f4f	0.18810771
132	0xbea83969	-0.328563
133	0x3ee0c9a6	0.43903846
134	0xbec0810d	-0.37598458
135	0x3e2d44f7	0.16920839
136	0xbdbc9732	-0.09208526
137	0x3eb70aa6	0.35750312
138	0xbe81edfb	-0.25376877
139	0xbe258f42	-0.1616793
140	0xbe59ef37	-0.2128266
141	0x3e9aeed8	0.30260348
142	0xbcf70ff7	-0.03015898
143	0x3d4f2b0f	0.050578173
144	0xbd8df180	-0.06930828
145	0xbdd6f084	-0.104950935
146	0xbd2bfc1f	-0.04198849
147	0xbe2667dd	-0.16250558
148	0xbebc1a0d	-0.36738625
149	0x3d2e8190	0.04260403
150	0xbdd5b4de	-0.10434888
151	0xbd03d1f4	-0.03218265
152	0x3db90ec3	0.09036019
153	0x3ee4ddd8	0.44700503
154	0xbea9f075	-0.33191267
155	0x3e8734b9	0.26407412
156	0x3ee24b24	0.44197953
157	0xbe02ea13	-0.12784605
158	0xbe794200	-0.24341583
159	0x3e50d64a	0.20394245
160	0x3e56c24a	0.20972553
161	0x3c027dd0	0.007964566
162	0x3e991594	0.29899275
163	0xbec606cc	-0.3867706
164	0xbea69d95	-0.325421
165	0xbdc4819a	-0.09595032
166	0x3d6c7ee4	0.0577382
167	0xbe946885	-0.28985992
168	0x3e3563a4	0.17713791
169	0xbe217761	-0.15768196
170	0xbe120a32	-0.14261702
171	0x3ada68dc	0.0016663331
172	0x3e169e19	0.14708747
173	0x3e0da8f8	0.13833988
174	0x3da3726c	0.079808086
175	0x3e6102cd	0.21973725
176	0xbebfd4f9	-0.37467173
177	0x3ea5648e	0.3230328
178	0xbd65b63d	-0.056082
179	0x3c073773	0.008252966
180	0x3c285acf	0.010275557
181	0x3d0e6f80	0.034774303
182	0xbeb516ea	-0.35369045
183	0x3ee11f25	0.43969074
184	0x3d477ebb	0.048704844
185	0xbee2703c	-0.44226253
186	0x3d67fd11	0.056637827
187	0xbddd656b	-0.108103596
188	0xbed0c46c	-0.40774858
189	0xbd79702d	-0.060897995
190	0xbea7db30	-0.32784414
191	0x3ee49cc8	0.44650865
192	0x3ee10c0e	0.4395451
193	0x3cbd888d	0.023136402
194	0x3e959f47	0.2922308
195	0x3ed328f5	0.41242185
196	0x3e74b2ed	0.2389638
197	0x3ea75e75	0.32689252
198	0x3ec7e22a	0.39039737
199	0xbd93d9de	-0.07219289
200	0xbec652b3	-0.3873497
201	0xbcad97ba	-0.021190513
202	0x3e946258	0.2898128
203	0x3ec54027	0.38525507
204	0x3e57aef2	0.2106283
205	0x3ed9c35b	0.42531857
206	0x3e9141a6	0.28370398
207	0x3e699ff5	0.22814925
208	0x3e1f08f5	0.1553076
209	0x3d817732	0.06321563
210	0x3e8ae2e7	0.27126238
211	0x3d81968d	0.063275434
212	0x3e7a28f5	0.24429686
213	0xbecdf4aa	-0.40225726
214	0xbd37e471	-0.044895593
215	0xbeb39c0f	-0.3508
216	0x3e2982e0	0.16553831
217	0x3d84ad1e	0.06478332
218	0xbd848b04	-0.064718276
219	0xbeb1ff62	-0.34765154
220	0xbe58054d	-0.21095772
221	0xbd8899c8	-0.066699564
222	0xbeb6aaee	-0.35677284
223	0x3e6b5962	0.22983316
224	0x3ecaf9c8	0.39643693
225	0x3e3e3e9a	0.18578568
226	0xbb220ff0	-0.0024728738
227	0xbe62575e	-0.2210364
228	0x3e59950a	0.2124826
229	0x3eb00db2	0.3438545
230	0xbdcb4e79	-0.09927077
231	0x3e71fb5e	0.23631045
232	0xbed661c4	-0.41871464
233	0xbec31492	-0.3810163
234	0xbea8f886	-0.33002108
235	0x3cb9989c	0.022655778
236	0x3e9f8eac	0.31163538
237	0xbdc0c519	-0.094125934
238	0xbed5c3f6	-0.4175107
239	0x3e42c73a	0.19021311
240	0x3d9587ab	0.07301267
241	0xbe508647	-0.20363723
242	0x3e77010a	0.2412149
243	0xbe26c037	-0.16284262
244	0x3ecb6b63	0.39730367
245	0x3e1a7800	0.15084839
246	0xbb9396e6	-0.0045040725
247	0x3e7a7112	0.24457195
248	0x3e0fa988	0.14029515
249	0x3eb87282	0.36024863
250	0x3eb0028f	0.34376952
251	0xbea5be1c	-0.32371604
252	0x3eaa866a	0.33305675
253	0x3e8b7087	0.2723429
254	0xbcb61b55	-0.02222983
255	0xbe4977b8	-0.19674575

encoder.0.bias f4 [128]
0	0x3e3dd320	0.18537569
1	0x3e5aac9c	0.21354908
2	0x3e98a337	0.29812023
3	0xbe6a1d8d	-0.22862835
4	0x3dac0ca5	0.08400849
5	0xbe1c8fbe	-0.15289208
6	0x3eb89a73	0.36055335
7	0xbe06d3fd	-0.13166805
8	0xbe241845	-0.16024883
9	0xbe622990	-0.22086167
10	0x3dc132d0	0.0943352
11	0x3eba4316	0.36379308
12	0xbc8ab442	-0.016931657
13	0xbedabb15	-0.42720857
14	0x3da3b81b	0.079941
15	0x3da7853a	0.08179708
16	0x3eddf2cf	0.4334931
17	0x3ecb8e20	0.3975687
18	0xbeacfd18	-0.33786845
19	0x3c613eb1	0.013747857
20	0x3e47b5ae	0.19502899
21	0xbe30bb2c	-0.172589
22	0x3d07991c	0.033105
23	0xbe181dc1	-0.148551
24	0x3d4ea28c	0.050447986
25	0xbedf7f33	-0.43651733
26	0xbea5025e	-0.3222837
27	0x3e2f7695	0.17135079
28	0xbda5cd65	-0.080958165
29	0xbecfaca0	-0.4056139
30	0xbece0b5e	-0.40243047
31	0x3ed92952	0.42414337
32	0xbeb03c32	-0.34420925
33	0x3e72cc4f	0.2371075
34	0xbe9cd4b5	-0.30631033
35	0xbd3bc2be	-0.045840017
36	0xbdc8859a	-0.097911075
37	0xbdb3a132	-0.0877098
38	0xbd89bd94	-0.06725612
39	0xbe021641	-0.12703802
40	0x3e7e49fa	0.24832907
41	0x3e89c53f	0.269083
42	0xbed11935	-0.40839544
43	0x3d18ad43	0.03727461
44	0xbea5a756	-0.3235423
45	0x3e9b31ba	0.30311376
46	0xbec8c409	-0.39212063
47	0x3eaeb0e9	0.34119347
48	0x3eb2a50e	0.34891552
49	0xbd2aa7ad	-0.041663814
50	0x3ed3e421	0.41384986
51	0x3b8ccec2	0.0042971084
52	0x3e23129d	0.15925069
53	0x3ea588d4	0.32330954
54	0x3e2b70c3	0.16742234
55	0xbeb7f868	-0.35931706
56	0x3ed0e06b	0.40796217
57	0x3e5430de	0.20721766
58	0xbeb7a587	-0.35868475
59	0x3ed53702	0.4164353
60	0x3ed581c3	0.41700563
61	0xbe8bf5c4	-0.27335942
62	0xbea9c0b9	-0.33154848
63	0xbba92885	-0.005162301
64	0x3db4159f	0.087931864
65	0x3eb5dd6e	0.355205
66	0xbe9a9640	-0.30192757
67	0xbede3fc5	-0.43408027
68	0xbec68935	-0.38776556
69	0xbeb7f974	-0.35932505
70	0x3eaaf5e8	0.33390737
71	0x3ddfa11f	0.10919403
72	0xbec7a490	-0.3899274
73	0x3c882295	0.016618052
74	0xbd35b204	-0.044359222
75	0xbeaea2b6	-0.34108514
76	0x3e5ec442	0.21754554
77	0xbc625c82	-0.013816001
78	0xbed8022f	-0.42189166
79	0xbcb5ba4a	-0.022183556
80	0xbea847f0	-0.32867384
81	0xbed0401f	-0.4067392
82	0x3dd50be1	0.10402656
83	0xbe54735e	-0.20747134
84	0xbe52f320	-0.20600557
85	0x3df99115	0.12185875
86	0x3da7595a	0.08171339
87	0x3db5e775	0.088820376
88	0xbd9bca84	-0.07606986
89	0xbeca82ee	-0.39553016
90	0x3cc3bfd9	0.023895191
91	0x3eb5f7ae	0.35540527
92	0x3e94b823	0.29046735
93	0x3eb9c5bf	0.3628368
94	0x3e95e091	0.29272893
95	0xbed52361	-0.41628554
96	0x3e8b2498	0.27176356
97	0xbed3b842	-0.41351515
98	0xbec6847c	-0.38772953
99	0x3d9bd6ce	0.0760933
100	0xbe4d413a	-0.20044413
101	0xbe90ab70	-0.28255796
102	0x3e689ec5	0.22716816
103	0x3eb35245	0.35023704
104	0x3e855e3b	0.26048455
105	0xbd4a8641	-0.04944444
106	0x3df63100	0.12021065
107	0x3ecb74b4	0.39737475
108	0x3e0a7f4a	0.1352512
109	0xbedbb594	-0.4291197
110	0x3eb9c5d0	0.3628373
111	0xbe9bd3cb	-0.30435023
112	0xbe0028f3	-0.12515621
113	0x3d79010b	0.06079201
114	0xbabf2bd9	-0.0014585211
115	0xbe89caad	-0.26912442
116	0xbeaab945	-0.33344474
117	0x3e895300	0.26821136
118	0x3ca1684d	0.019703055
119	0x3eda1da6	0.42600745
120	0xbd09fd67	-0.03368893
121	0xbe8bd172	-0.27308232
122	0xbc773c93	-0.015090126
123	0x3eb7a7a2	0.3587008
124	0x3e4f93b8	0.20271194
125	0xbd22ab86	-0.03971436
126	0xbdfc7bc0	-0.12328291
127	0x3e62dfec	0.22155732

encoder.2.weight f4 [128, 128]
0	0x3d642368	0.05569783
1	0xbc906abf	-0.017629026
2	0xbd4c8dfc	-0.049940094
3	0xbd89a96f	-0.0672177
4	0x3d150bd3	0.03638823
5	0xbce057c9	-0.02738561
6	0x3cee5bbc	0.029096477
7	0x3db29736	0.087202474
8	0x3d8ff4ff	0.07029151
9	0x3cc39164	0.023873039
10	0xbdaba3b0	-0.0838083
11	0x3c94882e	0.018131342
12	0xbae19295	-0.0017209823
13	0xbd859621	-0.065227754
14	0x39e78885	0.00044161468
15	0xbba76596	-0.0051085455
16	0x3c70f601	0.014707089
17	0x3d4d4e87	0.050123718
18	0xbdac64fc	-0.08417699
19	0xbce12c57	-0.027486963
20	0xbc2f7142	-0.010708155
21	0xbd169de7	-0.03677168
22	0xbda22f75	-0.07919208
23	0xbbc1f4af	-0.005919061
24	0x3d894a5f	0.06703638
25	0xbd1d153a	-0.03835032
26	0xbbc56207	-0.0060236487
27	0xbd8404b6	-0.06446211
28	0x3be2b3ca	0.006918405
29	0x3d877555	0.06614176
30	0x3ca82b7d	0.02052855
31	0x3c94cb72	0.018163417
32	0xbd62130b	-0.055193942
33	0xbcf16199	-0.029465484
34	0xbd4c8efb	-0.049941044
35	0x3d4dc769	0.050239
36	0xbd554378	-0.052066296
37	0xbc3cbd01	-0.011519671
38	0xbd554537	-0.05206796
39	0xbd0ae4cf	-0.033909615
40	0xbcb0ce31	-0.021582695
41	0x3d677441	0.056507353
42	0xbcc0bb6f	-0.023526875
43	0x3b893b73	0.004187995
44	0xbca29ca3	-0.01985008
45	0xbd2a9a5a	-0.041651107
46	0xbd142669	-0.036169443
47	0xbd90092c	-0.070329994
48	0x3d9b3d3b	0.07580038
49	0xbd384e21	-0.044996385
50	0x3d2f27df	0.042762633
51	0xbcceafc8	-0.025230303
52	0x3d116d04	0.035504356
53	0x3cdbe68f	0.026843337
54	0xbd946ed6	-0.07247703
55	0xbd0a57fc	-0.033775315
56	0x3d8ded19	0.069299884
57	0xbd899c2d	-0.06719241
58	0x3c3e0306	0.0115974005
59	0x3cbc0cc7	0.022955311
60	0xbcd4dd6d	-0.02598449
61	0xbdabac5c	-0.08382484
62	0x3daee9d1	0.08540691
63	0x3da18a91	0.078877576
64	0xbdaa4362	-0.083136335
65	0x3a9fae8d	0.0012182757
66	0xbcf0f35b	-0.029412916
67	0x3bd48789	0.0064858836
68	0xbd92e220	-0.07172036
69	0xbd97203b	-0.07379194
70	0x3d922e4b	0.07137736
71	0x3d81f3c0	0.0634532
72	0x3b1fdcb0	0.0024393015
73	0x3cec2837	0.02882777
74	0x3dab4141	0.083620556
75	0xbd92345f	-0.07138895
76	0x3d28c494	0.041203097
77	0x3d94aee4	0.0725992
78	0x3b80d3ba	0.00393149
79	0xbcb1ffb5	-0.021728376
80	0x3c807e47	0.015685214
81	0x3d8c8efd	0.0686321
82	0x3d28bea8	0.04119745
83	0x3cac407b	0.02102684
84	0xbd750437	-0.059818473
85	0x3d56913c	0.0523846
86	0xbca4384e	-0.02004638
87	0xbd549d85	-0.051908035
88	0x3d131d6c	0.03591673
89	0x3d6c6254	0.05771096
90	0x3d91d701	0.07121087
91	0x3d5841bb	0.05279706
92	0x3d6b2638	0.057409495
93	0xbd66dc70	-0.05636257
94	0x3c0be4b4	0.008538414
95	0x3d6cbe88	0.057798892
96	0x3ba76dcf	0.0051095258
97	0xbd69f756	-0.057120644
98	0x3d7faca7	0.062420513
99	0xbd468ca0	-0.048473954
100	0xbd9ef2d3	-0.07761159
101	0xbd6b4d9e	-0.05744707
102	0x3ce2164d	0.027598524
103	0xbc2117b4	-0.009832311
104	0x3d9b8b0f	0.07594883
105	0xbd5b84bf	-0.053593393
106	0xbca7b5b6	-0.020472389
107	0xbda39a33	-0.079883955
108	0x3d051c97	0.03249797
109	0x3da861b6	0.08221762
110	0xbd82e9d0	-0.063922524
111	0x3d0eedf8	0.034894913
112	0xbd143ea4	-0.03619255
113	0xbcd61b62	-0.026136104
114	0xbd8f7abe	-0.07005833
115	0x3dad8dc7	0.084743075
116	0xbd927f3e	-0.07153176
117	0x3d7d5529	0.061848793
118	0x3d51c6c8	0.051214963
119	0xbd2a8dee	-0.04163926
120	0xbc1f80e6	-0.009735322
121	0xbd31f0d3	-0.04344256
122	0xbc42cb78	-0.011889331
123	0xbd1ac055	-0.03778108
124	0x3d05d3d8	0.032672733
125	0x3db3b800	0.087753296
126	0x3d619182	0.055070408
127	0xbda38724	-0.079847604
128	0xbb1d1529	-0.0023968911
129	0x3d54f805	0.051994342
130	0x3b7d399b	0.0038639072
131	0x3ce5e748	0.028064385
132	0xbd2bd8bf	-0.041954752
133	0x3cf49254	0.029854931
134	0x3d881e04	0.0664635
135	0x3d855d35	0.065119185
136	0x3d735971	0.05941147
137	0xbce5518d	-0.027992988
138	0xbce2ad23	-0.027670449
139	0xbc8e05aa	-0.017336685
140	0x3d799ca7	0.06094041
141	0xbccc49e2	-0.024937574
142	0xbcdb3f32	-0.026763532
143	0x3bca2092	0.0061684335
144	0xbd7263d8	-0.05917725
145	0x3caa47df	0.020786224
146	0x3b293e33	0.0025824427
147	0x3daebddb	0.08532306
148	0x3db43fcb	0.0880123
149	0x3d9a0b7c	0.07521722
150	0xbd759e74	-0.059965566
151	0xbc8b024c	-0.016968869
152	0x3d28c55f	0.041203853
153	0xbd9d2577	-0.076731615
154	0xbd0b0d86	-0.033948444
155	0x3d9a3eb3	0.0753149
156	0x3d698515	0.057011683
157	0xbd8136a9	-0.06309254
158	0xbd69ff01	-0.057127956
159	0x3d83434a	0.06409319
160	0x3d4dd949	0.050256047
161	0x3c231e53	0.00995596
162	0x3afe8f50	0.0019421373
163	0xbd00fbff	-0.031490322
164	0xbd846af7	-0.064657144
165	0x3d99db92	0.07512583
166	0xbd694246	-0.05694797
167	0xbd70b5ac	-0.058767006
168	0xbd105f22	-0.035246976
169	0xbd29a3a6	-0.041415833
170	0xb7e49280	-2.7247937e-05
171	0xbd36a698	-0.04459247
172	0xbd897a70	-0.06712806
173	0x3d0f2868	0.034950644
174	0xbd8ff774	-0.0702962
175	0xbd233707	-0.0398474
176	0xbc3a3282	-0.011364581
177	0xbdaa4437	-0.08313792
178	0x3d7b95ce	0.06142216
179	0x3cdd13a8	0.026986912
180	0x3d599431	0.053119842
181	0xbd96c4a2	-0.073617235
182	0xbd1d8ff2	-0.038467355
183	0x3d7fc756	0.06244596
184	0xbd51b2fc	-0.051196083
185	0xbc1a3007	-0.009410865
186	0x3d685d5e	0.056729667
187	0x3d34390f	0.043999728
188	0x3d718cb8	0.05897209
189	0xbc4f5205	-0.012653832
190	0x3d4e4fa9	0.05036894
191	0xbd9b7cc3	-0.07592156
192	0xba12d517	-0.0005601211
193	0xbda4e0ba	-0.08050676
194	0x3c3844e8	0.011246897
195	0xbd9e84e8	-0.077401936
196	0xbc5c0d9b	-0.013430978
197	0xbce49072	-0.027900908
198	0xbd0fda05	-0.03512003
199	0x3d3c3c96	0.045956217
200	0x3d1ce276	0.038301907
201	0xbd7fbb18	-0.062434286
202	0x3cb0d0ab	0.021583876
203	0xbd841c9a	-0.06450768
204	0x3b7ab89d	0.003825701
205	0xbc3e24ec	-0.011605483
206	0xbc2f67d8	-0.010705911
207	0x3d98edc0	0.07467222
208	0xbd646451	-0.05575973
209	0xbd8d950d	-0.06913195
210	0xbbf50607	-0.007477525
211	0x3d336f97	0.043807592
212	0x3d34e754	0.044165924
213	0x3d13056a	0.035893835
214	0x3d8aae9f	0.067715876
215	0x3d69a451	0.05704147
216	0xbd7b32e6	-0.061327837
217	0xbd7b157c	-0.061299786
218	0xbcdb80b7	-0.026794774
219	0x3d9576b4	0.072980314
220	0xbb8fa3f0	-0.0043835565
221	0x3d95312f	0.07284772
222	0x3d9d1a73	0.076710604
223	0x3d160799	0.03662834
224	0x3d74fb85	0.05981018
225	0xbd386434	-0.045017436
226	0xbd20c9b4	-0.03925486
227	0x3a047bab	0.00050538284
228	0xbd6b3725	-0.057425637
229	0xbd7bf0f7	-0.0615091
230	0xbd88132b	-0.06644281
231	0xbd1fd82e	-0.039024524
232	0x3dafa0b0	0.085755706
233	0x3cff19d1	0.03114024
234	0x3d10eca8	0.035381943
235	0xbba58ac4	-0.0050519425
236	0xbd89570a	-0.067060545
237	0xbcce1131	-0.025154682
238	0x3da8f1a8	0.08249217
239	0xbbdcd201	-0.0067389016
240	0x3c1860ea	0.00930045
241	0xbcb97753	-0.022639906
242	0xbd39ff3c	-0.045409426
243	0x3a92321a	0.0011153847
244	0xbda3652c	-0.079782814
245	0x3d8e0a2d	0.069355346
246	0x3d478b37	0.04871675
247	0xbd493756	-0.049125038
248	0xbd883cf1	-0.06652249
249	0xbc2e4539	-0.010636621
250	0xbd9cabf4	-0.07649985
251	0xbd9ff889	-0.07811076
252	0xbd81e3a7	-0.06342249
253	0xbdb066ec	-0.08613381
254	0xbc001797	-0.007818124
255	0x3c1ac76f	0.009446963

encoder.2.bias f4 [128]
0	0x3c77ed60	0.015132278
1	0x3d0ba3af	0.034091648
2	0x3ce2f335	0.02770386
3	0xbd1a3c5e	-0.037655227
4	0xbd262d1d	-0.040570367
5	0xbdb0e024	-0.086365014
6	0x3c10c416	0.008835813
7	0xbcefc2d1	-0.0292677
8	0x3da3677d	0.07978723
9	0x3af2a657	0.0018512708
10	0x3c9aafe7	0.018882705
11	0x3d93414c	0.07190189
12	0x3da33384	0.0796881
13	0xbc6cb9bf	-0.014448582
14	0x3d39e485	0.04538395
15	0x3d374fc2	0.044753797
16	0x3d1f1036	0.03883382
17	0xbd8b0959	-0.06788892
18	0x3d07c9b1	0.033151332
19	0x3c6be663	0.01439819
20	0xbd75ed13	-0.060040545
21	0x3be829bd	0.0070850537
22	0xbc066ebf	-0.008205115
23	0x3db0d499	0.086343
24	0x3d2a4499	0.041569326
25	0x3d90d847	0.07072502
26	0xbd89df05	-0.06731991
27	0x3c0e504e	0.008686138
28	0x3cd02b36	0.02541123
29	0xbc7d61ff	-0.015465259
30	0x3d8b2146	0.06793456
31	0xbbc74512	-0.006081232
32	0xbce6524c	-0.028115414
33	0xbbfe3620	-0.007757917
34	0x3c8f9767	0.017528249
35	0x3d0d59d6	0.034509502
36	0x3cbf6932	0.02336559
37	0x3db1423b	0.086552106
38	0xbda161c0	-0.078799725
39	0x3d497a26	0.049188755
40	0x3d974ec9	0.07388074
41	0x3d161e80	0.03665018
42	0xbc9d5130	-0.019203752
43	0x3d545853	0.051842045
44	0x3d916f2c	0.071012825
45	0x3daa2e8e	0.08309661
46	0xbc8fcaf6	-0.017552834
47	0x3d6eb617	0.058279123
48	0xbaacc2b3	-0.0013180583
49	0x3d26f0db	0.04075704
50	0x3d7deee8	0.061995417
51	0xbc9eac03	-0.019369131
52	0xbc86adb0	-0.016440243
53	0x3da1a215	0.07892243
54	0xbcae90b0	-0.021309227
55	0xbc15ae29	-0.009135761
56	0xbc05aa00	-0.008158207
57	0x3d07271f	0.032996293
58	0xbd327c28	-0.043575436
59	0x3d294077	0.041321244
60	0xba9aea18	-0.0011819033
61	0xbc12d6fe	-0.008962391
62	0x3d86249a	0.0654995
63	0xbcb02828	-0.021503523
64	0x3c3144f7	0.010819665
65	0x3d1aba39	0.037775252
66	0xbcdf10c0	-0.027229667
67	0xbd1460a2	-0.03622497
68	0x3b5f923a	0.0034114257
69	0xbdae2564	-0.085032254
70	0x3d53403e	0.051574938
71	0x3dafa4af	0.08576333
72	0x3dadf3ca	0.08493765
73	0x3c5810ad	0.01318757
74	0x3d7ccf76	0.061721288
75	0x3d92c362	0.071661726
76	0xbcc9dc2d	-0.02464112
77	0xbd19c5ee	-0.037542276
78	0x3d9a1cd1	0.075250275
79	0xbd2b0cec	-0.04176037
80	0x3d7fe2a6	0.06247201
81	0xbd88f330	-0.06687009
82	0xbdabb767	-0.083845906
83	0xbd865c17	-0.065605335
84	0x3d81a132	0.06329574
85	0xbcb45dcf	-0.022017388
86	0xbbd4f413	-0.0064988225
87	0x3dacdba8	0.084403336
88	0xbc4fcb7d	-0.012682793
89	0x3c8a550e	0.01688626
90	0x3da95f7f	0.082701676
91	0x3c950975	0.018192986
92	0x3d82c4f3	0.06385221
93	0xbd9213b5	-0.07132665
94	0xbd0b5d54	-0.03402455
95	0xbd9c620b	-0.07635888
96	0x3dac627d	0.08417223
97	0x3c5cb6ea	0.0134713445
98	0x3d841c3d	0.064506985
99	0xbcdb3e23	-0.026763028
100	0x3c8be81a	0.017078448
101	0xbdb46d16	-0.08809869
102	0xbcd3d90e	-0.025860336
103	0xbd5b0443	-0.05347086
104	0xbcc25c13	-0.023725545
105	0xbca9815c	-0.020691566
106	0x3ce50e71	0.027960988
107	0xbd0fa3e8	-0.035068423
108	0xbda05224	-0.07828167
109	0xbd00fcd4	-0.031491116
110	0xbd8326ba	-0.06403871
111	0xbc92e5b5	-0.017931798
112	0xbb5062f7	-0.003179727
113	0xbd82710e	-0.0636922
114	0xbd4d9e77	-0.050199952
115	0xbcc85077	-0.024452431
116	0x3d83fa59	0.064442344
117	0x3c6cb654	0.014447767
118	0x3bd4c556	0.006493251
119	0x3d9134cf	0.070901506
120	0xbd1a0f9d	-0.037612546
121	0x3d1594a1	0.036518697
122	0xbc8f8c0d	-0.017522836
123	0x3d356751	0.044287983
124	0x3d241ac1	0.040064577
125	0x3d1a5666	0.037680052
126	0xbd5fd8e7	-0.054650214
127	0xbd2cc52f	-0.042180236

actor.weight f4 [4, 128]
0	0x3d31e9b8	0.043435782
1	0x3d55bb2c	0.052180454
2	0xbd1e9231	-0.038713638
3	0xbd05afdb	-0.032638412
4	0x3c018d35	0.007907202
5	0xbd86a3fa	-0.06574245
6	0x3da5e6c6	0.08100657
7	0x3d508fa8	0.05091825
8	0x3caa2d77	0.020773632
9	0xbda404e2	-0.08008744
10	0xbda39eb8	-0.079892576
11	0xbda83eb7	-0.08215087
12	0x3db34424	0.08753231
13	0xbd33c6f3	-0.043890905
14	0x3b8f6e77	0.004377182
15	0x3d55fffe	0.052246086
16	0xbd2abf90	-0.041686594
17	0x3d40f41a	0.047107793
18	0xbdb4f955	-0.08836619
19	0xbd36d757	-0.044638958
20	0x3bc61f9f	0.00604625
21	0xbd79bb80	-0.06096983
22	0xbda31740	-0.07963419
23	0xbc50d858	-0.012746893
24	0xbc378a19	-0.011202359
25	0xbd9930e9	-0.07480032
26	0xbc8d5ce2	-0.017256204
27	0x3d06a6f2	0.032874055
28	0x3d8e2679	0.06940932
29	0x3d8dbef8	0.0692119
30	0xbd5214c6	-0.051289342
31	0xbcabeeca	-0.020987887
32	0x3da568d7	0.08076637
33	0xbccaba42	-0.024747018
34	0x3d687b39	0.05675814
35	0x3db47f43	0.08813336
36	0xbda686ac	-0.08131155
37	0x3d94b819	0.07261676
38	0x3d53354e	0.051564507
39	0x3d466772	0.048438497
40	0x3d9b62f4	0.07587233
41	0x3c50b7c6	0.0127391275
42	0xbd5f893c	-0.054574236
43	0x3d2fcdfa	0.042921044
44	0x3d271d4f	0.040799435
45	0x3c32c420	0.010911018
46	0xbda8bfad	-0.08239684
47	0xbd9e893d	-0.0774102
48	0xbd4f5999	-0.050622556
49	0xbcd91f52	-0.026504193
50	0x390b1443	0.00013263621
51	0xbd56e948	-0.052468568
52	0xbc98c2fb	-0.018647661
53	0xbd3b3cf2	-0.04571242
54	0x3d58394a	0.05278901
55	0x3d76f747	0.060294416
56	0xbbc23195	-0.005926321
57	0xbd216bed	-0.039409567
58	0x3bfe6de7	0.007764566
59	0xbda4abc1	-0.08040572
60	0xbd4b2113	-0.04959209
61	0x3ae816a5	0.0017706944
62	0xbd29466b	-0.04132692
63	0x3da55bad	0.080741264
64	0x3d889b38	0.066702306
65	0x3cb54e72	0.022132132
66	0xbd2baa1a	-0.04191027
67	0x3d95d714	0.073164135
68	0x3d7bb65d	0.061453212
69	0x3d17fad1	0.03710443
70	0xbae48ab9	-0.0017436362
71	0xbd8d5939	-0.069017835
72	0x3cf39036	0.029731851
73	0x3d8b351b	0.067972384
74	0xbc3c3ec9	-0.0114895785
75	0xbd3826c4	-0.044958845
76	0x3baea427	0.005329627
77	0xbd0ca791	-0.03433949
78	0x3d6c6e19	0.057722185
79	0x3c069063	0.008213135
80	0x3a269a8f	0.00063554285
81	0x3d5399c5	0.051660318
82	0xbd844dde	-0.064601645
83	0xbcf17e47	-0.029479159
84	0xbd87cf1d	-0.066313006
85	0x3b3642cb	0.0027810808
86	0x3daf31de	0.08554433
87	0xbb570624	-0.0032810057
88	0xbd328924	-0.04358782
89	0xbd939d68	-0.07207757
90	0x3d736d27	0.059430268
91	0x3af4137d	0.0018621531
92	0xbd597345	-0.053088445
93	0xbdad4f90	-0.08462441
94	0x3d3e5f80	0.046477795
95	0x3d4ce8b2	0.050026603
96	0xbd7df656	-0.062002502
97	0xbcc2c84f	-0.023777155
98	0xbcb881f5	-0.022522906
99	0x3d2601d6	0.040529095
100	0xbdaf4d3e	-0.08559655
101	0xbd85853d	-0.06519554
102	0x3cdcf6a4	0.026973076
103	0x3cde2565	0.02711744
104	0x3d9784f6	0.07398407
105	0xbd5b4464	-0.05353202
106	0xbd5eaf0f	-0.054366168
107	0x3d866fe4	0.0656431
108	0x3d922095	0.07135121
109	0xbd6c076f	-0.057624277
110	0x3cbcc8f5	0.023045043
111	0xbd9675f6	-0.07346718
112	0xbd9423e5	-0.07233409
113	0x3c463530	0.012097642
114	0x3d6302dd	0.055422653
115	0x3c690bed	0.014224035
116	0x3d41c976	0.04731127
117	0x3db0eb2b	0.08638605
118	0xbd593234	-0.053026393
119	0x3d11a089	0.03555349
120	0xbb23bf3c	-0.002498581
121	0xbd98523d	-0.07437561
122	0x3d8315d7	0.0640065
123	0xbcb3f139	-0.02196561
124	0x39e64614	0.0004392123
125	0x3c27631d	0.010216502
126	0xbd596a2a	-0.05307976
127	0x3c4898ca	0.012243459
128	0xbd061732	-0.032736965
129	0x3db02da4	0.08602455
130	0x3cc0484f	0.02347198
131	0xbd540c7d	-0.051769722
132	0x3d149c8b	0.036282104
133	0xbd0c0620	-0.03418553
134	0xbd534e99	-0.05158863
135	0x3d80ad9e	0.06283115
136	0x3d30c546	0.043156885
137	0x3d2075cd	0.039174844
138	0x3ceee94a	0.029163975
139	0x3ca4b0c7	0.020103825
140	0x3d2fe3d7	0.042941894
141	0x3c3189bb	0.01083606
142	0xbc9f1527	-0.019419266
143	0xbd814258	-0.06311482
144	0xbcf74f72	-0.03018925
145	0xbd75db38	-0.060023516
146	0xbb7700ab	-0.0037689607
147	0xbd080390	-0.033206522
148	0x3b13aa48	0.0022531915
149	0xbd8360d4	-0.06414953
150	0xbd6f424c	-0.058412835
151	0xbc9472ae	-0.01812109
152	0x3d41e937	0.04734155
153	0xbc2405d0	-0.010011151
154	0x3cda5486	0.026651632
155	0xbc0884e2	-0.008332463
156	0xbbb971e9	-0.005659331
157	0x3cfcff28	0.030883387
158	0x3cb39afa	0.021924485
159	0x3d367b0e	0.044550948
160	0x3d8e216b	0.06939968
161	0xbd3a5358	-0.04548964
162	0xbd31f590	-0.043447077
163	0x3d8dd303	0.06925013
164	0xbd1bab28	-0.038005024
165	0x3d887581	0.06663037
166	0x3d3b7ada	0.045771457
167	0xbd8cdc35	-0.06877939
168	0xbc6e38de	-0.014539925
169	0xbd5e6c0f	-0.05430227
170	0x3daea019	0.0852663
171	0x3d1a7b1d	0.037715066
172	0xbce1ee9e	-0.027579602
173	0xbda10abc	-0.078633755
174	0xbcb6f0b8	-0.02233158
175	0x3daf0e14	0.08547607
176	0x384a960a	4.8300288e-05
177	0xbd6dd018	-0.05805978
178	0xbd86c80a	-0.06581123
179	0xbd521597	-0.05129012
180	0x3d93250c	0.071848005
181	0x3d77349f	0.060352918
182	0x3cbfa6b1	0.023394914
183	0xbdafc66a	-0.08582766
184	0x3ce2c6b4	0.02768264
185	0x3d5d4806	0.054023765
186	0xbda53256	-0.080662414
187	0xbd44366c	-0.047903463
188	0xbd901b83	-0.070364974
189	0xbb65e014	-0.0035076188
190	0x3bdf6dc7	0.0068185064
191	0x3d91a4d5	0.07111517
192	0xbd170746	-0.03687217
193	0x3bd870fa	0.0066052647
194	0xbcf4f7cc	-0.029903315
195	0xbd8781d0	-0.06616557
196	0x3cd2dbef	0.025739638
197	0xbda83785	-0.082137145
198	0xbcc78c22	-0.024358813
199	0x3baf6c16	0.005353461
200	0x3ced0c4d	0.02893653
201	0xbd79332c	-0.060839817
202	0xbb9de047	-0.0048179957
203	0x3d98f809	0.07469184
204	0xbd171b9a	-0.036891557
205	0x3ca97d44	0.020689614
206	0xbd9cd6d3	-0.07658162
207	0xbd5cd4ca	-0.05391387
208	0xbc3c450f	-0.011491074
209	0xbc20723e	-0.009792862
210	0x3ac6c6f0	0.0015165489
211	0x3d36e272	0.04464955
212	0x3d93ef93	0.072234295
213	0xbd856d99	-0.06515045
214	0xbd8b7710	-0.06809819
215	0x3d2eea36	0.04270383
216	0xbd71964f	-0.058981236
217	0xbd80c883	-0.062882446
218	0xbd79cf8e	-0.060988955
219	0xbd3d1ed4	-0.046171978
220	0x3d2371c0	0.039903402
221	0x3d793e22	0.06085027
222	0x3c7e339c	0.015515234
223	0x3c1c8dc0	0.00955528
224	0xbcf4084f	-0.029789118
225	0x3d777fc0	0.060424566
226	0xbca67c98	-0.020323083
227	0x3d97f630	0.074200034
228	0xbd3e205e	-0.046417587
229	0x3c1d1064	0.009586427
230	0xbc357dff	-0.011077403
231	0x3b7537b4	0.0037417235
232	0xbcf94e2d	-0.030432785
233	0xbca9c657	-0.020724459
234	0xbd95ea4c	-0.07320079
235	0xbcfdf71c	-0.03100162
236	0xbd0df4c5	-0.03465726
237	0xbb5b5fd5	-0.0033473868
238	0xbd92bb46	-0.07164626
239	0x3bd7cb12	0.006585487
240	0x3da23173	0.07919588
241	0x3d52b49d	0.051441777
242	0xbda3fc8e	-0.08007155
243	0xbd9bf648	-0.07615334
244	0x3d7c7a00	0.061639786
245	0xbdb42592	-0.087962285
246	0xbc89a6ee	-0.016803231
247	0x3d84e7c7	0.064895205
248	0x3d3ccfeb	0.046096724
249	0xbd607174	-0.054795697
250	0xbd07bac0	-0.033137083
251	0xbd986f94	-0.07443157
252	0x3d71540a	0.058918037
253	0xbd80213a	-0.062563375
254	0xbd11e022	-0.03561414
255	0xbb5a1ea1	-0.0033282416

actor.bias f4 [4]
0	0x3d0552d1	0.032549683
1	0xbd427ed6	-0.04748424
2	0xbd4d4df4	-0.05012317
3	0x3d1203b8	0.035648078

critic.weight f4 [1, 128]
0	0xbd86faa7	-0.06590777
1	0x3cb6fe7d	0.022338146
2	0x3d6c641c	0.05771266
3	0xbd17311b	-0.036912065
4	0x3d34a16f	0.044099268
5	0x3d9f9831	0.077927
6	0x3dac10d0	0.08401644
7	0x3cc5ea86	0.024159681
8	0x3d6ea44f	0.058262166
9	0x3d0e2739	0.034705374
10	0x3ca6a0e7	0.020340396
11	0x3db45d78	0.0880689
12	0xbd02c12a	-0.031922497
13	0x3c82aa4e	0.015950348
14	0xbd4bc86d	-0.049751688
15	0xbd355b87	-0.04427674
16	0xbd83ebcc	-0.06441459
17	0x3ce8c1e0	0.02841276
18	0xbd97045a	-0.07373877
19	0x3c104181	0.00880468
20	0x3d25bbd5	0.040462334
21	0xbd9ae56a	-0.075632885
22	0xbd8aec3e	-0.06783341
23	0xbd1fef2e	-0.03904646
24	0xbd51a770	-0.05118507
25	0xbbf77d63	-0.007552789
26	0xbda28c97	-0.07936972
27	0x3d987227	0.07443648
28	0x3db2841a	0.087166026
29	0xbd763c12	-0.06011588
30	0x3d358295	0.044313986
31	0xbca09341	-0.019601466
32	0xbd483853	-0.04888184
33	0x3d446880	0.04795122
34	0xbd566c63	-0.05234946
35	0x3d6c6fee	0.057723932
36	0xbc83c591	-0.016085418
37	0xbdaa99a3	-0.08330085
38	0x3d81c53c	0.063364476
39	0x3d989b20	0.07451463
40	0xbd7b5e84	-0.061369434
41	0x3d138862	0.036018737
42	0x3d940926	0.072283074
43	0x3c78c5a1	0.015183837
44	0xbc9c98c1	-0.019115807
45	0x3d204ccd	0.039135743
46	0x3c90d4af	0.01767954
47	0x3d3ea89f	0.04654753
48	0x3d9a7d02	0.075433746
49	0x3c501e3d	0.012702522
50	0x3bd8001e	0.006591811
51	0xbd1207b6	-0.035651885
52	0xbd94b527	-0.072611146
53	0x3d5c05f7	0.053716626
54	0x3d85dfb8	0.065368116
55	0x3da795ff	0.08182906
56	0x3d5b1911	0.053490702
57	0xbd5fb9a6	-0.054620408
58	0xbd357bb6	-0.044307433
59	0x3d1b73de	0.037952296
60	0xbd6b5b6e	-0.05746024
61	0xbd144a12	-0.03620345
62	0xbd677151	-0.05650455
63	0xbbf3534c	-0.0074257012
64	0xbd77ff0d	-0.06054597
65	0xbd88da6b	-0.06682285
66	0x3d8e92fb	0.06961628
67	0xbd0e5c51	-0.03475601
68	0x3d39a302	0.045321472
69	0xbd43a0fb	-0.047760945
70	0x3ce23781	0.027614357
71	0xbce0fdf3	-0.027464842
72	0xbcc53953	-0.024075186
73	0xbd8f0a27	-0.06984358
74	0xbd090c2f	-0.033458885
75	0xbcb0828e	-0.021546628
76	0x3d87f99b	0.06639405
77	0x3b70f5e7	0.0036767663
78	0xbd1c7565	-0.038197894
79	0x3da3732b	0.07980951
80	0x3d622fe1	0.055221442
81	0x3ccc1621	0.024912896
82	0xbc197af2	-0.009367691
83	0x3d5f67f6	0.054542504
84	0xbd97434c	-0.07385883
85	0xbdab0410	-0.08350384
86	0x3cde3800	0.027126312
87	0xbd2d8569	-0.042363558
88	0x3d3cb438	0.046070307
89	0x3ce722df	0.02821487
90	0x3b86abc2	0.0041098306
91	0xbd0acb08	-0.033885032
92	0xbc8474e8	-0.016169026
93	0xbd908a14	-0.07057586
94	0xbd879d19	-0.06621761
95	0xbd26d0dd	-0.04072653
96	0xbc3655bb	-0.011128838
97	0xbda7233c	-0.08161017
98	0x3d52c5ed	0.051458288
99	0xbce929fa	-0.028462399
100	0x3cc7a1c6	0.024369132
101	0x3d26ff03	0.040770542
102	0xbd8e4df5	-0.06948463
103	0xbdb03c9e	-0.08605312
104	0xbbbbfe7b	-0.0057371235
105	0x3d986d1c	0.07442686
106	0x3cc6a6a2	0.024249379
107	0xbd8ef365	-0.069800176
108	0xbdaa42fd	-0.08313558
109	0xbc01acef	-0.007914766
110	0xbcdb1596	-0.026743691
111	0x3d97bdbd	0.074092366
112	0x3d0dfd7a	0.034665562
113	0x3cc5f88d	0.02416637
114	0x3d044b63	0.032298457
115	0xbcdd0dfa	-0.026984204
116	0x3d9a4fde	0.07534765
117	0xbca9b050	-0.020713955
118	0x3c829f92	0.01594523
119	0xbda61bab	-0.08110746
120	0x3d7f0ac2	0.06226612
121	0xbcf4fe43	-0.029906398
122	0x3d852c61	0.06502605
123	0x3d99f8d7	0.075181656
124	0xbce2993c	-0.027660958
125	0xbd12ace8	-0.035809427
126	0x3c40385e	0.011732189
127	0xbd559837	-0.052147117
