code/models/ppo_uncertainty_checkpoint_400.pt (torch, 75727 bytes, 7 tensors)

encoder.0.weight f4 [128, 5]
0	0x3e3ebcac	0.1862666
1	0x3d848600	0.06470871
2	0xbeab8300	-0.33498383
3	0x3edc19a4	0.42988312
4	0xba8ef462	-0.0010906572
5	0x3e135d98	0.14391172
6	0xbdc51777	-0.09623616
7	0x3ec36b04	0.38167584
8	0xbe209ae4	-0.15684086
9	0xbdec494d	-0.115374185
10	0x3e7ee130	0.2489059
11	0x3ca59a83	0.020215278
12	0x3e9b9f1c	0.30394828
13	0xbe0008c6	-0.12503347
14	0xbe547ab0	-0.20749927
15	0xbd9a96e5	-0.07548312
16	0x3e71e5c1	0.236228
17	0x3de3edbc	0.111293286
18	0x3d9ce8b7	0.07661574
19	0xbda3f46c	-0.08005604
20	0xbeba0d64	-0.3633834
21	0xbe74185b	-0.23837416
22	0x3c4a3654	0.012342054
23	0xbe9c2a0c	-0.3050083
24	0xbe3fb2a6	-0.18720493
25	0xbe921cc6	-0.28537577
26	0x3c9bed89	0.019034164
27	0xbe983dbd	-0.29734603
28	0xbe8ef7fd	-0.27923575
29	0x3e7bd230	0.24591899
30	0xbe853d2b	-0.2602323
31	0xbdd9c68f	-0.10633575
32	0x3e99c85f	0.30035684
33	0xbe4abde9	-0.19799007
34	0x3ed3516e	0.41273063
35	0xbd67ecb1	-0.05662221
36	0xbe8ccdf2	-0.27500874
37	0xbec18764	-0.37798607
38	0xbdcc8189	-0.09985644
39	0x3e71ea8b	0.23624627
40	0x3d302f2b	0.043013733
41	0xbe7b922e	-0.24567482
42	0xbedf449d	-0.43607035
43	0xbeae7d54	-0.34079993
44	0x3e6ac8bd	0.22928138
45	0x3e02c9a2	0.1277223
46	0x3e8edb7b	0.27901825
47	0x3d7c6c52	0.06162674
48	0x3b1e5ad6	0.002416303
49	0xbe93e0cb	-0.2888244
50	0x3edb987e	0.4288978
51	0xbd4dcbfe	-0.05024337
52	0x3edbc56d	0.4292406
53	0x3eb6f07d	0.35730353
54	0xbca7f8d1	-0.020504387
55	0xbe67073f	-0.22561358
56	0x3dcbbc66	0.099480435
57	0x3e44b2e2	0.19208863
58	0xbeb4d849	-0.35321262
59	0xbe10e674	-0.14150411
60	0x3ec9e91d	0.39435664
61	0x3eb960e5	0.36206737
62	0x3e93f2e5	0.2889625
63	0xbeaa6cda	-0.33286172
64	0x3e8e8c3b	0.27841362
65	0x3eb49e2a	0.3527692
66	0xbe6d8c92	-0.23198155
67	0x3de65d79	0.11248297
68	0x3e65ebde	0.22453257
69	0xbdb6a68f	-0.08918487
70	0xbd6cccac	-0.057812378
71	0x3e824893	0.25445995
72	0x3e96c04c	0.29443586
73	0x3e855769	0.2604325
74	0xbdd72b70	-0.10506332
75	0xbedf96c5	-0.43669716
76	0x3eaf81c5	0.34278694
77	0x3ded6a16	0.115925
78	0xbe8e4a55	-0.27791086
79	0xbe57accf	-0.21062015
80	0xbec6ec82	-0.38852316
81	0x3e692d55	0.22771199
82	0x3e220024	0.15820366
83	0xbe2897d1	-0.16464163
84	0xbe87fa9a	-0.2655838
85	0x3deaa9f0	0.11458194
86	0xbedd6049	-0.43237522
87	0xbeb25e40	-0.34837532
88	0xbe4c670a	-0.19961181
89	0xbe81b734	-0.25335085
90	0xbd12ec73	-0.035870027
91	0x3e45128b	0.19245355
92	0x3e52eab5	0.20597346
93	0xbed6e890	-0.41974306
94	0x3e6f8497	0.23390423
95	0xbe899a68	-0.26875615
96	0xbd9a1087	-0.075226836
97	0x3d898a3d	0.0671582
98	0xbe1c7faf	-0.15283082
99	0x3df03cc2	0.11730339
100	0x3cc0b717	0.023524804
101	0xbe49f72f	-0.197232
102	0x3e4ef7a5	0.20211656
103	0x3e150315	0.14551957
104	0x3ec19994	0.37812483
105	0xbe0dbe5e	-0.1384215
106	0x3e89e024	0.26928818
107	0x3eb359ab	0.3502935
108	0xbedcc83f	-0.43121526
109	0x3ed732c6	0.42030925
110	0x3ec4004a	0.3828147
111	0x3dce4c15	0.10073105
112	0x3dd9ff9c	0.10644457
113	0x3e8dc561	0.2768965
114	0xbe6325db	-0.2218241
115	0xbd0561aa	-0.032563843
116	0x3c292a01	0.010324956
117	0x3ed1dfe4	0.40991127
118	0xbe88fb1e	-0.26754087
119	0x3ebfdafd	0.37471762
120	0x3e979d25	0.2961208
121	0xbef024b5	-0.46903005
122	0x3db46150	0.088076234
123	0x3ec1276a	0.37725383
124	0xbd83a2e3	-0.064275526
125	0x3ec353d9	0.38149908
126	0xbe51529c	-0.20441669
127	0x3e569150	0.2095387
128	0x3ea7a348	0.3274176
129	0xbe01cb49	-0.12675203
130	0xbe94adbe	-0.29038805
131	0xbdb83b5f	-0.08995699
132	0xbebd6ba3	-0.36996183
133	0x3ebd4748	0.36968446
134	0xbdd34989	-0.1031676
135	0x3e9c62bd	0.3054408
136	0x3e8ee677	0.27910206
137	0x3d90880b	0.07057198
138	0xbec811f1	-0.39076188
139	0xbd774a7e	-0.060373776
140	0xbe71edeb	-0.23625915
141	0xbe478105	-0.19482811
142	0xbe77e060	-0.24206686
143	0xbd7bedc2	-0.06150604
144	0x3ed5daee	0.41768593
145	0xbe95339f	-0.29140946
146	0x3e41da67	0.1893097
147	0x3ee51b1f	0.44747254
148	0xbd7944b9	-0.060856555
149	0x3e9a2384	0.3010522
150	0x3ec838fd	0.3910598
151	0xbd7dd2a2	-0.061968453
152	0x3e92cd0b	0.2867206
153	0x3dd124c9	0.10212094
154	0xbe9dffe2	-0.30859286
155	0x3ebce024	0.36889756
156	0x3eb74681	0.35795978
157	0xbd664204	-0.0562153
158	0x3ee89ae3	0.4543067
159	0x3da890df	0.08230757
160	0x3ec058aa	0.37567645
161	0x3ec57ad7	0.38570282
162	0x3e0a4752	0.13503769
163	0x3e5819a8	0.21103537
164	0x3dce6987	0.100787215
165	0x3e4469dd	0.19181009
166	0xbe936200	-0.28785706
167	0xbdaf7fea	-0.085693195
168	0x3cec7f7c	0.028869383
169	0xbe39cfa3	-0.18145613
170	0xbeb5918c	-0.35462606
171	0xbeccd7aa	-0.4000829
172	0xbe5f99a7	-0.21835957
173	0xbe85027d	-0.2597846
174	0x3c2d29d3	0.010569054
175	0xbe185ca5	-0.14879091
176	0x3ee2b6ba	0.44280034
177	0xbe28ce6a	-0.1648499
178	0x3c9bb9f6	0.019009572
179	0x3e772fd4	0.24139339
180	0x3ea4b3fa	0.3216856
181	0x3e43a1cb	0.19104688
182	0xbd62a49b	-0.05533276
183	0x3d93c205	0.07214741
184	0x3ec48a06	0.38386554
185	0x3dc594a4	0.096474916
186	0xbd48c8b3	-0.049019527
187	0x3e852064	0.26001275
188	0xbea8c2ef	-0.32961223
189	0x3eaa2c32	0.33236843
190	0xbdcffda0	-0.10155797
191	0xbe0e6ef5	-0.13909514
192	0x3eb2d1b6	0.34925622
193	0x3d37835c	0.04480301
194	0xbc8ebef1	-0.017425032
195	0xbe473ac7	-0.19456016
196	0x3d7361db	0.059419494
197	0xbda0f712	-0.07859625
198	0xbed8d79f	-0.42352006
199	0x3e9ee973	0.31037483
200	0x3ec458c7	0.38348982
201	0xbdf7c115	-0.12097374
202	0x3eb5ffed	0.35546818
203	0x3e694637	0.22780691
204	0xbe881631	-0.2657943
205	0x3e863680	0.26213455
206	0x3e5d8f20	0.21636629
207	0x3b7d920e	0.0038691792
208	0x3d81ca96	0.06337468
209	0xbe87c273	-0.2651554
210	0x3e42bd09	0.19017424
211	0x3df9659c	0.121775836
212	0xbe290fd0	-0.16509938
213	0xbe8fe93f	-0.2810764
214	0x3eddc9d1	0.43318036
215	0x3ebbc6ca	0.36675102
216	0x3e1441c0	0.14478207
217	0x3e91960b	0.28434786
218	0xbd3669cd	-0.044534493
219	0xbec0743c	-0.3758868
220	0xbea99bbb	-0.33126625
221	0xbec90ced	-0.39267674
222	0x3e4ad73d	0.1980867
223	0x3e1a63a1	0.15077068
224	0xbe85300c	-0.2601322
225	0x3ea26c92	0.31723458
226	0x3e284bb3	0.16435127
227	0xbee8f40c	-0.45498693
228	0x3c746978	0.014917724
229	0x3e98fc1e	0.2987985
230	0x3e578a07	0.21048747
231	0xbea059e9	-0.31318596
232	0x3e7fc2eb	0.24976699
233	0xbec07c2c	-0.37594736
234	0x3e9b9878	0.30389762
235	0xbe4226e7	-0.18960153
236	0x3de3e49e	0.1112759
237	0x3e8ba435	0.27273718
238	0xbdd3f8f0	-0.103502154
239	0xbd8a23eb	-0.06745132
240	0xbecb6376	-0.3972432
241	0xbe81e0be	-0.25366777
242	0x3deb0023	0.114746355
243	0x3e39f079	0.1815814
244	0xbe291790	-0.16512895
245	0x3ee171c3	0.44032106
246	0x3eb50480	0.35354996
247	0x3e5d21f1	0.21594979
248	0x3eb68f5d	0.35656253
249	0x3df395e6	0.11893825
250	0x3e4ce3ce	0.20008776
251	0x3ccc1e45	0.024916777
252	0x3eb458fc	0.3522414
253	0x3eb95fa2	0.36205775
254	0x3ed85ee7	0.42259905
255	0x3c0325aa	0.008004585

encoder.0.bias f4 [128]
0	0xbe7c7e8b	-0.24657647
1	0x3ea90cff	0.33017728
2	0x3e35eba7	0.17765675
3	0x3d950282	0.07275869
4	0xbe9bf0ec	-0.30457246
5	0xbe342f7c	-0.17596239
6	0xbe75bc6b	-0.23997657
7	0x3e9abe0e	0.30223125
8	0xbe96a58e	-0.29423183
9	0xbe600491	-0.21876742
10	0x3e00eb9c	0.12589878
11	0xbd02ca74	-0.031931356
12	0xbcdfe59c	-0.027331166
13	0x3e06e2b1	0.13172413
14	0xbe21f85c	-0.15817398
15	0xbe4371b0	-0.19086337
16	0x3ddb4cd0	0.1070801
17	0xbdbe1666	-0.09281616
18	0x3eb12b35	0.34603277
19	0x3d90bddf	0.07067465
20	0xbe8cbff4	-0.274902
21	0x3e809d3f	0.2511997
22	0x3ed13926	0.40863913
23	0xbbbaf75f	-0.0057057585
24	0x3ed8ff3d	0.4238223
25	0x3ed09ef4	0.40746272
26	0xbd77c1fc	-0.060487732
27	0xbe1ba12a	-0.15198198
28	0xbe3ac3e7	-0.18238793
29	0xbe60cd1f	-0.21953247
30	0x3e18df7d	0.14929004
31	0xbdad1876	-0.08451931
32	0x3ed09278	0.40736747
33	0xbeb95ff3	-0.36206016
34	0xbdd3aa49	-0.10335214
35	0x3d0b076a	0.033942617
36	0xbe5279b3	-0.20554237
37	0x3d7cc2f5	0.061709363
38	0xbe6c6f91	-0.23089434
39	0x3eadd9d6	0.33955258
40	0x3c4c7d55	0.012481053
41	0xbda1ddd0	-0.079036355
42	0x3e331051	0.17486693
43	0x3eb8a8d3	0.36066303
44	0xbe372984	-0.1788693
45	0xbe9ed24f	-0.31019828
46	0x3e699b1b	0.22813074
47	0xbee810a5	-0.453252
48	0x3e41cec1	0.18926527
49	0xbea8ea88	-0.32991433
50	0x3ea37585	0.31925598
51	0x3dc096ac	0.094037384
52	0x3eb74e26	0.3580181
53	0x3ddc21c9	0.107486315
54	0x3d6a1106	0.05714514
55	0x3e01e899	0.12686385
56	0x3e9b3180	0.30311203
57	0xbe13b3be	-0.14424035
58	0x3e91193a	0.2833956
59	0xbe34f4d1	-0.17671515
60	0x3e12c0ad	0.14331312
61	0xbe41f8a4	-0.18942505
62	0xbdd0530a	-0.101720884
63	0x3ecd0733	0.40044555
64	0x3ec1bbc2	0.3783856
65	0xbe708e1a	-0.23491707
66	0xbe979b98	-0.29610896
67	0x3ea176d9	0.31535986
68	0xbdd3efc9	-0.1034847
69	0x3ddbca0d	0.107318975
70	0x3e8b1509	0.27164486
71	0x3eb23eb8	0.34813476
72	0x3e542b46	0.20719633
73	0xbe673cd8	-0.22581804
74	0x3eb7c578	0.35892844
75	0xbeb92677	-0.3616216
76	0x3e6c9195	0.2310241
77	0x3eba5ceb	0.36399016
78	0x3e1ffbbc	0.15623373
79	0xbde414eb	-0.11136802
80	0x3e7bc70e	0.24587652
81	0x3edc43e1	0.43020537
82	0x3c1d4b2f	0.009600445
83	0x3e2c1fd0	0.1680901
84	0xbe6da18c	-0.23206156
85	0x3ea0d8a4	0.31415284
86	0xbd319fcc	-0.043365285
87	0xbd054f49	-0.032546315
88	0xbeb64a2c	-0.35603464
89	0xbdf0ca52	-0.117573395
90	0x3e61840d	0.2202303
91	0x3ec4e8af	0.38458773
92	0xbec14963	-0.37751302
93	0x3e3ba222	0.18323568
94	0x3e99cc01	0.30038455
95	0x3ea6cf53	0.3258005
96	0x3e56cade	0.20975825
97	0xbe9d7b64	-0.30758202
98	0xbd8ad39b	-0.06778642
99	0xbecb396b	-0.39692244
100	0xbd4c2638	-0.049841136
101	0x3c152837	0.009103826
102	0xbeafb7eb	-0.34320006
103	0x3d07e756	0.033179604
104	0xbbc3f082	-0.0059795985
105	0xbe311705	-0.17293938
106	0x3ecb528f	0.39711425
107	0x3e954eaf	0.29161593
108	0x3e66ef9d	0.22552343
109	0x3edd67cb	0.4324325
110	0xbd9ab481	-0.0755396
111	0xbec2c5c3	-0.38041505
112	0x3e8e87fe	0.2783813
113	0xbe1b9ddb	-0.15196936
114	0xbe91b332	-0.28457028
115	0x3e0103b3	0.12599067
116	0xbad393ae	-0.0016142034
117	0xbeb6da96	-0.35713643
118	0x3e90c338	0.2827394
119	0x3ea28615	0.3174292
120	0x3dedfe73	0.11620798
121	0xbed3904e	-0.41321033
122	0x3eaf0ce6	0.34189528
123	0x3ea90b4b	0.33016428
124	0x3dcbdf92	0.09954752
125	0x3dc66ee1	0.09689117
126	0x3cb2167f	0.021739243
127	0xbebdc789	-0.37066296

encoder.2.weight f4 [128, 128]
0	0x3d461a14	0.048364714
1	0xbd299367	-0.04140034
2	0x3c2f8e64	0.010715101
3	0xbdb074b3	-0.086160086
4	0xbbf5895e	-0.007493182
5	0x3cef91ee	0.02924439
6	0xbc3989cc	-0.011324357
7	0xbd7e4bee	-0.06208413
8	0xbd6b594f	-0.05745822
9	0xbcdfaa9e	-0.027303036
10	0xbda0f1af	-0.078585975
11	0x3cdaa86c	0.026691638
12	0x3d89a0ea	0.06720145
13	0xbd18277f	-0.03714704
14	0xbd471252	-0.048601456
15	0x3d508f6d	0.05091803
16	0x3d76bd39	0.06023905
17	0x3d4cc4dd	0.04999243
18	0x3da08172	0.0783719
19	0xbd858089	-0.06518657
20	0x3d6cbca7	0.0577971
21	0x3d24b00f	0.040206965
22	0xbd5bdfe1	-0.053680304
23	0x3d85654f	0.06513464
24	0x3c9b74ad	0.018976534
25	0xbd2a4dc2	-0.041578062
26	0xbdb082de	-0.08618711
27	0x3d1af5f3	0.03783221
28	0xbda1e4e0	-0.079049826
29	0x3d1bfea2	0.038084634
30	0xbd6fa522	-0.058507092
31	0xbc4c16a5	-0.012456571
32	0x3d0002fc	0.031252846
33	0xbbf23dcb	-0.00739262
34	0xbdb03992	-0.08604731
35	0x3daeb13d	0.08529899
36	0xbcc262e1	-0.02372879
37	0xbd63ed66	-0.055646323
38	0xbd9c68be	-0.076371655
39	0xbd783942	-0.06060148
40	0x3da363eb	0.07978042
41	0x3c312265	0.010811423
42	0xbda8b33a	-0.0823731
43	0x3d9d4b8a	0.076804236
44	0xbdaa5a40	-0.08317995
45	0x3d9308ef	0.07179438
46	0xbcc417ad	-0.02393707
47	0x3cfe55e7	0.03104682
48	0x3d8e6117	0.06952112
49	0x3d26d5a1	0.040731076
50	0xbd5128e6	-0.051064394
51	0xbda4eda9	-0.080531426
52	0xbd963374	-0.07334033
53	0xbcc5ed64	-0.024161048
54	0x3d6b1d3a	0.05740092
55	0x3d92d8bd	0.07170246
56	0xbbd489f8	-0.0064861737
57	0x3d1155cf	0.035482224
58	0xbd922191	-0.071353085
59	0xbd6ba44c	-0.057529733
60	0xbd824707	-0.06361204
61	0xbda785c2	-0.08179809
62	0x3b847797	0.0040425765
63	0xbd8988fd	-0.067155816
64	0x3d97e7fd	0.07417295
65	0xbcb091c2	-0.021553878
66	0xbcded26a	-0.027199943
67	0x3d526fe9	0.051376257
68	0x3d8bb3b4	0.06821385
69	0x3b63c681	0.0034755769
70	0xbca2610a	-0.019821662
71	0xbbd66f4a	-0.0065440284
72	0xbd35794b	-0.044305127
73	0xbcd22e1a	-0.025656749
74	0xbd8a49b7	-0.06752341
75	0x3d998aa1	0.074971445
76	0xbd751687	-0.059835937
77	0xbd991cd5	-0.074762024
78	0x3d86f208	0.065891325
79	0xbc9f6007	-0.01945497
80	0xbd65039b	-0.05591164
81	0x3cf58556	0.029970806
82	0x3d810824	0.06300381
83	0x3d929053	0.07156434
84	0x3d72518c	0.0591598
85	0xbd85e701	-0.06538201
86	0x3d81f1f9	0.06344981
87	0x3d0eba36	0.034845553
88	0x3da199e0	0.078906775
89	0x3d6312a6	0.055437706
90	0x3a667977	0.00087919034
91	0x3c8167cc	0.015796565
92	0xbc36cc57	-0.011157117
93	0x3cff92e7	0.031197978
94	0x3cab9bcf	0.020948319
95	0xbca3cb12	-0.019994292
96	0xbd485bd6	-0.048915707
97	0x3d8bd9af	0.06828629
98	0xbce7cf1b	-0.028296998
99	0x3d6fde72	0.05856175
100	0x3d10c8a9	0.035347614
101	0xbbf5cc67	-0.0075011733
102	0x3d6a57db	0.05721269
103	0x3d446557	0.047948208
104	0x3d14ae59	0.036299083
105	0xbdaeef4c	-0.08541736
106	0xbd0f18d4	-0.034935787
107	0xbd8f4814	-0.0699617
108	0xbd67c038	-0.0565798
109	0x3b667273	0.0035163432
110	0xbcffb54f	-0.031214384
111	0xbdaf3151	-0.08554328
112	0xbd38805e	-0.045044295
113	0x3bb47446	0.005507025
114	0x3bd6f239	0.006559637
115	0x3d8cd56e	0.06876646
116	0xbbe06d34	-0.0068489555
117	0x3cd9897e	0.02655482
118	0xbd2eb005	-0.042648334
119	0xbd0eac52	-0.034832306
120	0x3b85147d	0.0040612803
121	0x3d369aed	0.044581342
122	0x3d86c2e9	0.06580145
123	0xbd8e183b	-0.06938215
124	0x3cff13da	0.031137396
125	0xbd7a7c21	-0.061153535
126	0xbd8a70c0	-0.067597866
127	0x3d4d7299	0.050158117
128	0x3c6217f8	0.01379966
129	0x3c268cc0	0.010165393
130	0x3daaa13f	0.083315365
131	0x3d8b9e8a	0.06817348
132	0xbd09334c	-0.033496186
133	0x3c7e8ecd	0.015536976
134	0xbda7c319	-0.08191509
135	0x3d8ffaeb	0.07030281
136	0xbd763de2	-0.06011761
137	0x3d525154	0.05134709
138	0xbcc5e06a	-0.02415486
139	0xbc9feea9	-0.019522982
140	0x3d7ca11f	0.061677095
141	0x3db12329	0.086492844
142	0x3d5fa6b5	0.054602344
143	0xbd83b0a0	-0.06430173
144	0x3c924db0	0.01785931
145	0xbd43b28f	-0.04777771
146	0x3db0462d	0.08607135
147	0x3d6fae27	0.058515694
148	0x3d95f9f7	0.07323068
149	0xbd24c52f	-0.04022711
150	0x3d84536c	0.06461224
151	0x3cf0314a	0.029320378
152	0xbdb1d069	-0.08682329
153	0x3d830d7a	0.06399055
154	0xbd7cbefa	-0.061705567
155	0x3d8b25ff	0.067943566
156	0x3d9aa1fe	0.07550429
157	0xbd86ecc7	-0.065881304
158	0x3d5e42b9	0.05426285
159	0x3c10dc9d	0.008841661
160	0xbcad9ce4	-0.021192975
161	0xbd4f8aa1	-0.050669316
162	0x3db1db24	0.08684376
163	0xbdac5941	-0.08415461
164	0xbd37fecb	-0.044920724
165	0xbdb2877b	-0.08717247
166	0x3dc41dd3	0.09576001
167	0xbdbd1df4	-0.09234229
168	0x3d967ed9	0.07348413
169	0xbd1a743b	-0.037708502
170	0x3d8dd0bb	0.06924578
171	0x3d155ee5	0.03646745
172	0xbd04f6c0	-0.03246188
173	0x3cd63173	0.026146626
174	0x3d9a9cc6	0.075494334
175	0xbaa35e63	-0.0012464043
176	0x3d9e50ae	0.07730232
177	0x3bf8e082	0.007595123
178	0xbccfebc2	-0.025380973
179	0x3d6ede7e	0.058317654
180	0xbd9d8190	-0.07690728
181	0xbbe28e28	-0.006913919
182	0x3d88e7c1	0.066848285
183	0xbda9d56e	-0.082926616
184	0x3d93df82	0.07220365
185	0x3db44324	0.088018686
186	0xbdb1be6d	-0.08678899
187	0xbd45ad42	-0.048260935
188	0xbaa08a96	-0.0012248333
189	0x3d010650	0.03150016
190	0xbc4347cb	-0.011918972
191	0x3c898d61	0.016791048
192	0xbc566267	-0.013084984
193	0x3d74966f	0.059713777
194	0x3d9ed456	0.077553436
195	0xbd7c0f43	-0.061537992
196	0x3c0a78da	0.008451665
197	0x3d8c3bf1	0.068473704
198	0xbd499762	-0.049216636
199	0xbc81085d	-0.015751058
200	0x3c514df1	0.01277493
201	0x3c893a3c	0.016751401
202	0xbd52394d	-0.051324178
203	0xbc3da585	-0.011575107
204	0x3d2ec8d2	0.042671986
205	0x3c72f594	0.014829058
206	0xbcdb87f3	-0.026798224
207	0xbd7e3646	-0.062063478
208	0xba439d64	-0.00074621127
209	0xbd929933	-0.07158127
210	0xbda9dd08	-0.082941115
211	0xbb02b52d	-0.0019944415
212	0x3bcce917	0.0062533724
213	0x3d40d47c	0.04707764
214	0xbc11027b	-0.008850689
215	0x3cba531c	0.022744708
216	0xbd299d67	-0.041409876
217	0xbce862e7	-0.028367473
218	0x3d09e451	0.033665005
219	0x3d7ca505	0.061680812
220	0x3c55fdd4	0.013061006
221	0xbd862e7a	-0.065518335
222	0xbd0123ff	-0.03152847
223	0xbd87fe8f	-0.0664035
224	0x3cfa3b1a	0.03054576
225	0xbc4fb26b	-0.0126768155
226	0xbd86e330	-0.06586301
227	0x3d9ff14a	0.07809694
228	0xbda9ad18	-0.08284968
229	0xbce3d892	-0.02781323
230	0xbbc0f562	-0.005888627
231	0x3daab8df	0.083360426
232	0x3d7f7877	0.062370744
233	0x3d77aaaa	0.060465492
234	0x3da32501	0.07966042
235	0x3dade56d	0.08491025
236	0x3d7e0bf3	0.062023114
237	0xbd259546	-0.04042556
238	0xbd02bf8a	-0.031920947
239	0xbd303693	-0.043020796
240	0xbbe87707	-0.0070942673
241	0x3c80dac5	0.015729317
242	0x3d5ec67a	0.0543885
243	0x3d7004c2	0.058598287
244	0x3bb13d18	0.0054088943
245	0xbd7273f6	-0.05919262
246	0xbbad37bb	-0.0052861846
247	0x3cef317b	0.029198399
248	0x3dafa402	0.08576204
249	0x3cc86b70	0.024465293
250	0xbbc49fc8	-0.0060004927
251	0xbdb53a60	-0.08849025
252	0xbdae94de	-0.08524488
253	0x3dbac71f	0.091200106
254	0xbd4a7cb1	-0.04943532
255	0xbcc02367	-0.023454381

encoder.2.bias f4 [128]
0	0x3dafce26	0.085842416
1	0xbdb37ac5	-0.08763651
2	0x3d59988a	0.05312399
3	0x3c3338aa	0.010938803
4	0xbd9eab1a	-0.07747479
5	0xbd86fd74	-0.06591311
6	0xbd859d91	-0.06524194
7	0x3c9c0be8	0.019048646
8	0xbdb44f3f	-0.088041775
9	0xbd1457a0	-0.03621638
10	0x3da1ebfb	0.07906338
11	0xbb1119be	-0.0022140588
12	0xbd9dc356	-0.07703273
13	0xbd558911	-0.05213267
14	0x3c0979c7	0.00839085
15	0x3d33a9f6	0.04386326
16	0xbcdb8722	-0.026797835
17	0xbd1ec5b0	-0.03876275
18	0xbd1cedc8	-0.038312703
19	0x3c9d2a5a	0.019185234
20	0xbcdcb849	-0.026943343
21	0xbda7b19d	-0.08188174
22	0x3d0ff846	0.03514888
23	0xbc90611c	-0.01762443
24	0x3d2c2895	0.04203089
25	0xbd4c3eb8	-0.0498645
26	0x3da0bfdb	0.078490935
27	0xbd8248ab	-0.063615166
28	0xbd8e8f24	-0.06960896
29	0x3dcdd014	0.100494534
30	0x3d77a497	0.0604597
31	0xbba0358a	-0.004889195
32	0x3d3d2061	0.046173457
33	0x3dc7bf0a	0.09753235
34	0x3d3fc23e	0.046816103
35	0x3d23dd04	0.0400057
36	0xbc94c580	-0.018160582
37	0xbdb14f0d	-0.08657656
38	0x3da2e679	0.079541154
39	0x3d83f1c0	0.064425945
40	0xbd78c232	-0.060732074
41	0x3d76a26d	0.060213495
42	0x3d4414c5	0.04787137
43	0x3d27023b	0.04077361
44	0xbb062ad9	-0.0020472317
45	0x3cedc8a8	0.029026344
46	0x3d74af7c	0.059737667
47	0x3cae5719	0.021281766
48	0x3c0456c9	0.008077332
49	0x3d4865a6	0.048925065
50	0xbd1a1a85	-0.037622947
51	0x3d85816b	0.06518825
52	0x3d4a91b5	0.049455363
53	0x3ce2b69e	0.02767497
54	0xbd68cc79	-0.056835625
55	0x3ce88ff1	0.02838895
56	0x3d01aeb1	0.03166074
57	0x3dcc3bfa	0.09972377
58	0x3d835ef3	0.064145945
59	0xbcba0588	-0.022707716
60	0x3d71b0c4	0.059006467
61	0x3cea1a69	0.028577046
62	0xbd563c72	-0.05230374
63	0xbdd84073	-0.10559168
64	0x3d470a77	0.048593964
65	0xbbcf34c3	-0.0063234284
66	0x3d1b5a61	0.03792799
67	0xbbb7eee2	-0.005613194
68	0xbcbc5298	-0.022988603
69	0x3d3920f3	0.04519744
70	0x3aedc303	0.0018139783
71	0x3c278280	0.010223985
72	0xba6e640a	-0.00090938865
73	0xbce89dfd	-0.028395647
74	0xbd6e3428	-0.05815521
75	0xbc834e3e	-0.01602852
76	0x3d114f39	0.035475943
77	0x3d49228c	0.049105212
78	0x3b5ee08b	0.003400835
79	0x3ccecb59	0.025243448
80	0x3c6dae27	0.014506853
81	0x3d9bb876	0.076035425
82	0x3bf13950	0.0073615685
83	0x3da5431d	0.080694415
84	0x3d593351	0.053027455
85	0xbd86ab58	-0.0657565
86	0x3d9a91c8	0.07547337
87	0x3c8c6de8	0.017142251
88	0x3d7a0edf	0.06104934
89	0xbdd4cac7	-0.10390239
90	0x3d21805e	0.03942906
91	0x3d4bc900	0.049752235
92	0xbd25622d	-0.04037683
93	0xbbf0c830	-0.007348083
94	0xbd24094a	-0.04004792
95	0x3d730bad	0.059337307
96	0x3b6adc3a	0.0035836832
97	0xbda342bc	-0.07971713
98	0x3ce38a16	0.027775805
99	0xbd77e79e	-0.06052362
100	0xbcb59134	-0.022163965
101	0xbd121ecf	-0.035673913
102	0xbd7f5092	-0.062332697
103	0x3c4c6f4e	0.012477709
104	0xbd2ccc39	-0.04218695
105	0xbd2d6b83	-0.04233886
106	0x3b4d8e55	0.0031365354
107	0xbc22892e	-0.0099204015
108	0xbda540bf	-0.0806899
109	0xbbb3fb3b	-0.0054925955
110	0x3d800e93	0.0625278
111	0xbd96bf36	-0.07360689
112	0x3ddb7ea8	0.10717517
113	0xbdaeca3f	-0.08534669
114	0xbadac0cd	-0.0016689539
115	0x3d966768	0.07343942
116	0x3c857e38	0.016295537
117	0xbb4ebd87	-0.0031546073
118	0x3da00779	0.07813925
119	0x3d812ee7	0.06307774
120	0xbdd607be	-0.104506955
121	0x3d124944	0.035714403
122	0xbcd5541f	-0.026041089
123	0xbd0e80b9	-0.03479073
124	0x3d0787c6	0.033088468
125	0xbdac58a4	-0.08415344
126	0x3d92b305	0.071630515
127	0x3d9d2128	0.0767234

actor.weight f4 [4, 128]
0	0xbcf42505	-0.029802809
1	0x3db590a0	0.08865476
2	0x3db49e9a	0.08819313
3	0x3ba73806	0.005103114
4	0x3c4ff35f	0.0126923015
5	0xbd0ec919	-0.03485975
6	0x3da6e1df	0.0814855
7	0xbc5932bf	-0.013256728
8	0xbd391474	-0.04518552
9	0xbd2443ed	-0.04010384
10	0xbdb0a924	-0.08626011
11	0xbda3ab8b	-0.079917036
12	0x3c6c7ff1	0.0144348005
13	0xbd4d5116	-0.050126158
14	0xbb4ae2c4	-0.0030957917
15	0x3d343d21	0.04400361
16	0x3cb1a1ce	0.0216836
17	0x3c7b09ec	0.01532219
18	0x3d2b6ad4	0.041849926
19	0xbd811ad9	-0.06303949
20	0xbd588654	-0.05286248
21	0x3c810b83	0.01575256
22	0x3cc7f20a	0.024407405
23	0x3da409a6	0.08009653
24	0xbd5b9024	-0.05360426
25	0xbd015c74	-0.03158231
26	0x3c6ed82f	0.014577909
27	0x3d419203	0.04725839
28	0x3d8cf7b8	0.06883186
29	0x3d994f37	0.07485812
30	0xbc7851cb	-0.01515622
31	0x3dad5407	0.084632926
32	0x39784021	0.00023675013
33	0xbd7629a4	-0.060098305
34	0xbd2f6c4f	-0.0428279
35	0xbc11cbcd	-0.008898688
36	0xbd2e0db4	-0.042493537
37	0xbd6c68d0	-0.057717144
38	0xbb490cb6	-0.0030677742
39	0x3caef883	0.021358734
40	0x3d207fa9	0.039184246
41	0x3d1b5baa	0.037929215
42	0x3daa36cb	0.08311232
43	0x3d616c00	0.055034637
44	0x3d14728c	0.036242053
45	0x3c853871	0.016262265
46	0x3d02c5ef	0.031927045
47	0x3d8b2414	0.06793991
48	0x3cfe5faa	0.031051476
49	0xbc5a13c5	-0.0133103775
50	0x3db5e685	0.08881859
51	0xbd86285d	-0.065506674
52	0xbd245085	-0.040115852
53	0x3d94211d	0.07232878
54	0x3daad6c3	0.08341744
55	0x3cd3b5ca	0.02584352
56	0xbc4c89c6	-0.01248402
57	0xbbd0499b	-0.0063564307
58	0xbd9d5874	-0.07682887
59	0x3ce39983	0.027783161
60	0xbbe62fba	-0.0070247324
61	0xbd952642	-0.07282688
62	0xbd868d9f	-0.06569981
63	0x3c3f2a34	0.011667777
64	0x3d284bb4	0.04108782
65	0xbd97fd5d	-0.07421372
66	0x3bfa9685	0.007647338
67	0x3ce3a417	0.027788205
68	0xbcf1ba48	-0.029507771
69	0x3d994886	0.07484536
70	0x3d702457	0.058628406
71	0xbd087694	-0.03331621
72	0xbd088845	-0.03333308
73	0x3d7a0ec6	0.061049245
74	0x3db06060	0.08612132
75	0x3d9ef312	0.07761206
76	0xbd246ded	-0.040143896
77	0xbda6f4fe	-0.08152197
78	0xbd1ea733	-0.038733672
79	0xbbd1e468	-0.006405402
80	0xbce65462	-0.028116409
81	0x3d9a7d7d	0.07543466
82	0x3be2ba98	0.0069192164
83	0xba9956ae	-0.0011698806
84	0x3c3fe087	0.011711246
85	0xbcb7acaf	-0.02242121
86	0x3d29d81e	0.04146587
87	0xbcf7b39a	-0.030237008
88	0x3d921c7c	0.07134339
89	0x3d9d1a40	0.076710224
90	0xbd60c552	-0.05487568
91	0xbd4631ba	-0.048387267
92	0xbd9a0492	-0.07520403
93	0x3d2c1ca3	0.042019498
94	0x3c96c0f6	0.018402558
95	0xbc5696b3	-0.013097453
96	0x3d789514	0.060689047
97	0x3d5cd7fe	0.053916924
98	0x3baaed29	0.00521626
99	0x3d8ed2b0	0.06973779
100	0xbd72431f	-0.059146043
101	0xbd747abc	-0.05968736
102	0xbd38964f	-0.04506522
103	0xbc9c121d	-0.019051606
104	0xbd849b0e	-0.06474887
105	0x3d9d9610	0.07694638
106	0xbce69de0	-0.028151453
107	0xbc4d7548	-0.012540169
108	0xbd911c4b	-0.070854746
109	0xbda67313	-0.081274174
110	0xbdaf1c8c	-0.08550367
111	0xbcb82f0c	-0.022483371
112	0xbc540833	-0.012941408
113	0xbcd127b1	-0.025531622
114	0x3d40fb85	0.047114868
115	0x3da6dfcc	0.081481546
116	0xbd0bc2cb	-0.034121316
117	0xb990b6bd	-0.0002760197
118	0xbd040d65	-0.032239337
119	0x3d8c172d	0.06840358
120	0x3c88a014	0.016677894
121	0xbcb24291	-0.021760257
122	0xbccc8ffb	-0.024970999
123	0xbc9858ce	-0.018597033
124	0xbdae8067	-0.085205846
125	0x3d5d7e79	0.05407569
126	0x3d94e75f	0.07270693
127	0xbd173ca9	-0.036923084
128	0xbd09be78	-0.03362891
129	0x3d7e8aa7	0.062143948
130	0xbd0cf741	-0.034415487
131	0xbdb77e2c	-0.08959612
132	0xbd8b7d68	-0.06811029
133	0x3c260924	0.010134015
134	0xbd2a85de	-0.041631572
135	0x3cd9bd08	0.026579395
136	0x3d16b92e	0.036797695
137	0xbce671ed	-0.028130496
138	0xbd887487	-0.06662851
139	0xbd252404	-0.04031755
140	0x3dad88bb	0.08473345
141	0x3d036711	0.032080714
142	0x3d1219fa	0.035669304
143	0x3d6c25fc	0.057653412
144	0x3d9260dc	0.07147381
145	0x3d4999f9	0.049219105
146	0x3c12e945	0.008966749
147	0xbda9eae7	-0.08296757
148	0x3d13d9e5	0.036096472
149	0x3d2db4ae	0.042408638
150	0x3c4f1560	0.012639374
151	0x3a238426	0.0006237648
152	0x3d83ec78	0.06441587
153	0x3c8ec684	0.017428644
154	0xbc74e61e	-0.014947442
155	0x3cd61592	0.026133332
156	0xbd4e6564	-0.050389662
157	0xbd05335e	-0.03251969
158	0xbc28adbb	-0.010295327
159	0x3d435f7e	0.04769849
160	0x3c933c10	0.017972976
161	0xbdaf71e0	-0.08566642
162	0xbd5ba0ba	-0.053620078
163	0xbc3a4e04	-0.011371139
164	0x3d1daeb4	0.038496688
165	0x3d2896b1	0.041159336
166	0x3db4b676	0.08823864
167	0xbd70d00a	-0.05879215
168	0xbdb97c46	-0.090569064
169	0xbd861079	-0.06546111
170	0x3cb5d9a0	0.022198498
171	0xba8c686b	-0.0010712271
172	0x3d2db680	0.042410374
173	0x3d66146f	0.05617183
174	0xbcbda62f	-0.023150532
175	0xbd325d06	-0.043545745
176	0xbda18205	-0.078861274
177	0xbd660da9	-0.05616537
178	0xbcd64200	-0.026154518
179	0x3d587ea7	0.05285516
180	0x3daf4b8b	0.085593306
181	0x3a55e967	0.0008160085
182	0xbcb43e24	-0.022002287
183	0xbcd5f2b4	-0.026116706
184	0x3d7e1d4b	0.062039655
185	0xbda9e703	-0.08296015
186	0x3d974e3c	0.07387969
187	0xbc4064bb	-0.011742766
188	0x3b200173	0.0024414926
189	0x3d8dbd42	0.06920864
190	0x3d845465	0.064614095
191	0xbdac14de	-0.084024176
192	0x3d9ec9a3	0.07753303
193	0xbc4598b3	-0.012060332
194	0x3d958815	0.07301346
195	0xbdad1eff	-0.08453178
196	0x3daa6704	0.0832043
197	0xbc6f3d91	-0.014602081
198	0x3d95e54b	0.07319125
199	0xbd4bec22	-0.04978574
200	0x3cec42f9	0.028840529
201	0x3c81e710	0.01585725
202	0xbadb1a18	-0.001671615
203	0x3c35eda2	0.011104019
204	0xbd34d4f9	-0.04414842
205	0xbd2b05c7	-0.041753557
206	0x3d8c1097	0.06839102
207	0xbd8ffa34	-0.07030144
208	0xbdad1ba4	-0.08452538
209	0x3d3aa04b	0.045563024
210	0xbcfdca0d	-0.030980134
211	0x3d44572c	0.047934696
212	0x3d1b3cd7	0.03789982
213	0x3d5e6393	0.05429418
214	0x3bc72938	0.0060779117
215	0xbd27fafc	-0.04101084
216	0x3d316eac	0.043318436
217	0x3d1a0a27	0.03760734
218	0xbd4666c2	-0.04843784
219	0x3bf2910e	0.007402546
220	0xbdb21133	-0.08694687
221	0xbc8e4763	-0.017368024
222	0xbcf03c4d	-0.029325629
223	0x3da13d00	0.07872963
224	0xbd1e0ad9	-0.038584564
225	0xbcaa2621	-0.020770134
226	0x3c95b419	0.018274354
227	0xbcf013c8	-0.029306307
228	0x3d8c1557	0.06840008
229	0xbc606a14	-0.013697166
230	0x3db707f3	0.08937063
231	0x3d81e966	0.06343345
232	0xbc8ba5da	-0.017046858
233	0x3d9fa062	0.077942625
234	0xbd3bd369	-0.045855913
235	0xbd966090	-0.073426366
236	0x3d8042c6	0.06262736
237	0x3cc0304c	0.02346053
238	0xbcfb648a	-0.03068759
239	0x3cac7599	0.021052169
240	0xbc92477d	-0.017856354
241	0xbd811afb	-0.06303974
242	0xbd416e3b	-0.047224265
243	0x3da668ad	0.08125434
244	0x3d0b0305	0.033938427
245	0x3d220444	0.03955485
246	0xbbbf9d3c	-0.005847601
247	0x3accdab7	0.0015629147
248	0x3d9394fc	0.07206151
249	0x3d9be5ce	0.07612191
250	0x3d8107f7	0.06300347
251	0x3d719b20	0.05898583
252	0x3cff934f	0.031198172
253	0xbc86e395	-0.016465941
254	0xbce06744	-0.02739299
255	0x3bacf148	0.0052777864

actor.bias f4 [4]
0	0x3d387b92	0.04503972
1	0xbc8a13e0	-0.01685518
2	0xbd70f8b1	-0.05883092
3	0xbce2b716	-0.027675193

critic.weight f4 [1, 128]
0	0x3d863347	0.06552749
1	0xbd8d4fa6	-0.06899957
2	0x3d6219e5	0.055200476
3	0x3d87e32f	0.06635129
4	0xbcfd86f2	-0.030948136
5	0xbd82359b	-0.06357881
6	0xbd959873	-0.07304468
7	0xbd418ede	-0.04725539
8	0xb80c45fe	-3.3443786e-05
9	0xbda36e7d	-0.07980058
10	0xbd265672	-0.040609784
11	0xbd8264b1	-0.063668616
12	0xbd9c7143	-0.076387905
13	0xbc938bb5	-0.018010953
14	0x3d99526a	0.07486422
15	0xbd2366d5	-0.03989299
16	0x3d17611c	0.036957845
17	0x3d2a10c4	0.041519895
18	0xbd437ffe	-0.047729485
19	0x3d8c3c4f	0.068474405
20	0xbcc83f63	-0.024444288
21	0x3d467941	0.04845548
22	0x3d794da5	0.060865063
23	0xbd2cbe72	-0.04217381
24	0xbd02640d	-0.031833697
25	0xbda70dc3	-0.08156922
26	0xbc3472c1	-0.011013688
27	0xbbc86704	-0.006115796
28	0x3c902f24	0.017600603
29	0x3d89aeb3	0.06722774
30	0xbd1e5d72	-0.038663335
31	0x3be2fd8f	0.006927199
32	0x3d479fa8	0.048736244
33	0x3cd2dde5	0.025740573
34	0x3d278e0d	0.040906955
35	0xbd13e384	-0.036105648
36	0x3c9eed82	0.019400362
37	0xbcb07733	-0.021541214
38	0x3d9fa9f3	0.07796087
39	0x3b755336	0.003743363
40	0xbcb86d9f	-0.022513209
41	0x3d96d2c1	0.07364417
42	0xbcccd243	-0.025002604
43	0x3d6f127d	0.05836724
44	0x3da89b98	0.08232802
45	0xb90be088	-0.00013339717
46	0xbd15ded5	-0.036589462
47	0x3da50de8	0.08059293
48	0x3d97241e	0.07379936
49	0x3c9e3ed7	0.019317074
50	0xbd567d83	-0.05236579
51	0xba7c9e6f	-0.00096366456
52	0xbdac8090	-0.08422959
53	0xbd64bd37	-0.05584451
54	0x3c377849	0.011198112
55	0xbb882f29	-0.0041560126
56	0x3ce766a1	0.02824718
57	0x3da42e87	0.08016687
58	0x3d010d34	0.031506732
59	0x3d58b973	0.052911233
60	0x3d39be20	0.045347333
61	0x3d52b51a	0.051442243
62	0xbc5acc33	-0.013354349
63	0xbdb46cc5	-0.08809809
64	0x3d469f7f	0.04849195
65	0xbb8f46b3	-0.0043724417
66	0xbd46e007	-0.048553493
67	0x3d139485	0.03603031
68	0x3d1c256e	0.038121633
69	0x3da23949	0.079210825
70	0x3d816cec	0.06319603
71	0x3d1924d3	0.037388634
72	0xb9b25c45	-0.00034019552
73	0xbd8c6564	-0.06855276
74	0xbd9026ae	-0.070386276
75	0x3cc64858	0.024204418
76	0x3d602eda	0.05473218
77	0xbd840a31	-0.06447256
78	0xb982d455	-0.00024953732
79	0xbc76b5b4	-0.01505797
80	0x3da25b2b	0.07927545
81	0xbd32cf46	-0.043654703
82	0xbd4ef550	-0.050526917
83	0x3d6a41d3	0.05719168
84	0xbdb09e70	-0.086239696
85	0xbb1d6016	-0.002401357
86	0xbd2f8d00	-0.042859077
87	0xbd9caf8d	-0.07650671
88	0x3d8ec5f6	0.06971352
89	0xbb077efb	-0.0020675051
90	0x3da2dfe7	0.07952862
91	0xbdacea71	-0.08443154
92	0x3ce424c0	0.027849555
93	0x3cfac0a5	0.030609438
94	0x3d888b36	0.066671774
95	0xbd8a8a63	-0.067646764
96	0xbd7a8e68	-0.061170965
97	0xbd8b3bd7	-0.06798523
98	0xbd56020a	-0.05224804
99	0x3d0907ae	0.03345459
100	0x3c234ec7	0.009967512
101	0x3cf4907d	0.029854054
102	0xba7ad107	-0.00095678907
103	0xbd5a8740	-0.05335164
104	0x3b9cc4dd	0.00478421
105	0x3c8b18d3	0.01697961
106	0x3cd5c7e0	0.026096284
107	0xbd083b03	-0.033259403
108	0xbd3f5f7a	-0.046721913
109	0x3d960adf	0.07326292
110	0xbd1c9974	-0.03823228
111	0xb9922f10	-0.00027882354
112	0x3ceb4475	0.028719166
113	0xbc8bb8e7	-0.017055942
114	0x3cbeb752	0.023280773
115	0x3c3c6185	0.01149786
116	0x3d203b99	0.039119337
117	0xbd1ed87c	-0.038780674
118	0xbdb27bfb	-0.08715054
119	0xbaae5091	-0.0013299157
120	0xbd773d66	-0.06036129
121	0x3c91a13b	0.017777076
122	0x3d2ea315	0.042635996
123	0x3d5825a0	0.052770257
124	0xbcddaf21	-0.027061047
125	0x3c8b0356	0.016969364
126	0x3cbae43e	0.022813912
127	0x3d943a43	0.07237675
