code/models/ppo_trained_100ep.pt (torch, 75481 bytes, 7 tensors)

encoder.0.weight f4 [128, 5]
000000 8c 8f a2 be 50 45 25 3c 97 47 a6 3e 33 4a bb be
       -0.31750143 0.010087326 0.32476494 -0.36580047
000010 69 1a 1f 3e 79 e2 3b 3e de 69 01 be 5e dd 0c 3e
       0.15537418 0.18348111 -0.12638041 0.1375632
000020 02 0b f2 bd 50 7c d2 3e 59 50 55 3d 90 9a 7a 3b
       -0.11818506 0.41110468 0.05207858 0.00382391
000030 d7 4a b7 bd 52 12 79 bd 9e fb cc 3e aa 89 37 be
       -0.089498214 -0.060808487 0.4003572 -0.17923608
000040 4e 9b 27 3e 0b 31 86 be 93 f0 6a 3e f5 b9 ab be
       0.16367838 -0.26209292 0.22943334 -0.3354031
000050 7d b6 56 3d 06 9a b1 bd ea 33 93 3e a6 a9 02 3d
       0.052420128 -0.08671956 0.28750545 0.03190007
000060 71 45 74 3e c0 a1 f2 bd 1b 4c 28 bd e9 c0 23 3e
       0.23854615 -0.118472576 -0.041088205 0.15991558
000070 d5 32 93 bd c4 f3 4b be a1 c7 3d 3e 01 11 7f bd
       -0.0718743 -0.19917208 0.18533184 -0.062272076
000080 44 c5 64 3e 6e 16 24 3e eb 00 9e 3e ea 05 21 3d
       0.22340876 0.16024181 0.30860075 0.03931228
000090 1a 7f a6 be 4e 9d 98 be 93 0f d8 be 15 0f 6e 3d
       -0.32518846 -0.29807514 -0.42199382 0.058119852
0000a0 c7 bf a5 be 6c 8c 72 be d8 ce ac bd f2 52 87 be
       -0.32372877 -0.23686379 -0.0843789 -0.2643047
0000b0 c0 57 ab be c5 16 bc 3e ae df a4 3e 02 4b 3b 3e
       -0.33465385 0.36736122 0.32201904 0.18290332
0000c0 b2 e3 ac be 2a ba eb bd 41 b6 8b be b2 74 aa 3b
       -0.33767468 -0.11510117 -0.27287486 0.0052018994
0000d0 98 ff cb 3e cf 94 80 3e b6 7a af 3e 73 70 af 3e
       0.3984344 0.25113532 0.3427331 0.3426548
0000e0 f0 50 1a 3e 0e 8e 80 be 5e f1 82 be 1e 43 3b bd
       0.15069938 -0.2510838 -0.25574774 -0.045718305
0000f0 c6 36 d6 be ee 80 d1 bd 1c 9c 77 3e 9f 95 67 3c
       -0.41838664 -0.102296695 0.24180645 0.014134794
000100 97 35 b4 be e3 45 ce 3e ef 61 c5 3e de 1a 49 3e
       -0.35197136 0.40287694 0.3855128 0.19639155
000110 24 e7 ef bd 29 59 d4 bd 45 52 49 be cd ab 89 bc
       -0.117140085 -0.103685685 -0.1966029 -0.016805554
000120 97 a9 43 be ed 5c 10 be ae 85 90 3e 9c 57 74 3e
       -0.19107662 -0.14097948 0.2822699 0.23861545
000130 48 68 b3 3e 11 83 c3 be f5 a0 cf 3e c1 4c b7 3d
       0.35040498 -0.38185933 0.40552488 0.089501865
000140 3c fc c3 3e 41 cb 30 be 26 71 9a be 6c 11 7f bc
       0.38278377 -0.17265035 -0.3016445 -0.015568119
000150 0f 08 b8 3e a5 d4 52 be 82 da 8e be d8 64 97 3e
       0.35943648 -0.2058893 -0.27901083 0.29569125
000160 55 32 b7 be ad ed cb 3e c6 2c 48 be 75 54 9e 3e
       -0.35780588 0.3982977 -0.1954833 0.3092381
000170 30 b9 18 3d d1 34 c3 be 47 a8 56 3e 82 09 b6 3e
       0.037285984 -0.38126233 0.2096263 0.3555413
000180 a0 95 a6 3e 76 bb ea 3c ba 46 e2 3e 92 6a da be
       0.3253603 0.028653841 0.44194585 -0.42659432
000190 42 10 48 be 45 cc 76 bd 16 20 27 bd de f3 c1 be
       -0.19537452 -0.0602534 -0.040802084 -0.37881368
0001a0 ab 7d f6 3d 02 7d c5 3e 82 2d 25 3e 0a 25 a1 3d
       0.12035688 0.38571936 0.16130641 0.07868393
0001b0 64 74 ed 3d 89 51 03 be 16 11 ea bd eb 0e 05 bd
       0.115944654 -0.12824072 -0.1142904 -0.03248493
0001c0 b5 08 85 be 57 51 d8 3c 58 df 66 be 24 5f 58 bd
       -0.25983205 0.026405973 -0.22546136 -0.05282511
0001d0 8f 8f b3 3e f1 1c db 3e fc b2 4e be 63 c6 c3 bd
       0.35070464 0.42795518 -0.20185465 -0.09559324
0001e0 21 4c 56 3e fe 5d 7d bc 39 e4 84 3e 60 c2 10 be
       0.20927478 -0.015464304 0.2595537 -0.14136648
0001f0 fa 5c ba 3e 78 b1 2d 3d 03 cf 11 be 2b 7d 5b be
       0.3639906 0.042405576 -0.14239125 -0.21434467
000200 36 2b ca 3e 31 7f 28 be 95 7b 3f be 29 9c d8 bc
       0.39486092 -0.1645477 -0.18699487 -0.02644165
000210 a4 c1 c9 be d5 f8 87 be fc 14 b7 3e 3e 26 8d bd
       -0.3940555 -0.2655703 0.35758197 -0.0689206
000220 b3 14 ee bd 20 fc d7 be 92 f7 8b 3e 8c e7 31 3e
       -0.11625042 -0.42184544 0.2733732 0.17373484
000230 f7 c2 b6 3d 22 fc 86 be d7 65 c5 3e 3d 2b 33 bd
       0.08923905 -0.26364237 0.3855426 -0.043742407
000240 30 03 e2 3e bb 38 87 3e b0 6f 5d be 46 23 cc be
       0.44143057 0.2641047 -0.21624637 -0.39870661
000250 dd 99 a0 3e 58 59 6d bc a1 66 c2 3d 5d bd ae be
       0.31367388 -0.014486633 0.09492231 -0.34128848
000260 87 fa 98 3e 2d b6 cd be ba de af bd 07 18 2d be
       0.29878637 -0.40178052 -0.085874036 -0.16903697
000270 fc cd 0d 3e 9c 86 51 be a4 36 9b 3e cd e2 9c 3e
       0.13848108 -0.20461506 0.30315125 0.30641785
000280 a1 46 64 be 54 e3 98 3d 45 76 f3 bd 55 3b ad 3e
       -0.22292568 0.074652344 -0.118877925 0.3383433
000290 d2 76 7d 3e b8 79 ca be 7c 62 47 be bb b8 d3 3e
       0.24752358 -0.3954599 -0.19471163 0.41351876
0002a0 b2 45 46 3e 20 09 0a 3e c0 e2 1c be 24 00 94 3e
       0.19362524 0.13480043 -0.15320873 0.28906357
0002b0 e6 a3 a9 be 50 33 fa bd f0 3e c6 be ff 40 8f be
       -0.33132857 -0.12216818 -0.38719893 -0.27979276
0002c0 72 85 86 3e ee 8a b2 3c 52 ce 09 3e ac ca c6 bc
       0.26273686 0.021794762 0.13457611 -0.024266563
0002d0 86 b5 81 3e cc ed 23 be f7 10 45 3e 6e e5 53 3e
       0.25333804 -0.16008681 0.19244753 0.20692989
0002e0 ba e1 86 bd 71 f8 06 3e d2 96 9f bd da 5b 2a 3e
       -0.06586023 0.1318071 -0.077924386 0.16636601
0002f0 d3 27 57 bd 7c df df be 5f 44 0c 3d 19 d8 b2 3e
       -0.052528214 -0.43725193 0.03424489 0.34930494
000300 cf bf d0 3b 1d 32 82 be f0 bf a4 be c7 09 a1 3e
       0.0063705216 -0.25428858 -0.32177687 0.31452772
000310 3c 16 10 3e 97 c9 62 be 5f 37 d2 3e 65 2d 13 be
       0.14070982 -0.22147213 0.4105787 -0.14372785
000320 47 75 d0 3e 09 7a e1 be 07 d0 8b 3e 43 4a a5 3e
       0.40714476 -0.44038418 0.2730715 0.3228322
000330 d2 1e 8d 3e 1a e4 9f 3e 2b 4e 9c be 0b 78 ce be
       0.27562577 0.31228715 -0.30528387 -0.4032596
000340 8f 9d cb 3e 24 11 2c 3d af 71 95 3e 3a 2c e3 3e
       0.39768645 0.042008534 0.29188296 0.4436968
000350 54 f7 a5 be 07 7e 8f 3e da 7a 95 3e cb fb 0f bc
       -0.3241526 0.2802584 0.2919529 -0.008788059
000360 57 77 c9 be 25 0f 2e be 51 0e 2c be e4 a8 81 3e
       -0.39348862 -0.16997965 -0.16802336 0.25324166
000370 6d da 51 3c 54 ca 52 be b3 94 b8 bc 23 26 b6 be
       0.012808424 -0.20584995 -0.022531843 -0.3557597
000380 72 d4 ba 3e b3 fc 45 3e 74 66 0c 3e 8c 7e e7 3c
       0.36490208 0.19334678 0.13710958 0.028258584
000390 19 37 9a be f3 d2 22 be e6 97 e8 3d 55 65 aa 3e
       -0.3012016 -0.15900783 0.11357097 0.33280435
0003a0 da be c8 3e 99 d8 70 be 44 53 b8 3d 12 f7 14 3e
       0.39208108 -0.23520125 0.09000257 0.14547375
0003b0 f0 82 28 3e 76 f2 a5 3e 1e 3b e3 bd c0 5e f3 3d
       0.16456199 0.32411546 -0.1109526 0.118833065
0003c0 4a 2f 87 3c 2a 5a ad be a7 56 aa be 80 80 a5 be
       0.016502041 -0.33857852 -0.33269235 -0.323246
0003d0 2e 00 80 bd c2 7c 8e be 7a 0f af 3e 13 bd 4d bd
       -0.06250034 -0.27829558 0.34191495 -0.050229143
0003e0 7a 70 a9 be 26 15 8f be 71 1a 89 3d b4 84 d8 3e
       -0.33093625 -0.27945822 0.066944964 0.42288744
0003f0 62 d9 ce be 16 00 c9 3e 6d f8 1f be f1 fc a3 3e
       -0.40400225 0.39257878 -0.1562211 0.32028916

encoder.0.bias f4 [128]
000000 a1 7e 91 bd 11 ad d4 3e 83 89 d9 3d 55 4c d7 3e
       -0.07104231 0.4153829 0.106219314 0.42050424
000010 d9 6f 34 be 64 f0 86 be ee 27 a4 be 0a 2c 83 bc
       -0.17620791 -0.26355278 -0.32061714 -0.01601221
000020 66 e7 af 3e b1 a1 81 3e b4 58 ce be d1 74 a8 bc
       0.3435623 0.25318673 -0.4030205 -0.020563515
000030 e4 93 67 be 11 3a 01 3e 8c c7 a5 be 4b 3a 00 3e
       -0.2261501 0.12619807 -0.32378805 0.12522237
000040 73 60 03 3e 81 df 6b be c5 01 cb 3e 90 1f 29 be
       0.12829761 -0.23034479 0.39649788 -0.16515946
000050 db 10 c7 be ef f4 aa bd 4a a1 55 be 74 e7 f7 3c
       -0.38880047 -0.083474986 -0.20862308 0.030261733
000060 24 c0 e7 bd 49 39 67 be f9 ad e3 3e 8d 15 5e be
       -0.11315945 -0.22580446 0.44468668 -0.21687908
000070 d2 35 54 be bf 23 95 be 70 79 b6 be 39 89 cb 3e
       -0.20723656 -0.29128835 -0.35639524 0.3975313
000080 fa 0e b9 3e c0 c6 c2 3d ea f9 c1 3e 7b 7a 9c be
       0.3614424 0.09510565 0.37885982 -0.30562195
000090 86 82 b8 3c 21 b8 81 be d4 f6 36 3e d6 ed d2 3e
       0.022523176 -0.25335792 0.17867595 0.4119708
0000a0 8e 36 8d be 67 a7 8c 3e 68 e3 84 3e b1 dd bf 3c
       -0.27580684 0.27471468 0.25954747 0.02342114
0000b0 d1 e3 a6 3e bc 62 76 be 35 76 bd be 7f 4a 89 3e
       0.32595685 -0.24061102 -0.37004247 0.26814649
0000c0 a5 43 81 be 80 9f 2e be e8 f3 d2 3e 1c 8f b9 be
       -0.2524692 -0.17053032 0.4120171 -0.36241996
0000d0 da 93 df be f1 01 95 3e 88 34 b2 be eb 34 d3 3e
       -0.4366749 0.29103044 -0.34805703 0.4125131
0000e0 48 fe bf be 57 00 70 be 90 cd ab be 13 2d db 3e
       -0.3749869 -0.2343763 -0.3355527 0.42807826
0000f0 87 5d aa be 36 15 be be 19 c5 fe 3d 18 83 54 be
       -0.3327448 -0.37125558 0.12439937 -0.20753133
000100 8a 6f b3 3e e9 5e 16 be 1a b4 7a be ff 45 86 be
       0.35046035 -0.14684643 -0.24482766 -0.26225278
000110 ff 7b 4e be b2 e5 e6 3e 17 12 5a bd 95 ef 41 be
       -0.20164488 0.4509712 -0.053239908 -0.1893905
000120 ee 0b 5f be bb 66 b4 be de 33 9f 3e 36 c0 ab 3e
       -0.21781895 -0.35234627 0.3109426 0.33545083
000130 90 39 75 3e 73 d8 f7 3d d9 0f a8 bc 0a f6 c3 3e
       0.2394774 0.12101831 -0.02051537 0.3827365
000140 dd 46 80 3e 8c 7d 43 3e 7a ac 85 be 70 40 08 bd
       0.25054064 0.19090861 -0.26108152 -0.033264577
000150 0e 09 db be 02 bc c5 3c 9c 3f df be ff 41 41 3e
       -0.42780346 0.0241375 -0.43603218 0.18872832
000160 6a 66 80 be 2e b7 19 3e 52 30 33 3e 34 f5 7c 3e
       -0.25078136 0.15011284 0.17498901 0.24702913
000170 ff 3d d5 be b8 e7 96 be cb ff b9 3e eb d6 40 ba
       -0.41648862 -0.29473662 0.36327967 -0.0007356244
000180 15 94 db be d6 c6 76 3d 4c a5 a0 3e 64 c9 b4 bd
       -0.42886415 0.06024822 0.31376112 -0.08827475
000190 af 22 a7 3d d9 02 de ba 5c fa 9e 3e fc a5 8d be
       0.08160912 -0.0016938105 0.31050384 -0.276657
0001a0 fa 0d b7 bd c3 ac c2 3e da 78 69 3d b5 93 90 3e
       -0.08938213 0.38022432 0.05700002 0.28237692
0001b0 db 75 ad 3e 39 34 69 bd e4 55 b9 be 0f 72 1b be
       0.3387898 -0.05693457 -0.36198342 -0.15180229
0001c0 db 63 c0 be 2b 97 dc be b3 08 a7 3d a9 2e 00 3e
       -0.37576184 -0.43084082 0.08155956 0.125178
0001d0 c9 5f 4f 3d d9 a1 c4 be e0 86 65 be c3 16 64 be
       0.050628457 -0.3840473 -0.22414732 -0.22274308
0001e0 ca db c6 3e 2e ef 6b 3e 2e a5 58 3e 1c fd c3 be
       0.3883956 0.23040459 0.21156761 -0.38279045
0001f0 1f 55 a8 3e 4b 4d a2 be 41 0f fa 3c ff 7c a5 3e
       0.32877442 -0.31699595 0.030524852 0.32321927

encoder.2.weight f4 [128, 128]
000000 37 71 c7 3c a7 5a 68 3d 28 7e bf 3d 22 8d 9a 3d
       0.024345977 0.056727078 0.09350234 0.0754645
000010 81 87 59 bd 45 91 05 bc a6 31 5f bd e4 c8 80 bd
       -0.053107742 -0.008152311 -0.054490708 -0.06288317
000020 58 a5 3d 3d 10 24 aa 3c 46 2c 76 bd b7 cf 8c bd
       0.046300262 0.020769149 -0.060100816 -0.06875556
000030 04 2b 96 3d 55 10 7a 3d 47 20 94 3d a5 66 b1 3d
       0.07332423 0.06105073 0.07232719 0.08662156
000040 ac e3 00 bd aa 20 88 3d 6e 21 e4 3c 04 77 93 3d
       -0.031467125 0.06646855 0.027847972 0.07200435
000050 2e 42 99 bd f6 61 97 3d e6 ab b8 bc 90 f4 7a bb
       -0.07483326 0.073917314 -0.022542905 -0.0038292743
000060 f5 98 c5 3c ae 69 a3 bd 33 f0 5b bd e3 9a b2 bd
       0.024120787 -0.07979141 -0.05369587 -0.087209485
000070 3c 5e 2a 3c 9f a7 e4 3c 6e d3 86 bd 53 6b a8 3d
       0.010398444 0.02791196 -0.06583296 0.082235955
000080 7e a6 06 3d b8 51 83 3d 3b 83 98 bc 1f 6e 71 bd
       0.032873623 0.06412071 -0.018617263 -0.05894291
000090 91 d0 0d bd f5 76 62 bd f5 78 e4 bc 88 00 bb 3c
       -0.034622733 -0.055289228 -0.027889708 0.022827402
0000a0 bd b5 79 3d 4e f4 93 3d 24 ba 8c bc 10 2a 0d 3d
       0.060964335 0.07224332 -0.017178603 0.034463942
0000b0 89 55 ad 3c c6 d7 05 3d 23 24 4a bc 3d 7e 8e 3d
       0.02115895 0.03267648 -0.012337717 0.06957672
0000c0 43 4f ca 3c bf ce 12 bd 1f b1 12 bd 0e 56 4a bc
       0.024695998 -0.0358417 -0.035813447 -0.012349619
0000d0 b0 6f 82 3d ae 3b 93 bd bd 75 89 bc b5 bf a0 bd
       0.06368959 -0.07189117 -0.016779775 -0.07849065
0000e0 f6 5f 63 3d 61 fe a9 bc 2c 03 37 bc 51 23 86 bd
       0.055511437 -0.02075118 -0.01117019 -0.06549705
0000f0 56 a8 32 3c ae 16 83 bd f6 02 13 bd a8 78 5e 3d
       0.010904392 -0.0640081 -0.035891496 0.054314286
000100 ad 3c 2b 3d db 97 06 bd cf 67 b4 bb 13 a1 81 bc
       0.04180591 -0.032859664 -0.005505539 -0.015823876
000110 91 99 13 3d be d4 a7 bd 5e 39 f6 bb e3 7c ab 3c
       0.036035124 -0.08194874 -0.007514163 0.020933574
000120 8a 35 b4 3d 2f 67 8c 3d 57 bd a0 bd 1e ae 9c 3d
       0.08799274 0.06855618 -0.07848614 0.07650398
000130 45 d7 51 3d 8c f4 6e 3d 52 7b 51 3d 1b 55 4c bd
       0.051230688 0.058338687 0.051142998 -0.04988585
000140 1d 21 56 3d 9b 6a 5d bd 2b a8 97 3d c2 38 66 bc
       0.052277673 -0.054056745 0.07405122 -0.014051618
000150 76 ac d9 bc db 07 a9 3d c3 5e 22 bc 89 ed 4c 3d
       -0.026571494 0.082534514 -0.009910288 0.05003122
000160 9a f0 94 3d b5 fc 76 3d 53 b2 27 bc 4f fc 04 3d
       0.072724536 0.060299594 -0.010235387 0.032467183
000170 ab 78 39 bd 9d e8 23 bd 6d 3c a7 3c 20 5f a9 3c
       -0.045281094 -0.04001676 0.020414555 0.020675242
000180 8d de 28 3d cb 83 91 3c 26 c7 a2 bd ca d5 22 bd
       0.041227866 0.01776304 -0.07948141 -0.039754666
000190 90 00 85 3d c8 b4 95 bd ba 0d 54 3d 51 7d 0e bd
       0.06494248 -0.07309872 0.051770903 -0.03478748
0001a0 36 45 7e 3d 81 c0 93 3d 20 21 86 bd e0 72 41 3c
       0.062077723 0.072144516 -0.06549287 0.0118071735
0001b0 c6 12 69 bc 1e 3c a0 3d 71 c0 70 bd 2c 44 08 bd
       -0.014225667 0.078239664 -0.058777276 -0.03326814
0001c0 a6 8b 27 bd ae b9 8a 3d 65 90 07 bd 9f 33 ab 3d
       -0.040904664 0.06773697 -0.03309669 0.08359455
0001d0 18 9e 7b 3c ed a0 81 3d 68 08 40 bd 04 70 ad 3c
       0.015357517 0.06329522 -0.046883017 0.021171577
0001e0 9f 43 46 3d 7d 78 60 3d 60 d8 08 bc c1 88 1a 3d
       0.048404332 0.054802407 -0.008352369 0.037728075
0001f0 bd e0 02 bd 89 08 3a 3d b9 cb 0c bd 00 8e 45 bc
       -0.03195261 0.045418296 -0.034373973 -0.012057781
000200 8f 69 f0 bc b6 16 a3 3d 4d ff 84 bd 55 17 1a bd
       -0.02934721 0.07963316 -0.06494007 -0.037619907
000210 5b af 8f bd 2d f0 56 3d 97 08 92 bd 47 e8 5c ba
       -0.07015868 0.052475143 -0.07130545 -0.0008426946
000220 cd 15 a8 3d e9 12 b2 3b 81 db 56 3d 88 78 bf bc
       0.08207283 0.005434383 0.05245543 -0.023372903
000230 c9 91 37 3b 2d 99 d7 bc c9 b4 2d bd a6 4a 89 bd
       0.0028010479 -0.026318157 -0.04240874 -0.06703691
000240 8a 9f 8b 3c 28 9d 2c 3d 9b 5b 69 3c 6c 4a ec bb
       0.017043848 0.042142063 0.014243032 -0.00721102
000250 a9 68 a7 bc 62 f0 d0 3a 92 14 7b bd 16 2e 54 bd
       -0.020435648 0.001594078 -0.061298914 -0.051801763
000260 13 2f 38 bc d6 db 45 bd b5 e2 2a bc cb fd 7f bd
       -0.011241692 -0.048305355 -0.010430028 -0.062497895
000270 85 f4 9d bd 0c 51 a4 3d 7d a3 8b 3d 0e 80 50 bd
       -0.07712654 0.08023271 0.06818292 -0.050903372
000280 2e 63 7b 3d 66 4d b6 3b 30 c8 8d 3c 75 80 ea bc
       0.061373882 0.005563426 0.01730737 -0.028625706
000290 8f 6b 52 3d 57 02 80 bd fe 7f 8e bb 2d 14 e7 3c
       0.051372107 -0.06250446 -0.004348754 0.028207863
0002a0 e3 ff 52 3d ed dc 8d 3d c9 4b ae 3d c4 ff ae 3d
       0.051513564 0.06926904 0.085105486 0.08544877
0002b0 31 03 85 3d 81 12 bc 3c 0c b0 8b 3d 88 93 24 bd
       0.06494749 0.022958042 0.06820688 -0.04017976
0002c0 1a e0 8c bd 66 b8 9d bd 32 eb af 3d 00 e3 96 3d
       -0.068786815 -0.07701187 0.08589782 0.073675156
0002d0 67 68 cb bc 55 c0 8c bd 73 84 4a bc 97 7d 26 3d
       -0.024830056 -0.06872622 -0.01236068 0.040647116
0002e0 53 49 cd bb fd 5a 99 bd 66 18 96 bd 66 bd c5 3c
       -0.0062648444 -0.07488058 -0.073288724 0.024138164
0002f0 24 d5 3d bd 6a 67 df 3c c9 05 ad 3d 2c bd a0 bc
       -0.046345845 0.027270991 0.08448369 -0.019621454
000300 2a 3d 11 bd 34 40 8d 3c 00 a2 5c bd 89 40 a7 bd
       -0.03545872 0.017242528 -0.053865433 -0.08166606
000310 24 d6 70 3c 4c d2 09 bd ab 20 6a bb f4 70 49 bd
       0.014699493 -0.03364782 -0.0035725038 -0.049179986
000320 4e 8c 2f bd 6c 00 58 3d 36 ec 86 3d 80 20 79 bd
       -0.042858414 0.052734777 0.065880224 -0.06082201
000330 23 8b 9b bd c7 77 37 3d 29 d3 db 3c 8f 7e f2 3c
       -0.075948976 0.044791963 0.026834087 0.029601363
000340 3c 23 d0 bb d9 a3 7f bd 0f 11 a4 bd 7d 2e 2d bd
       -0.0063518565 -0.062412117 -0.08011066 -0.042280663
000350 09 b5 5e bd c5 db 7e bc cf 3d 84 bd 9b bf 02 bd
       -0.054371867 -0.015555327 -0.064571016 -0.03192101
000360 a9 2d 9a 3d 56 ae a1 3d 62 9a a5 bd 69 4c 2d 3c
       0.0752824 0.0789458 -0.08086087 0.0105773
000370 01 4d 7d bd bc 7c a7 bd d9 73 6d bb 1e 0e 07 bc
       -0.061841015 -0.08178088 -0.003623238 -0.008243112
000380 25 da bd bc 1c 8a 13 bc a1 0b 34 3d 2f 7d 34 bd
       -0.023175308 -0.009005096 0.043956403 -0.044064697
000390 1e 81 2a 3d ab 39 a3 3d d0 e4 42 bd 57 b9 15 3c
       0.041627042 0.07969984 -0.047581494 0.009138427
0003a0 db a5 8e 3d c8 33 79 3d 43 31 8e bc 39 13 6c 3d
       0.06965228 0.060840398 -0.017357474 0.05763552
0003b0 ec c5 2b 3d 33 e6 17 bd f2 57 2d 3d cb cb 9f bd
       0.0419368 -0.03708477 0.0423202 -0.07802542
0003c0 4f c5 ad 3d 92 e4 a0 3c b9 9a 59 3d e9 a4 63 3c
       0.08484899 0.01964024 0.05312607 0.013894298
0003d0 dd 9e 25 bd 88 8a 5c bd 0e 7b a4 bd 57 26 f4 bc
       -0.040434707 -0.05384305 -0.08031283 -0.029803438
0003e0 0e a1 a2 3d 01 ae 78 bd ce 7a d9 bc 9d d6 e6 bc
       0.07940875 -0.060712818 -0.026547816 -0.028178507
0003f0 19 d6 8d 3d cb d8 ec bc ac b9 99 ba c5 88 0d 3d
       0.069256015 -0.028911969 -0.0011728308 0.03455426

encoder.2.bias f4 [128]
000000 b4 fb 15 bd ea e0 6e 3d 67 b5 5f bd ba eb 16 bd
       -0.036616996 0.058319964 -0.054616358 -0.0368459
000010 46 74 a1 bd 7a 42 ab 3b 3c 02 a6 3d 3a ff 87 3d
       -0.078835055 0.0052264305 0.08105895 0.066404775
000020 4f 5e 65 3d 54 8a aa 3d 11 c0 3b bd 3b c9 ae bc
       0.055998143 0.08327165 -0.045837466 -0.021336189
000030 a2 b3 8e bc 00 87 3b 3d 47 9e 60 bc 9d 21 ac bc
       -0.01741964 0.045783043 -0.013709611 -0.021012122
000040 9a e7 a3 bd f3 39 52 bd 6d ee 2f 3c ca 47 95 3a
       -0.08003159 -0.051324796 0.0107379975 0.0011389193
000050 5a 8d 64 3c d8 e6 76 3c 49 c5 69 bd 02 cc e5 3c
       0.013949716 0.015069686 -0.05707291 0.02805138
000060 88 20 08 3d d7 11 ad 3d bd a7 c6 3c 94 f9 ac 3d
       0.03323415 0.08450668 0.024249906 0.08446041
000070 81 57 fc 3b 96 04 95 3b 91 1f 19 3d 64 96 81 3d
       0.007700861 0.004547666 0.03738362 0.06327513
000080 74 ad 8b 3d de 38 92 bd 27 5f 08 bd 23 90 b1 3d
       0.06820193 -0.07139753 -0.03329387 0.0867007
000090 e2 ad 4e 3d f0 dd 2f 3d 8a e1 8c bd 11 f3 ab 3c
       0.050458796 0.042936265 -0.06878956 0.020989927
0000a0 ca 75 f2 3c ff a4 55 bd 88 9a b8 3c a9 51 a2 3a
       0.029597182 -0.052159306 0.022534624 0.0012383956
0000b0 74 96 23 bd 3b e8 87 3c e1 b7 69 bd 8e d4 5f bd
       -0.039938405 0.016590228 -0.057060126 -0.054646067
0000c0 d1 15 55 3d 60 4f c8 bc 6d 6a 2a bd 76 4c 3b bc
       0.05202276 -0.024451911 -0.0416054 -0.011431804
0000d0 f4 db c6 bc 93 0b 56 bd cd 54 38 bd 41 2c 3a 3d
       -0.024274804 -0.05225713 -0.045002747 0.04545236
0000e0 f7 d0 9a bd 7d 23 b9 3d 36 e6 bf 3b 12 20 0c bd
       -0.07559388 0.09039972 0.0058563007 -0.034210272
0000f0 af ee 4c bd f6 fc 00 bc 7f bd 72 bd 68 4c 40 bc
       -0.050032314 -0.007872811 -0.05926275 -0.011736967
000100 83 22 3f bc d5 8e b3 3d a0 d5 14 3c 7f ef 9d 3d
       -0.011665943 0.087674774 0.009084135 0.07711696
000110 a2 49 a3 bd 71 a5 68 bd 6c 57 92 bc 40 fd 7c 3c
       -0.07973029 -0.056798402 -0.017863952 0.015441239
000120 4b b2 74 3d 44 c8 2b bd ec f0 af bb 61 04 8e 3d
       0.059740346 -0.041939035 -0.0053692963 0.06934429
000130 dd 61 f6 bc aa f9 b8 ba 5a 4d 7d 3d d0 c1 91 bd
       -0.030075962 -0.0014112492 0.061841346 -0.07117045
000140 03 1a 2f bd 32 4f 3d bd 86 65 80 3d 4b 78 83 bd
       -0.042749416 -0.046218105 0.06269364 -0.064194284
000150 9b 00 50 bd 2c a5 79 bd c4 85 38 3d 3c 3f 9c 3d
       -0.050781827 -0.060948536 0.045049444 0.076292485
000160 23 26 0c 3d 01 3a 0a bd 18 bc 92 3c 67 bb 1e bd
       0.034216058 -0.033746723 0.017911956 -0.03875294
000170 67 ad 82 3d 2b 52 03 3d 54 80 48 bd 0e c8 33 3d
       0.0638073 0.032060783 -0.04895051 0.04389196
000180 08 06 70 3d a8 eb 11 3d a2 50 05 3d 40 e8 92 bd
       0.0585995 0.03562513 0.0325476 -0.071732044
000190 a4 c7 9f 3c 5e de 5a bc 56 58 8f bd 0b 8b 0c bc
       0.019504376 -0.0133586805 -0.069992706 -0.008578072
0001a0 58 ff c9 bc 9f 91 7b 3c 9d c0 95 bc 26 bc 9c bd
       -0.02465789 0.015354543 -0.018280322 -0.07653074
0001b0 36 76 e5 bc 09 bd e0 3a d0 21 34 bd eb 37 bc bc
       -0.028010469 0.0017146181 -0.04397756 -0.022975883
0001c0 e3 89 e7 bc 38 a2 56 bc 47 c7 6c 3d b6 b1 c3 3a
       -0.028263992 -0.013100199 0.057807233 0.0014930281
0001d0 82 d3 a2 bd d8 19 45 bd 8d c1 17 3d 82 f0 11 3d
       -0.07950498 -0.04812035 0.03704982 0.035629757
0001e0 43 10 73 3c 7e 69 8c bd c9 6d 24 3d 4d d4 98 3d
       0.01483542 -0.068560585 0.04014376 0.07462368
0001f0 de 5b 5f 3c df c4 a5 3d 98 ab 49 3d 4b 72 ac bd
       0.013632743 0.08094191 0.04923591 -0.08420237

actor.weight f4 [4, 128]
000000 b7 6e 83 bd 30 ef 9a bc ae 8b 7e bd 41 82 1b bd
       -0.064176016 -0.018912882 -0.062144928 -0.037966017
000010 b8 20 cd bc 76 83 9f bd b0 07 8b 3d 8d 46 75 bc
       -0.025040016 -0.07788746 0.06788576 -0.014970434
000020 d3 93 e8 bc ad f0 a0 3d 34 5e 95 bd 24 32 93 bc
       -0.0283908 0.07858405 -0.072933584 -0.017968245
000030 93 54 97 bd 65 34 67 3b fe 7f 01 bd 00 67 36 bd
       -0.07389178 0.0035279032 -0.031616203 -0.044531822
000040 d3 b7 d2 bc 09 34 17 bd 41 b6 5e 3d 52 ad a5 bd
       -0.02572242 -0.03691486 0.05437303 -0.08089699
000050 3a 75 3c bd 6b 94 93 bd 64 9c 5d 3d f0 4e d7 bc
       -0.046010233 -0.07206043 0.054104224 -0.026282758
000060 f3 e5 9a bc b2 65 84 bc c7 9b ac bd e8 7f 4b 3d
       -0.018908476 -0.016161773 -0.0842815 0.049682528
000070 57 8b 89 3d 19 fe bd 3c e1 6c 66 bc 56 28 bc 3d
       0.0671603 0.023192452 -0.014064045 0.09187381
000080 ba 3d a9 bc 93 d1 03 bd d7 3b 90 bd 7a 3a 9d 3d
       -0.020659316 -0.032182287 -0.070426635 0.07677169
000090 c2 54 65 bd b0 0a 06 3d 75 57 a8 3d 3d 67 ae 3c
       -0.055989034 0.032725036 0.08219806 0.021289462
0000a0 c5 95 98 3d 88 ba ab bc 41 bd 96 3d a6 3c 76 3d
       0.07450441 -0.020962968 0.07360316 0.060116433
0000b0 20 b3 38 3c e8 4f 3f bd c7 bb fa 3c f3 98 7b 3d
       0.0112731755 -0.046707064 0.030607117 0.06142516
0000c0 89 9f 5e bd 1a a7 07 bd 25 6f b0 3d dc 38 1f 3d
       -0.054351363 -0.033118345 0.08614949 0.038872585
0000d0 66 1c aa bd e4 ef 10 3d 28 49 07 bc 63 d5 a8 3d
       -0.08306198 0.035385028 -0.008257188 0.08243825
0000e0 aa 3d 99 3c 64 22 9c bd 10 80 61 3d 0b 05 a3 3d
       0.018706162 -0.07623747 0.05505377 0.07959946
0000f0 5c 97 08 3d d7 b9 13 ba 1c 5f 74 3c 0d 7f 3a 3d
       0.033347473 -0.0005635297 0.014915254 0.04553132
000100 0d d1 aa 3d c6 b0 93 3d 5c b1 93 bd 2f 42 28 3d
       0.083406545 0.07211451 -0.07211563 0.041078743
000110 2f c1 50 3b da 8a 99 bc 51 e0 c0 bc e4 f3 7f 3d
       0.0031853428 -0.018742967 -0.023544462 0.06248845
000120 0a 1f 14 3d 54 a0 12 3d aa d4 16 bd 94 d7 a2 bd
       0.036162414 0.035797432 -0.036823906 -0.079512745
000130 b9 e7 38 bc 6a 1f f2 3c cf 1f d5 bc 43 d0 2d 3d
       -0.011285716 0.029555995 -0.026016144 0.042434942
000140 a0 0a 01 bd 5e df a5 3b 40 40 b2 3d a4 d0 94 3d
       -0.031504273 0.005062028 0.08703661 0.072663575
000150 d1 55 97 bd c7 70 9c 3d 93 b9 1b 3c 50 70 60 3d
       -0.07389415 0.07638698 0.009504694 0.05479461
000160 01 e0 a8 bc 58 c3 ae bb 9e c3 8f 3d 11 7b 98 bd
       -0.020614626 -0.0053333454 0.07019733 -0.07445348
000170 28 62 cd bc bb ca b5 3d a4 8a 04 3d 94 cf ab bd
       -0.025071219 0.088765584 0.03235878 -0.08389202
000180 08 25 81 3d f1 0b 18 3d 26 e0 83 bd 9f 3a 4b bc
       0.06305891 0.037120763 -0.06439237 -0.012404113
000190 6a 3a 9b bd 3a 95 7b 3d 20 e8 b8 3d 05 3c 22 3d
       -0.07579501 0.06142161 0.09028649 0.03960802
0001a0 a6 7a 6c 3d a0 63 89 3d 00 79 b3 3c f1 4b 1b bc
       0.057734154 0.06708455 0.021908283 -0.009478555
0001b0 30 36 a3 3c bf 9c 15 3d 2e 38 80 3d f9 23 69 3d
       0.0199233 0.036526438 0.062607154 0.05691907
0001c0 a4 e9 92 bd d7 3a 5e 3d 48 14 c6 bc 55 e6 90 bd
       -0.0717347 0.054255333 -0.024179593 -0.07075182
0001d0 43 72 80 3d 56 8d 87 bd 2a 03 fe 3b aa fc 99 bc
       0.06271794 -0.066187546 0.007751842 -0.018797237
0001e0 d7 a7 72 3d 1b c4 97 ba 56 2b 80 3d 54 3b 99 bd
       0.059242096 -0.001157883 0.06258266 -0.07482019
0001f0 f6 53 a9 3d 61 97 a9 bc 00 98 94 bd ee d9 b3 3d
       0.082679674 -0.020702066 -0.07255554 0.08781801
000200 c5 7a 18 3d 7e 90 61 3d 51 fc 24 bc 5f e6 1a bc
       0.037226457 0.05506944 -0.010069923 -0.009454339
000210 b7 de 93 bd b2 cf 60 bd d3 0a 79 3c a4 a4 16 bd
       -0.07220214 -0.054885574 0.015200335 -0.036778107
000220 db 29 14 3b be 08 98 3c fd ba 5e 3d 46 ad 8d bb
       0.0022607956 0.018558856 0.054377545 -0.0043236343
000230 80 69 ab bd 6e 85 3e 3d a6 ae 1f 3d dd da 97 3d
       -0.08369732 0.046513967 0.038984917 0.07414792
000240 c1 1e ed 3c 3a 75 12 3d 24 85 ab bc d2 b9 eb 3c
       0.028945329 0.035756327 -0.02093751 0.02877513
000250 1b c3 81 3d 33 85 b4 bd d7 de 96 3d fd 11 88 bd
       0.063360415 -0.08814468 0.07366722 -0.06644056
000260 09 fb 67 3d cb 66 47 3c c8 64 93 bd fa ed 34 bd
       0.05663589 0.012170504 -0.07196957 -0.044172265
000270 c8 5b 65 3d d2 79 b0 3d b7 50 cf bb 02 61 cf 3c
       0.055995733 0.086169854 -0.0063267606 0.025314812
000280 9d 2a b8 bd a3 5b e7 3b c0 de bb bc 3e b0 7f 3d
       -0.08992503 0.0070604845 -0.022933364 0.062423937
000290 e4 fa 8e 3b 9d 55 7d bd 63 62 9d 3d 86 3a a5 3d
       0.0043634046 -0.061849225 0.076847814 0.08067803
0002a0 4c 74 86 3c a1 39 54 bd 8c 79 6b bd 33 f6 64 bd
       0.016412877 -0.05181277 -0.057488963 -0.055898856
0002b0 e7 ed 77 bd 14 e3 83 bd a5 bc 7f 3c da 19 90 bd
       -0.060529616 -0.06439796 0.015608941 -0.07036181
0002c0 3c 34 29 bd 2f 1d 52 3d de 12 38 3d 2a 1e 62 bd
       -0.04130958 0.051297363 0.04493987 -0.055204548
0002d0 f5 36 74 bd 83 aa 13 bc 71 de aa bd 99 9c a4 bd
       -0.059622724 -0.009012821 -0.083432086 -0.08037681
0002e0 eb f3 a0 3d c9 e6 23 3d 60 c1 94 3d 33 74 36 3d
       0.07859024 0.040015016 0.07263446 0.04454441
0002f0 4d 9b a8 3b 2f 04 2b 3c 38 3c 86 3d 90 ca 3b bd
       0.0051454664 0.010438009 0.065544546 -0.045847476
000300 4b 4c 06 bd a2 dd 81 3d 8d 98 81 3d 8f d7 a5 3d
       -0.032787602 0.06341101 0.06327925 0.08097755
000310 ed b3 09 3b da 97 28 bb 77 77 d5 bc 0e dd 93 3d
       0.0021011785 -0.0025725276 -0.026057942 0.07219897
000320 1a 6a 94 3d c6 cf f8 bc 12 e6 b3 bc 6e c2 14 bd
       0.072468 -0.030372512 -0.021960292 -0.036318235
000330 ce 0f 3b bd c2 ce 2e bd b9 fe aa 3d e1 08 79 bc
       -0.04566937 -0.04267765 0.08349366 -0.015199871
000340 71 3e 90 3d 81 33 07 bd d5 77 42 3d ac 2a 56 3c
       0.0704316 -0.033008102 0.047477562 0.013071697
000350 7f 6e 6a 3d d8 b5 e1 3b ea 57 69 3d 5b b0 88 bd
       0.057234284 0.0068881325 0.056968607 -0.06674262
000360 8c 8a 65 bd 7b 4b a7 bc 43 4d a2 bd f2 7f 1f bd
       -0.05604033 -0.020421734 -0.07924893 -0.038940378
000370 4d 08 26 3d 77 0f 78 bd df 6d b8 bb 0a 10 01 bd
       0.04053526 -0.060561623 -0.005628332 -0.031509437
000380 0b 14 ac bd 46 dd 98 bd a9 49 84 3d d8 db 2a bd
       -0.084022604 -0.074640796 0.06459362 -0.041713566
000390 75 8d 83 3d c8 e9 99 3d db a5 bb bd 5a c5 63 bd
       0.06423465 0.07515293 -0.09162494 -0.05560813
0003a0 8a 3c 0d bc 06 43 9b 3c 7f c2 9d ba b1 70 82 3d
       -0.008620391 0.018952858 -0.0012036114 0.063691504
0003b0 a5 75 a2 bd 10 2c ca 3c 90 da aa 3d 64 02 53 bd
       -0.07932595 0.024679214 0.08342469 -0.05151595
0003c0 8f 92 8b bd 74 78 e2 3c 48 b5 80 bb 3f 3b 86 bd
       -0.06815063 0.027645327 -0.0039278604 -0.06554269
0003d0 99 c5 81 3c c2 04 b5 bd fa fb 2b 3d 1d 00 16 3c
       0.015841292 -0.08838798 0.04198835 0.0091553
0003e0 32 f2 99 bc c9 83 94 bd c5 5d 84 bd c9 f9 a8 3c
       -0.018792246 -0.072516985 -0.064631976 0.02062692
0003f0 70 1d eb bc bf 88 96 bd f4 a4 ae 3d 22 c3 41 3d
       -0.02870056 -0.07350301 0.08527556 0.047305234

actor.bias f4 [4]
000000 b7 76 10 3d dc 43 45 3d b2 a6 28 bd 06 1f 99 3d
       0.035269465 0.04816042 -0.041174598 0.074766204

critic.weight f4 [1, 128]
000000 83 1f ae 3d ee 91 a9 bd ba 0f 45 bc 06 3d 63 bd
       0.08502104 -0.08279787 -0.012027675 -0.05547812
000010 f2 73 3d 3b 29 5d 40 bd 3e 2d a0 bd 1f f3 a2 3c
       0.002890822 -0.046963844 -0.07821129 0.01989132
000020 d9 8a 92 bd 2a b1 82 bd e7 33 91 bd 37 4b 1c 3d
       -0.07155389 -0.063814476 -0.07089978 0.038157668
000030 98 98 89 3d 56 63 68 bd 9a 06 f9 3c 6b cb ed 3c
       0.06718558 -0.05673536 0.030398656 0.029027661
000040 6f 80 f9 bc f2 d3 20 bd 19 b6 6f ba ef c1 83 3d
       -0.03045675 -0.039264627 -0.0009144261 0.06433474
000050 61 7e 9a bd cd a1 61 bc fe d8 c6 3c 1e 7c 92 3c
       -0.07543636 -0.0137714865 0.024273392 0.01788145
000060 3e d8 a8 bc b0 ef a1 bd 07 42 a6 bd 2d 37 b2 3d
       -0.020610925 -0.07907045 -0.081180625 0.0870193
000070 52 dd af bd d8 ba 17 bd be 73 fe bc 68 8e ef 3c
       -0.085871354 -0.037043422 -0.03106105 0.02924271
000080 49 39 1d 3d d3 f7 2e bd 64 5b fd bc 50 e3 74 3d
       0.03838471 -0.042716812 -0.030927368 0.059787095
000090 0d f0 a8 bd f1 cc 30 3d 03 65 6f bd 54 03 78 bc
       -0.08248911 0.043164197 -0.05844594 -0.015137512
0000a0 3f fd 42 bd b8 50 7b 3d 5f bd 5d bd 1d 53 a0 bc
       -0.047604796 0.061356276 -0.054135676 -0.019570882
0000b0 76 73 0e bd ec ca b0 3d fc fb 95 3c 51 0a 87 3d
       -0.03477808 0.08632454 0.018308632 0.065937646
0000c0 fe 44 23 bc 1b 1b 88 3b 56 ca 36 3c d5 29 9f bd
       -0.0099651795 0.004153622 0.011156639 -0.07771651
0000d0 e6 57 96 bd 19 d2 88 3d cd 33 9e bd 90 c9 23 bd
       -0.07340984 0.06680698 -0.07724724 -0.039987147
0000e0 31 28 9a 3d 44 1c 15 3d cc 0f c2 3c ac 29 8c bd
       0.07527197 0.03640391 0.023689173 -0.06843886
0000f0 6e d8 33 3d 0f b0 18 3c 9e ba 3f 3d f3 b3 97 bd
       0.043907575 0.009319319 0.04680883 -0.074073695
000100 4b 86 14 bd 65 e9 84 3d f5 16 53 3d 75 18 ab bd
       -0.036260884 0.06489829 0.051535565 -0.08354274
000110 91 3e 8f bd 25 cb 22 3d a1 33 55 bb 42 38 98 3c
       -0.069943555 0.039744515 -0.0032531994 0.018581513
000120 35 79 29 bc c1 44 c3 3c d6 a7 34 3d 5f bd e9 ba
       -0.010343839 0.023836495 0.044105373 -0.0017832926
000130 73 eb 0f bc b6 ad f6 bc ce d6 8f bd 89 2b 47 3d
       -0.008784163 -0.030112129 -0.070233926 0.048625503
000140 7d 74 75 3b 62 1e 26 39 07 02 01 ba ac b2 65 bd
       0.0037453466 0.00015842312 -0.00049212616 -0.056078598
000150 76 e3 f6 3c 3b 59 e4 3c e5 f6 ab bd 2f 68 18 bd
       0.030137759 0.02787458 -0.08396701 -0.037208732
000160 6f b6 87 3d 10 c7 5c 3d bd 3a 83 3c de a3 f9 3b
       0.06626593 0.05390078 0.01601922 0.0076184114
000170 d0 75 22 3b 39 ec 55 bd 34 3e 07 bc eb 16 ad 3d
       0.002478946 -0.052227233 -0.0082545765 0.08451637
000180 45 72 9c 3d 7c b1 35 3a 4b 1d 96 3c de a4 50 bd
       0.07638983 0.0006931049 0.018324515 -0.05093848
000190 e7 0c 99 3b 76 b5 bf bc c0 78 21 3c 09 73 a9 3d
       0.0046707275 -0.023401957 0.009855449 0.08273894
0001a0 f4 10 7e bd 43 8d 9c 3d 5d 5b 0f 3d 2a 2b 12 3c
       -0.062027887 0.07644131 0.03499924 0.008921424
0001b0 5e 4a af bd 97 3c 09 bd 3e 26 d4 3c 6e c6 df bc
       -0.08559106 -0.03350505 0.025897142 -0.027316298
0001c0 08 3a 5a 3d a2 9d 2b 3d b5 04 57 bd 8e 5f ca 3b
       0.053278 0.041898377 -0.052494723 0.006175942
0001d0 df bc e2 3c 9f c4 af bc ea 3d 0a 3d ba ff 0c bd
       0.027677951 -0.02145606 0.033750452 -0.034423567
0001e0 27 1c b1 bd 9d 47 b4 3d ed a8 6b bd 6f 10 27 3d
       -0.08647948 0.08802722 -0.057534147 0.040787157
0001f0 72 ec 7a bd 6c f4 4f 3c d6 71 6b 3d a3 4a 56 3d
       -0.061260648 0.012692552 0.05748161 0.052317273
