code/models/ppo_uncertainty_checkpoint_500.pt (torch, 75727 bytes, 7 tensors)

encoder.0.weight f4 [128, 5]
00000000: 35b6 3d3e fd45 833d 60d5 abbe 44c7 db3e
00000010: 62f4 8eba 04c3 113e 4d77 c8bd f630 c33e
00000020: 060f 21be 4d49 ecbd 8496 7e3e 36d9 a03c
00000030: 70b5 9a3e 17dc 01be b07a 54be a361 9cbd
00000040: 817d 703e f32a e23d ed25 9b3d 6cf4 a3bd
00000050: d22c babe abe8 73be ae06 513c 89f3 9bbe
00000060: a6b2 3fbe 2cce 91be ba3a 9b3c e549 97be
00000070: 2504 8ebe 30d2 7b3e cac0 85be e7da d6bd
00000080: 4ed6 993e 0ea2 4abe 6e51 d33e b1ec 67bd
00000090: f2cd 8cbe 6487 c1be 8981 ccbd 8bea 713e
000000a0: 2b2f 303d 2e92 7bbe 9d44 dfbe 547d aebe
000000b0: bdc8 6a3e bbbd 023e cea6 8e3e 6bdf 793d
000000c0: 5e18 eb3a cbe0 93be bde1 da3e 76c8 58bd
000000d0: f697 da3e 06c3 b53e d1f8 a7bc 681f 64be
000000e0: db89 c63d 5d92 413e 8568 b6be 74e6 10be
000000f0: e6ca c93e 83d8 b83e 32dd 933e 8d82 aabe
00000100: 3b8c 8e3e 497e b43e cf4d 6ebe 8fe1 e43d
00000110: eb2d 653e 8fa6 b6bd 3c07 79bd 136e 7f3e
00000120: 47bf 933e 6456 823e 702b d7bd 2438 dfbe
00000130: ea50 af3e 7a52 eb3d 3bd0 8ebe cfac 57be
00000140: 5827 c7be f72e 683e 0976 213e ec21 29be
00000150: 9afa 87be f0a9 ea3d 4960 ddbe 405e b2be
00000160: 0a67 4cbe 34b7 81be af9c 29bd b2fd 413e
00000170: 764e 503e b236 d8be 9784 6f3e 0855 8abe
00000180: 4b04 97bd cf29 8c3d eb2f 1bbe c23c f03d
00000190: 87c3 bf3c 56f2 49be 2e14 4f3e 9e1f 153e
000001a0: 9499 c13e c99f 0dbe 2d5d 883e 4dc9 b23e
000001b0: 9d58 ddbe c632 d73e 0b58 c33e ba04 cb3d
000001c0: 815f d73d 5a1d 8d3e db25 63be 727f 04bd
000001d0: fd1b 113c 920c d23e 70ce 88be fdda bf3e
000001e0: 08cf 963e a3a7 f0be 2b65 b23d 64a8 c03e
000001f0: e3a2 83bd 7374 c13e 092f 54be 2e8b 543e
00000200: 3aa0 a63e 49cb 01be ac96 94be 077c b9bd
00000210: ac85 bdbe 3f2d bd3e 8949 d3bd 4a03 9c3e
00000220: c897 8e3e ba22 903d 452b c8be 7e4a 77bd
00000230: 1e7d 72be 45f0 46be 55fb 76be 9b59 78bd
00000240: eeda d53e 4c2f 94be 59db 3f3e 0aab e53e
00000250: 7fc5 74bd 8423 9a3e 2393 c73e 86f2 7dbd
00000260: 24f3 923e 40bd d13d e2ff 9dbe bb05 bc3e
00000270: 1d3a b63e e8bd 69bd 612b e83e df90 a83d
00000280: 8ba1 be3e 34eb c33e 685f 053e be31 533e
00000290: 8769 ce3d 324e 433e 75f6 93be 68a2 afbd
000002a0: 74f5 eb3c a3cf 39be 4891 b5be f4d7 ccbe
000002b0: 099a 5fbe ad02 85be d329 2d3c e0e2 18be
000002c0: 055d e23e 76e2 28be 7e19 9b3c d42f 773e
000002d0: 8a61 a43e e9ca 423e d66e 67bd e55c 913d
000002e0: 068a c43e 0412 c13d 6a04 4ebd 8a83 833e
000002f0: c95f aabe 322c aa3e 2c28 d6bd f13d 07be
00000300: 0122 b73e b405 5a3d f1be 8ebc c46c 47be
00000310: fa78 7a3d 845a 97bd 7a70 d6be 73e9 9e3e
00000320: 3aea c33e 5bbb f9bd 3be6 b53e cd12 693e
00000330: 3116 88be 59cb 853e 0820 5c3e 6f35 133b
00000340: 5cef 7c3d 73c2 87be 5767 423e 2c21 f73d
00000350: 9053 2abe 1b8b 90be d1c9 dd3e 1de7 ba3e
00000360: d353 123e d0ce 903e 8ca3 3cbd 3c74 c0be
00000370: 8ebe a9be 83eb c8be 5032 4b3e b4be 1a3e
00000380: 0c30 85be d538 a13e a484 273e c5dd e9be
00000390: 4632 573c 1efc 983e 45d9 553e b82b a1be
000003a0: c946 7f3e 39ba c0be 7898 9b3e 61b7 40be
000003b0: f48a e43d 81c9 8b3e ab63 d3bd eb23 8abd
000003c0: 4424 cbbe af11 82be b951 e93d 4119 393e
000003d0: 9017 29be b906 e13e 6606 b43e 37a1 5c3e
000003e0: 024f b63e e695 f33d 26f1 4b3e 247e c33c
000003f0: b9cf b33e 5fd6 b83e e75e d83e aa25 033c
0.18526538 0.064098336 -0.3356123 0.42925465 -0.0010906572 0.14234549 -0.0978838 0.38123292
-0.15728387 -0.115374185 0.24862105 0.019634824 0.3021655 -0.12681614 -0.20749927 -0.0763581
0.23485376 0.11043348 0.07575593 -0.08005604 -0.3636232 -0.23819225 0.01275794 -0.3045924
-0.18720493 -0.2847761 0.018948901 -0.29548565 -0.27737537 0.24591899 -0.2612365 -0.10490971
0.30046314 -0.19788381 0.41273063 -0.05662221 -0.27500874 -0.37798607 -0.09985644 0.23624627
0.043013733 -0.24567482 -0.43607035 -0.34079993 0.22928138 0.12767689 0.27861637 0.061004084
0.0017936339 -0.2888244 0.4275035 -0.05292555 0.42694062 0.35500354 -0.020504387 -0.22277606
0.096942626 0.1890349 -0.35626617 -0.14150411 0.39412612 0.36102685 0.28879696 -0.33302727
0.27841362 0.35252598 -0.23271869 0.111758344 0.22380798 -0.08918487 -0.060797915 0.24944334
0.2885687 0.25456536 -0.10506332 -0.4359752 0.3424142 0.114903405 -0.27893242 -0.21062015
-0.38897204 0.22674166 0.15767683 -0.16516846 -0.2655838 0.11458194 -0.43237522 -0.34837532
-0.19961181 -0.25335085 -0.04140919 0.18944433 0.2034243 -0.4222923 0.23390423 -0.27018
-0.07373866 0.06843912 -0.15154998 0.11730339 0.023408664 -0.1972135 0.20222542 0.14562842
0.37812483 -0.13830484 0.26633587 0.34919205 -0.4323167 0.42030925 0.3815311 0.09913011
0.10516263 0.27561456 -0.2218241 -0.032348104 0.008856771 0.41025215 -0.2672 0.37471762
0.29454827 -0.47002897 0.087107025 0.37628472 -0.064275526 0.37784156 -0.20721067 0.20756218
0.32544118 -0.12675203 -0.29021204 -0.090568595 -0.37016046 0.36948583 -0.1031676 0.3047126
0.27850175 0.070378736 -0.39095512 -0.060373776 -0.23680541 -0.19427593 -0.24119313 -0.06063233
0.41768593 -0.28942335 0.18736018 0.44857055 -0.05975866 0.3010522 0.38979444 -0.061998866
0.28701127 0.10241175 -0.30859286 0.36723122 0.35591212 -0.057065874 0.45345595 0.08230757
0.37232623 0.38265383 0.13024676 0.20624444 0.100787215 0.19072798 -0.2889897 -0.085758984
0.028803565 -0.18145613 -0.35462403 -0.4000851 -0.21836103 -0.25978604 0.010569054 -0.14930296
0.44211593 -0.16492638 0.018933054 0.24139339 0.32105666 0.19022717 -0.056502186 0.07097796
0.38386554 0.09427264 -0.05029718 0.25686294 -0.33276203 0.33236843 -0.10456881 -0.13207223
0.3576813 0.053228095 -0.017425032 -0.19475085 0.06115053 -0.07390311 -0.41882688 0.31037483
0.38264638 -0.12193938 0.35527214 0.22761078 -0.2657943 0.26131704 0.21496594 0.0022462269
0.06175171 -0.2651554 0.18984734 0.12066874 -0.16633439 -0.2823113 0.43318036 0.3650445
0.14289789 0.28282785 -0.046054408 -0.3758868 -0.33153194 -0.3924218 0.19843411 0.1511181
-0.2601322 0.31488672 0.16359192 -0.4567701 0.013134545 0.2987985 0.20883663 -0.31478667
0.24929346 -0.37642077 0.30389762 -0.18819954 0.11159316 0.27302173 -0.103217445 -0.06745132
-0.39676106 -0.25404117 0.113925405 0.1807604 -0.16512895 0.4395044 0.35161132 0.21545874
0.35607153 0.11893825 0.1991621 0.02386386 0.35119417 0.36101052 0.42259905 0.008004585

encoder.0.bias f4 [128]
00000000: 7f82 77be 9d34 a63e cfb7 383e c341 9e3d
00000010: 31d5 9bbe 8819 33be acc5 73be 0ebe 9a3e
00000020: 8ea5 96be fb13 66be 6dc6 f13d 6453 1bbd
00000030: ace2 06bd 4474 013e d45e 2abe 6fdb 48be
00000040: b26c d33d 6616 bebd 2a72 b23e 0c56 953d
00000050: fcce 8cbe 8c88 7b3e 45d7 cd3e 79df f2bb
00000060: 3988 da3e c844 cd3e 5232 7cbd eb9e 16be
00000070: 9b1c 3abe 459d 65be 2085 133e 557b b9bd
00000080: 72a8 ce3e f766 b8be 65ab d3bd da59 203d
00000090: 7014 4ebe df5f 823d f4e2 64be 5fcf af3e
000000a0: b4af cd3b 943e b1bd bd5b 2c3e fa5e b53e
000000b0: 38d9 36be b846 9cbe c346 6b3e 86f5 e9be
000000c0: 7652 413e dce8 abbe cd9b 9f3e ac96 c03d
000000d0: d745 b93e 20ab e43d 8b6d 523d 69ef 053e
000000e0: 8856 983e 2cce 0dbe 5062 933e d1f4 34be
000000f0: ccb0 0a3e 22b5 48be 5c4b ccbd bb49 c93e
00000100: c2bb c13e b20a 70be 989b 97be f2fd 9e3e
00000110: c9ef d3bd 0ece e33d 0915 8b3e 42f4 af3e
00000120: dd5b 4a3e 9c1e 63be 64c7 b93e d7b1 b8be
00000130: e458 6e3e 31f6 bb3e 2f33 253e 306f dbbd
00000140: b24f 833e 7817 df3e aa86 093c 1b2d 293e
00000150: 3024 6ebe c8d6 9f3e 4b7f 1cbd 429b 1ebd
00000160: d621 b4be 8727 ebbd d23c 673e 3e7a c63e
00000170: dc6b bfbe 13bf 3e3e 8078 973e 502e a73e
00000180: deca 563e 96ee 9abe 22b5 99bd 4fbd c8be
00000190: 3826 4cbd a106 e73b f654 b0be 9e27 0f3d
000001a0: ae89 0dbc 0b9b 36be 0477 c93e e84c 973e
000001b0: 59b8 663e cb67 dd3e 144a 8fbd 6488 c5be
000001c0: fe87 8e3e 140b 1cbe 2196 94be a282 f53d
000001d0: 65f7 923b 1875 b7be e79c 933e 1586 a23e
000001e0: 772d e43d 8319 d4be ce6c b13e 1745 a63e
000001f0: 37ef d53d 894f da3d 9f71 923c 8155 bbbe
-0.24170874 0.32462016 0.18038867 0.07727387 -0.3043609 -0.17490208 -0.23805875 0.30223125
-0.29423183 -0.2246856 0.11805425 -0.037921324 -0.032931015 0.12642008 -0.16637737 -0.19614957
0.10323466 -0.09281616 0.34852725 0.07291803 -0.27501667 0.24563807 0.402033 -0.007411894
0.42682055 0.40091538 -0.061571427 -0.1470906 -0.18174975 -0.22423275 0.14406252 -0.09056727
0.4036289 -0.36016056 -0.10335425 0.03914819 -0.20124984 0.06365942 -0.22352201 0.343379
0.006277049 -0.08654514 0.1683187 0.35424024 -0.178563 -0.30522704 0.22976212 -0.45695132
0.18879113 -0.33576095 0.31173554 0.094037384 0.36186096 0.11165452 0.051374 0.13079609
0.29753518 -0.1384818 0.28785944 -0.17671515 0.13544005 -0.19600347 -0.09975311 0.39314064
0.3783856 -0.2344158 -0.29610896 0.3105312 -0.1034847 0.11123286 0.27164486 0.3436604
0.19761606 -0.22179645 0.36284935 -0.3607318 0.23276097 0.36711267 0.16132806 -0.10714567
0.2564674 0.43572593 0.008393923 0.16521113 -0.23255992 0.31218553 -0.038207334 -0.038722284
-0.35182065 -0.114821486 0.22581795 0.38765138 -0.37386978 0.18627577 0.29584122 0.3265252
0.20975825 -0.30260152 -0.075052515 -0.3920693 -0.049841136 0.007050351 -0.3443982 0.03494989
-0.008638782 -0.17832582 0.39348614 0.29550862 0.2253126 0.4324325 -0.06996551 -0.3858062
0.2783813 -0.15238601 -0.2902079 0.11987807 0.004485058 -0.35831523 0.28830644 0.3174292
0.11141484 -0.41425714 0.34653324 0.32474586 0.10446017 0.106597014 0.017876444 -0.36588672

encoder.2.weight f4 [128, 128]
00000000: 0523 473d f6b5 27bd 2bcc 333c 7856 afbd
00000010: fd5e 0abc bc3e df3c d445 40bc ee4b 7ebd
00000020: 4f59 6bbd 3f7d dcbc 118b a0bd efda e23c
00000030: 522b 8a3d 7127 16bd 7a04 44bd 6997 523d
00000040: 8a92 793d ddc4 4c3d 0aee a03d d487 85bd
00000050: a7bc 6c3d 7976 263d 6f0c 5abd 3634 893d
00000060: ad74 9b3c 8cd5 24bd 2a88 b0bd db44 1b3d
00000070: 72ee a1bd 80d1 1f3d 93b3 6ebd f709 45bc
00000080: aab6 013d cb3d f2bb 1d39 b0bd 3576 af3d
00000090: ebb8 c0bc f76b 60bd 37d6 a5bd a901 7dbd
000000a0: 80d3 a43d d05b 363c ad8b a9bd d503 9e3d
000000b0: 6fb0 abbd 8089 923d ad17 c4bc 4aff 023d
000000c0: 09e3 8b3d b0b1 283d 62ff 4cbd a9ed a4bd
000000d0: 57aa 94bd dd44 bcbc 99f5 6d3d bdd8 923d
000000e0: fb97 ccbb 4769 123d efac 91bd 4ca4 6bbd
000000f0: 2557 82bd 44ab a6bd 14b5 a93b 7e1b 89bd
00000100: fde7 973d f88e b0bc 6ad2 debc 60f0 523d
00000110: b4b3 8b3d adb2 613b 0a61 a2bc 4f6f d6bb
00000120: 99d8 32bd b0dc cdbc ee49 8abd a18a 993d
00000130: ef59 77bd b6c1 96bd 5c54 873d bd2d 9ebc
00000140: 5824 76bd 420f f43c db1d 803d 1bf4 913d
00000150: 8c51 723d de90 87bd a050 823d 1879 123d
00000160: f487 a23d 5a79 643d 1217 9f3a cc67 813c
00000170: 40f3 36bc 7d2e 013d af58 853c 6a1e a0bc
00000180: d65b 48bd 08b3 8c3d 3315 e4bc 9400 723d
00000190: a9c8 103d 8d5d dcbb 276a 673d 0491 453d
000001a0: ecf2 173d 428b aebd aa08 0abd 9869 8fbd
000001b0: 1a00 6ebd 7372 663b b40d fabc 280d afbd
000001c0: 5e80 38bd 9199 753b 7803 db3b cfee 8d3d
000001d0: aa6f f2bb f938 d53c e0cb 2cbd 52ac 0ebd
000001e0: 19ed 923b 299b 3c3d cff9 873d e620 8dbd
000001f0: f588 013d 259e 81bd c070 8abd 512c 4e3d
00000200: 470d 643c 9d50 273c 7ae6 aa3d da0f 8b3d
00000210: 6c5b 05bd 3dd3 8e3c 66f4 a6bd ebfa 8f3d
00000220: e23d 76bd 43c7 513d e272 c4bc 800f a9bc
00000230: 3283 7c3d b13f b13d fb67 5e3d 4fe4 84bd
00000240: 1fab 8b3c 8fb2 43bd cdfc af3d 12a6 6f3d
00000250: 8cac 953d a68a 26bd 8255 843d 1d1a e43c
00000260: f349 b1bd de11 833d 28c7 7cbd 2d45 8b3d
00000270: 68ab 9a3d 6b55 88bd f4c5 5e3d 7bc8 0f3c
00000280: 6a14 aebc 0df3 4cbd afda b13d 70c9 acbd
00000290: 1cb2 37bd c77e b2bd 5b74 cd3d 61f6 babd
000002a0: d79d 963d 40a1 1abd b512 8e3d e661 153d
000002b0: d254 02bd 42c0 d73c 0ef4 9b3d 8b95 0dbb
000002c0: 98c0 a03d 132e f73b 18de d0bc 7ede 6e3d
000002d0: 843f 9dbd 101b dfbb f90f 883d 9924 a7bd
000002e0: 49db 933d 9b08 b43d 9dac b1bd 42ad 45bd
000002f0: 9982 9dba d8a9 ff3c cdb6 57bc 5c25 893c
00000300: 6762 56bc a0be 733d 56d4 9e3d f016 7cbd
00000310: da78 0a3c d4ac 8c3d 6297 49bd 320d 80bc
00000320: 2f12 513c 2033 883c 9dec 50bd 341b 38bc
00000330: 9ba0 303d c01a 623c 5dba dcbc 3b2d 7fbd
00000340: 02ec 603b 246c 92bd e0fa a8bd 81d5 fdba
00000350: 58f5 c93b c31b 443d 65bb 0fbc 6394 b73c
00000360: 77f7 2abd d40d e9bc c618 0a3d 5ca2 7e3d
00000370: ed07 593c cd0b 86bd 5fec ffbc 4f25 88bd
00000380: 1a3b fa3c ac4a 50bc f3f9 86bd 1857 9f3d
00000390: 18ad a9bd 3e62 eabc d739 aabb 8ce0 a93d
000003a0: 8fb6 7b3d 3368 773d e7ec a03d 1c2c ae3d
000003b0: bdfb 813d 4695 25bd 9861 00bd 86d2 2fbd
000003c0: 0777 e8bb 6cb6 8e3c 7b40 5f3d 603a 6e3d
000003d0: 70c8 ba3b b253 70bd e30b b1bb 7b31 ef3c
000003e0: fb87 ae3d 955a c83c df14 dcbb 58f9 b5bd
000003f0: 3fa9 aebd be0f bf3d dcd0 49bd e7d3 c2bc
0.04861738 -0.040945016 0.01097397 -0.085614145 -0.0084454985 0.027251594 -0.011735398 -0.06208413
-0.05745822 -0.02691519 -0.07839025 0.027692286 0.06746544 -0.036658708 -0.04785583 0.051413927
0.060930766 0.04999243 0.07857902 -0.06520048 0.0577971 0.040640328 -0.053234514 0.066994116
0.018976534 -0.040242717 -0.08619721 0.037907463 -0.07906808 0.039018154 -0.058276724 -0.012026302
0.031668343 -0.00739262 -0.086046435 0.08567468 -0.023525676 -0.054790463 -0.08097499 -0.06176916
0.08048153 0.011130288 -0.08278594 0.07715575 -0.083832614 0.07155132 -0.02393707 0.031981744
0.06830413 0.04118508 -0.05004824 -0.080531426 -0.07259052 -0.022982055 0.05809555 0.07170246
-0.0062437034 0.03574493 -0.071130626 -0.057529733 -0.06364278 -0.08138135 0.005179057 -0.06694697
0.07417295 -0.021552548 -0.027199943 0.05149877 0.06821385 0.0034438774 -0.019821662 -0.0065440307
-0.043663595 -0.025129646 -0.06752382 0.074971445 -0.0603885 -0.07361166 0.06607887 -0.01930892
-0.060093254 0.029792432 0.062556945 0.071266375 0.0591598 -0.06619428 0.06363034 0.035760015
0.07936087 0.055779792 0.0012137613 0.015796565 -0.011166394 0.031538475 0.01627764 -0.019545753
-0.048915707 0.06870085 -0.02784214 0.059082583 0.035347614 -0.0067250193 0.05649772 0.048234
0.037096903 -0.08522655 -0.03369967 -0.07002562 -0.058105566 0.0035163432 -0.030524112 -0.08547431
-0.045044295 0.0037475566 0.006683763 0.06930315 -0.0073985653 0.026028143 -0.042186618 -0.034832306
0.0044838306 0.04604641 0.06639444 -0.068910405 0.031624753 -0.06328992 -0.067597866 0.050335232
0.013919181 0.010212091 0.08344741 0.06790133 -0.03255789 0.01743471 -0.08152084 0.07030281
-0.06011761 0.05121542 -0.023980562 -0.020637274 0.061648555 0.08654726 0.054298382 -0.06488859
0.01704937 -0.04777771 0.0859314 0.058507986 0.07308301 -0.04065957 0.06461622 0.027844483
-0.08656683 0.06399892 -0.061713368 0.068003036 0.075522244 -0.06656917 0.054388 0.008775826
-0.021249969 -0.05003648 0.08684289 -0.08436859 -0.044847593 -0.08715587 0.10031959 -0.09129024
0.07354324 -0.037751436 0.06937162 0.036470316 -0.031819172 0.026336793 0.07614909 -0.0021604027
0.07849234 0.0075433343 -0.025496528 0.058317654 -0.0767813 -0.006808646 0.066436715 -0.08161277
0.0721956 0.08790704 -0.086755015 -0.048260935 -0.001201707 0.031208917 -0.013166142 0.016741447
-0.013084984 0.059507966 0.077553436 -0.061545312 0.008451665 0.06868902 -0.049216636 -0.015631292
0.012760683 0.01662594 -0.051006902 -0.0112369545 0.043121915 0.013800323 -0.026944334 -0.062298995
0.003432036 -0.071495324 -0.082509756 -0.0019365997 0.0061632805 0.04787804 -0.008772706 0.022409623
-0.041739907 -0.028448977 0.033715032 0.062166557 0.013246519 -0.065452196 -0.03124064 -0.06647741
0.03054576 -0.012713116 -0.06590643 0.07780284 -0.08284968 -0.028611299 -0.0051948833 0.08294782
0.0614534 0.060402106 0.078576855 0.08504507 0.063468434 -0.04042556 -0.031343073 -0.04292538
-0.0070942673 0.01742097 0.054504853 0.05816114 0.0057001635 -0.058673568 -0.0054030283 0.029198399
0.0852203 0.024457255 -0.006716355 -0.08885449 -0.08528375 0.093291745 -0.04927145 -0.023782684

encoder.2.bias f4 [128]
00000000: 4d8e b93d e705 c0bd 7402 723d e112 713c
00000010: 1aab 9ebd 94fd 86bd 919d 85bd f27d 543c
00000020: 3cbd b6bd 5036 30bd fbeb a13d aa25 11bb
00000030: 8154 acbd 84c2 68bd cbf1 6b3c 8bd4 1a3d
00000040: 9e44 abbc 952e 22bd 879c 2fbd ff7d 993c
00000050: 67fb fdbc b073 a6bd 46f8 0f3d 8c99 c6bc
00000060: d07d 123d b35b 63bd dbbf a03d 366c 8cbd
00000070: ce13 84bd 3fc3 d93d 3759 5e3d 3c29 0238
00000080: 7d6f 3c3d 73c9 cf3d 2f14 563d e7dc 233d
00000090: 80c5 94bc 2e7d bbbd 79e6 a23d 5ee4 8b3d
000000a0: 923e 88bd 6da2 763d fef0 2f3d 20e2 273d
000000b0: 17a1 843b 4ad2 e23c eec5 5c3d a27b df3c
000000c0: 60f2 5a3c fc0b 5f3d 4c68 33bd 6381 853d
000000d0: 1121 363d 3ce2 af3c 79cc 68bd f4f5 d13c
000000e0: b1ae 013d 049c d83d dd21 8f3d bd51 89bc
000000f0: 0a5a 843d b93d e53c f549 71bd 6ffa e4bd
00000100: 0cd5 5e3d c334 cfbb c626 023d 7a9a e6b8
00000110: 1a1c c6bc a1ba 513d f2e3 fe3b ad85 673c
00000120: a147 fbba 81d9 e5bc 3234 6ebd 3e4e 83bc
00000130: 7fe0 1e3d 8c22 493d 2064 533b 52c5 9c3c
00000140: 3834 a83c 71b8 9b3d 5039 f13b 1d43 a53d
00000150: b81e 423d f7a7 87bd c091 9a3d 0782 2f3c
00000160: df0e 7a3d 35f9 d7bd d65b 213d 00c9 4b3d
00000170: e0bc 0ebd 30c8 f0bb 8f44 0bbd a20b 733d
00000180: 3adc 6a3b bc42 a3bd bd9a d73c 84e6 60bd
00000190: ad51 8bbc b6b2 16bd 9250 7fbd 60ab ce3b
000001a0: 3914 22bd 8482 22bd 265b 133c 150a 64bc
000001b0: 17bd afbd 83f9 c539 be74 673d 650d 99bd
000001c0: fc80 e73d f8cf babd ee7b 7b3b 3ba5 9a3d
000001d0: d545 b23c 87bd 4ebb 7907 a03d df2e 813d
000001e0: 9ee3 e1bd f767 283d 7d61 b0bc b980 0ebd
000001f0: c687 073d a458 acbd ae02 933d 2821 9d3d
0.09060345 -0.09376126 0.05908437 0.014713974 -0.07747479 -0.06591335 -0.06524194 0.012969481
-0.08922812 -0.043020546 0.07906338 -0.0022147694 -0.08414555 -0.05682613 0.01440091 0.037800353
-0.020906743 -0.039595205 -0.042873885 0.018736837 -0.031003667 -0.081275344 0.03514888 -0.024243139
0.035764515 -0.055507373 0.078490935 -0.06856577 -0.0644909 0.10632943 0.0542843 3.1032818e-05
0.04600476 0.10145845 0.052265342 0.04000559 -0.018160582 -0.091547355 0.079541154 0.06830667
-0.06652559 0.060213495 0.042954437 0.040987134 0.0040475237 0.027688164 0.053899698 0.027280632
0.013363451 0.05445479 -0.043800637 0.06518819 0.04446513 0.021470182 -0.056835625 0.025629975
0.03166074 0.105766326 0.06988881 -0.016762609 0.06462486 0.027983533 -0.05890842 -0.11180579
0.054402396 -0.0063234284 0.03177526 -0.00010996028 -0.024183322 0.051203374 0.007778638 0.014130992
-0.0019171127 -0.028057816 -0.058155246 -0.01602852 0.038788315 0.049105212 0.0032255724 0.019137058
0.020532712 0.07603539 0.0073615685 0.080694415 0.047392577 -0.066238336 0.07547331 0.010712153
0.06104934 -0.10545579 0.039394222 0.049752235 -0.034848094 -0.007348083 -0.03400093 0.059337266
0.0035836832 -0.07971713 0.026318902 -0.054907337 -0.01700672 -0.036791526 -0.062332697 0.0063070506
-0.039570067 -0.03967525 0.008993899 -0.013918419 -0.08580988 0.0003776067 0.05650782 -0.07473258
0.11303899 -0.09121698 0.0038373428 0.075510465 0.021761814 -0.0031546073 0.07813925 0.06307768
-0.11029743 0.041114774 -0.021530861 -0.03479073 0.033088468 -0.08415344 0.071782455 0.0767234

actor.weight f4 [4, 128]
00000000: 0425 f4bc a090 b53d 9a9e b43d 6a38 a73b
00000010: 5ff3 4f3c 19c9 0ebd dfe1 a63d b732 59bc
00000020: 7414 39bd e943 24bd 24a9 b0bd 8bab a3bd
00000030: 1db5 673c 4b51 4dbd 79e2 4abb 213d 343d
00000040: d2a1 b13c ec09 7b3c d46a 2b3d d91a 81bd
00000050: 5486 58bd 830b 813c 0af2 c73c a609 a43d
00000060: 2490 5bbd 745c 01bd 2fd8 6e3c 0392 413d
00000070: b8f7 8c3d 374f 993d c351 78bc 0754 ad3d
00000080: 2140 7839 a429 76bd 4f6c 2fbd b0cb 11bc
00000090: b40d 2ebd d068 6cbd b60c 49bb 84f8 ae3c
000000a0: a97f 203d aa5b 1b3d cb36 aa3d 006c 613d
000000b0: 8f72 143d 7138 853c 36c6 023d 1424 8b3d
000000c0: aa5f fe3c bf13 5abc 85e6 b53d 5d28 86bd
000000d0: b550 24bd 1d21 943d c3d6 aa3d a5b4 d33c
000000e0: c689 4cbc 7849 d0bb 7458 9dbd 8699 e33c
000000f0: a82f e6bb 4226 95bd 9b8d 86bd 402a 3f3c
00000100: b44b 283d 5dfd 97bd 9f96 fa3b 1aa4 e33c
00000110: 48ba f1bc 8648 993d 5724 703d 9476 08bd
00000120: 4588 08bd c60e 7a3d 6060 b03d 12f3 9e3d
00000130: 5ed9 23bd fef4 a6bd 33a7 1ebd 64e3 d1bb
00000140: 6054 e6bc 7d7d 9a3d 98ba e23b ae56 99ba
00000150: c8dc 3f3c 6bc7 b7bc 1ed8 293d 93b3 f7bc
00000160: 7c1c 923d 301a 9d3d 52c5 60bd ba31 46bd
00000170: 9204 9abd a31c 2c3d f8c0 963c b396 56bc
00000180: 1495 783d fed7 5c3d 31ed aa3b b0d2 8e3d
00000190: 1f43 72bd bc7a 74bd 4f96 38bd 1b12 9cbc
000001a0: 0e9b 84bd 1096 9d3d de9d e6bc 4875 4dbc
000001b0: 4b1c 91bd 1373 a6bd 8c1c afbd 0c2f b8bc
000001c0: 2608 54bc ae27 d1bc b6fb 403d ccdf a63d
000001d0: cbc2 0bbd bdb6 90b9 650d 04bd 2d17 8c3d
000001e0: 14a0 883c 8f42 b2bc fb8f ccbc ce58 98bc
000001f0: 6780 aebd 797e 5d3d 66e7 943d a93c 17bd
00000200: 78be 09bd a78a 7e3d 41f7 0cbd 2c7e b7bd
00000210: 687d 8bbd 2409 263c de85 2abd 08bd d93c
00000220: 2eb9 163d f171 e6bc 8774 88bd 0424 25bd
00000230: 491e ae3d 4567 033d fa19 123d fc25 6c3d
00000240: dc60 923d f999 493d 45e9 123c e7ea a9bd
00000250: e5d9 133d aeb4 2d3d 6015 4f3c 4783 233a
00000260: 78ec 833d 83c6 8e3c 1ee6 74bc 9215 d63c
00000270: 6465 4ebd 5e33 05bd c1ad 28bc 7e5f 433d
00000280: 103c 933c e071 afbd baa0 5bbd 214e 3abc
00000290: b4ae 1d3d b196 283d 76b6 b43d 0ad0 70bd
000002a0: 467c b9bd 7910 86bd a0d9 b53c 6b68 8cba
000002b0: 7fb6 2d3d 6f14 663d 96a6 bdbc 065d 32bd
000002c0: 0582 a1bd a90d 66bd 0142 d6bc a77e 583d
000002d0: a24b af3d bce8 553a 243e b4bc 8ef1 d5bc
000002e0: 4b1d 7e3d 03e7 a9bd 3c4e 973d c464 40bc
000002f0: 5501 203b 42bd 8d3d 6454 843d de14 acbd
00000300: a3c9 9e3d b398 45bc 1588 953d ff1e adbd
00000310: 0467 aa3d 983d 6fbc 4be5 953d 22ec 4bbd
00000320: f942 ec3c 10e7 813c 181a dbba a2ed 353c
00000330: bf4b 35bd c705 2bbd 9710 8c3d 3dfa 8fbd
00000340: a41b adbd 4ba0 3a3d 0dca fdbc 2c57 443d
00000350: be3d 1b3d 2d71 5e3d 3829 c73b fcfa 27bd
00000360: ac6e 313d 4a0a 1a3d c266 46bd 0e91 f23b
00000370: 3311 b2bd 6347 8ebc 4d3c f0bc 003d a13d
00000380: d90a 1ebd 2126 aabc 19b4 953c c813 f0bc
00000390: 5715 8c3d 146a 60bc f307 b73d 66e9 813d
000003a0: daa5 8bbc 62a0 9f3d 69d3 3bbd 9060 96bd
000003b0: c642 803d 4c30 c03c 8b64 fbbc 9975 ac3c
000003c0: 7e47 92bc fb1a 81bd 5f6e 41bd ad68 a63d
000003d0: 0503 0b3d 4404 223d 3c9d bfbb fbd9 cc3a
000003e0: fc94 933d cee5 9b3d f707 813d 209b 713d
000003f0: 4f93 ff3c 95e3 86bc 7567 e0bc 48f1 ac3b
-0.029802807 0.08865476 0.08819313 0.0051031606 0.0126923015 -0.03485975 0.0814855 -0.01325672
-0.04518552 -0.040103827 -0.08626011 -0.079917036 0.014142302 -0.050126355 -0.0030957742 0.04400361
0.021683607 0.01532219 0.041849926 -0.06303949 -0.05286248 0.01575256 0.024407405 0.08009653
-0.05360426 -0.03158231 0.014577909 0.04725839 0.06883186 0.07485812 -0.015156212 0.084632926
0.00023675013 -0.060098305 -0.0428279 -0.008898661 -0.042493537 -0.057717144 -0.0030677742 0.021358736
0.039184246 0.037929215 0.08311232 0.055034637 0.036242064 0.016262265 0.03192731 0.06793991
0.031051476 -0.013310372 0.08881859 -0.065506674 -0.04011603 0.07232878 0.08341744 0.025842974
-0.01248402 -0.0063564144 -0.07682887 0.027783167 -0.007024724 -0.07282688 -0.06569978 0.011667788
0.04108782 -0.07421372 0.00764735 0.02778821 -0.029507771 0.07484536 0.058628406 -0.03331621
-0.03333308 0.061049245 0.08612132 0.07761206 -0.04000222 -0.08152197 -0.038733672 -0.006405281
-0.028116405 0.07543466 0.0069192164 -0.0011698806 0.011710353 -0.022433957 0.04146587 -0.030236995
0.07134339 0.076710105 -0.05487568 -0.048387267 -0.07520403 0.042019498 0.018402562 -0.013097453
0.060689047 0.053916924 0.0052162637 0.06973779 -0.059146043 -0.05968736 -0.04506522 -0.019051602
-0.06474887 0.07694638 -0.028151449 -0.012540169 -0.070854746 -0.081274174 -0.08550367 -0.022483371
-0.012941396 -0.025531616 0.04711505 0.081481546 -0.034121316 -0.0002760197 -0.032239337 0.06840358
0.016677894 -0.021760253 -0.024970999 -0.018597033 -0.085205846 0.05407569 0.07270698 -0.036923084
-0.03362891 0.062143948 -0.034415487 -0.08959612 -0.06811029 0.010134015 -0.041631572 0.026579395
0.036797695 -0.028130503 -0.06662851 -0.04031755 0.0850187 0.032080907 0.035669304 0.057653412
0.07147381 0.049219105 0.008966749 -0.08296757 0.036096472 0.042408638 0.012639374 0.00062375184
0.06441587 0.017428642 -0.014947442 0.026133332 -0.050389662 -0.03251969 -0.010295332 0.04769849
0.017972976 -0.08566642 -0.053620078 -0.011371166 0.038496688 0.041159336 0.08823864 -0.05879215
-0.090569064 -0.06546111 0.022198498 -0.0010712271 0.04241037 0.05617183 -0.023150723 -0.043545745
-0.078861274 -0.05616537 -0.02615452 0.05285516 0.08559348 0.00081599853 -0.022002287 -0.026116159
0.062039655 -0.08296015 0.07387969 -0.011742774 0.0024414856 0.06920864 0.06461409 -0.084024176
0.07753303 -0.012060332 0.07301346 -0.08453178 0.0832043 -0.014602087 0.07319125 -0.04978574
0.028840529 0.01585725 -0.001671615 0.011104019 -0.04426169 -0.041753557 0.06839102 -0.07030151
-0.08452538 0.045563024 -0.030980134 0.047934696 0.03790068 0.05430715 0.0060779117 -0.04101084
0.043318436 0.03760747 -0.04843784 0.007402546 -0.08694687 -0.017368024 -0.029325629 0.07872963
-0.038584564 -0.020770134 0.018274354 -0.029306307 0.06840008 -0.013697166 0.08937063 0.06343345
-0.017046858 0.077942625 -0.045855913 -0.073426366 0.06262736 0.02346053 -0.030687591 0.021052169
-0.017856356 -0.06303974 -0.0472244 0.08125434 0.033938427 0.03955485 -0.005847601 0.0015628928
0.07206151 0.07612191 0.06300347 0.05898583 0.031198172 -0.016465941 -0.027393082 0.0052777864

actor.bias f4 [4]
00000000: 927b 383d e413 8abc bef8 70bd 2fc2 e2bc
0.04503972 -0.016855188 -0.05883097 -0.027680485

critic.weight f4 [1, 128]
00000000: bde3 853d 58f6 8abd e0cb 5e3d 80c2 823d
00000010: f286 fdbc 8935 82bd 7398 95bd 4082 3cbd
00000020: 2544 7b38 2fed a0bd 7256 26bd a064 82bd
00000030: 1f60 82bd 98bb 8ebc 84c1 973d 87d8 1dbd
00000040: 1ae7 103d 9565 293d a1f1 3ebd 861a 8c3d
00000050: 94bb b4bc e29c 443d a54d 793d bc83 28bd
00000060: be58 01bd 0f66 a4bd c172 34bc eeed a0bb
00000070: 1d82 833c 75e1 873d 6ce9 1cbd 54d9 d53b
00000080: 3687 473d b804 c73c 6b43 1a3d 66e3 13bd
00000090: 82ed 9e3c 251f a8bc f3a9 9f3d 3ccc 4e3b
000000a0: 103f b1bc c1d2 963d dd1a c5bc 5d7e 6f3d
000000b0: 33e9 a43d b831 1737 bb1a 0cbd c368 a33d
000000c0: c649 933d 2012 953c 63ea 53bd 7d97 7cba
000000d0: 2ac0 aabd 833c 63bd 4978 373c 51ab 31bb
000000e0: a166 e73c 2989 a23d ac8f fb3c 6546 553d
000000f0: 94c8 353d c198 523d 859f 4fbc 8be0 b3bd
00000100: 2446 413d b346 8fbb db27 43bd 2345 0b3d
00000110: 6fd7 183d af70 a03d ae4b 7f3d 0d3e 183d
00000120: 0e7c 31ba 1734 8dbd ae26 90bd 5848 c63c
00000130: e53d 553d 310a 84bd cffa 47b8 acbd 66bc
00000140: b3e9 a03d 37cf 32bd 50f5 4ebd d341 6a3d
00000150: 1551 afbd a6bc fbba e98c 2fbd de1d 98bd
00000160: f6c5 8e3d 4581 6fba 8ae0 a23d 71ea acbd
00000170: fcd2 d93c a5c0 fa3c d38f 853d 608a 8abd
00000180: 688e 7abd d73b 8bbd 2ae8 55bd fe44 023d
00000190: d960 143c daf2 f23c 07d1 7aba 2958 56bd
000001a0: 8bd5 6e3b 921b 7e3c 218f d13c 4bb3 f6bc
000001b0: 7197 39bd b405 923d 1e3a 17bd aed9 78b9
000001c0: f3e9 e63c a59f 85bc 1494 a33c d226 0f3c
000001d0: 54da 123d 7cd8 1ebd fb7b b2bd 314e aeba
000001e0: 1897 73bd ecd1 873c 8704 293d a025 583d
000001f0: 21af ddbc 5603 8b3c f67c b43c 433a 943d
0.06537578 -0.067852676 0.05439365 0.06384754 -0.030948136 -0.06357867 -0.07304468 -0.046022654
5.9906528e-05 -0.07857739 -0.040609784 -0.06366849 -0.0636599 -0.017423436 0.07409957 -0.038536575
0.035376646 0.04135664 -0.046617154 0.068409964 -0.0220621 0.048001178 0.060865063 -0.041141257
-0.03157877 -0.08027279 -0.011013688 -0.004911176 0.016053254 0.066347994 -0.038308546 0.0065261517
0.04871293 0.024294242 0.03766195 -0.036105536 0.019400362 -0.020522663 0.07796087 0.0031554839
-0.021636516 0.07364417 -0.024060661 0.05847012 0.08052292 9.011877e-06 -0.03420518 0.07978966
0.071918055 0.01819712 -0.0517372 -0.00096356106 -0.08337434 -0.05547763 0.011198112 -0.002711017
0.02824718 0.079363175 0.030708157 0.052069087 0.04438074 0.05141521 -0.01267231 -0.087830625
0.047186032 -0.0043724417 -0.04764543 0.03400148 0.03731483 0.07833993 0.062328033 0.03716855
-0.00067705 -0.06894701 -0.070386276 0.024204418 0.05206098 -0.06447256 -4.767888e-05 -0.014083307
0.078570746 -0.043654647 -0.050526917 0.05719168 -0.08560387 -0.0019206002 -0.04285899 -0.07427572
0.06971352 -0.0009136389 0.07952984 -0.08443154 0.026589863 0.030609438 0.06521573 -0.06764674
-0.061170965 -0.06798523 -0.052223362 0.031804077 0.009056293 0.029656816 -0.00095678907 -0.05233017
0.00364432 0.015509503 0.025580944 -0.03011479 -0.04531044 0.07129994 -0.03692066 -0.00023732215
0.028187728 -0.016311476 0.01996807 0.008737283 0.035852745 -0.038780674 -0.08715054 -0.0013298449
-0.059470266 0.01657959 0.041264083 0.052770257 -0.027061047 0.016969364 0.022032242 0.07237675
