code/models/ppo_trained_500ep_uncertainty_v2.pt (torch, 75755 bytes, 7 tensors)

encoder.0.weight f4 [128, 5]
000000 4d 01 c5 3e b7 16 94 3e c1 24 a5 be ae 92 8c be
       0.38477555 0.2892358 -0.32254604 -0.27455658
000010 1d 1c bc 3e 5b 1f bf bc f1 cd 25 3e 19 4b 5b be
       0.367402 -0.023330381 0.16191842 -0.21415366
000020 9e 7d cd 3e 90 68 95 3e 63 1e 0c bd 10 44 e6 bd
       0.401349 0.29181337 -0.034208667 -0.11243451
000030 80 9e b7 be e0 d5 b1 be 8b 99 4c 3e 4c 28 14 be
       -0.35863113 -0.34733486 0.19980447 -0.14468497
000040 ff 07 d4 be f3 22 2d 3e 43 9c 21 be e9 65 57 be
       -0.4141235 0.16907863 -0.15782265 -0.2103497
000050 46 85 c1 3e 93 80 b3 be 6e e8 d1 3d 90 89 97 be
       0.37796992 -0.35059032 0.102494106 -0.2959714
000060 bf 01 b4 3e b3 33 d8 be 2a 08 87 3e f9 bc ba 3e
       0.35157582 -0.42226943 0.26373416 0.364723
000070 c9 02 78 3e a1 38 bb be 9a 70 19 3e 78 16 df be
       0.24219812 -0.36566642 0.1498436 -0.4357183
000080 5e 4a d0 be 55 a7 3a be 5c f2 b7 3c c4 60 e6 3d
       -0.40681738 -0.18227895 0.022454433 0.11248925
000090 da 35 d1 bd db 22 db 3e 8c 06 d2 be 6f e4 24 3e
       -0.102153495 0.4280003 -0.4102062 0.16102766
0000a0 01 bc e4 3e 3e 66 54 bd 6a 8a 29 3d 4b 9b a8 3e
       0.44674686 -0.05185532 0.041391768 0.3293098
0000b0 9c e4 9d 3e e8 3a 98 bd fb ea 05 3e a1 fd d4 3c
       0.30838478 -0.074331105 0.13077919 0.025999846
0000c0 e9 35 93 be 27 db ad be 0e 46 2b 3d 36 f1 d7 3e
       -0.28752068 -0.33956262 0.041814856 0.42176217
0000d0 f2 0b e5 3e ae 72 b8 3e 13 68 af 3d d0 02 b3 bd
       0.44735676 0.36024994 0.085647725 -0.08740771
0000e0 24 39 d4 3c 75 ff 93 3d 48 a5 cd 3e b7 3c 33 3e
       0.025906153 0.07226459 0.40165162 0.1750363
0000f0 6c 06 1d 3e 9b 58 50 be 8e b5 af be c9 80 bb be
       0.15334481 -0.203463 -0.34318203 -0.36621693
000100 1b 98 0f be cf 79 90 be 96 9f 21 bd 75 a1 89 be
       -0.14022867 -0.28217933 -0.039458834 -0.26880994
000110 e4 dd d3 3e 03 7a cb 3d 04 a6 b0 3d e1 80 3d be
       0.41380227 0.09935381 0.08625415 -0.18506195
000120 0c 4f 66 be 28 18 d6 be 9a 1e 86 3e 60 90 a1 3e
       -0.22491091 -0.41815305 0.26195222 0.31555462
000130 20 02 89 be 8a 29 49 3e d6 0e a4 bc e0 a0 85 bd
       -0.26759434 0.19644752 -0.020026606 -0.06524825
000140 7a e5 75 be e9 c0 c7 be ef 12 cc 3e fb 4a 76 be
       -0.2401332 -0.39014366 0.39858195 -0.2405204
000150 37 04 b8 3e 32 bd aa 3e 14 47 37 be ff 21 1e 3e
       0.35940716 0.3334747 -0.17898208 0.15442656
000160 11 1b aa be 45 51 1b be 8b 01 c2 3e 10 4b 4e 3e
       -0.33223775 -0.1516772 0.37891802 0.20145822
000170 76 5c 8f be 2e ff 5d bd 28 00 d0 bd c7 f1 0a 3c
       -0.2800023 -0.054198436 -0.1015628 0.008480496
000180 81 80 df 3e 12 57 39 be 3b 53 e2 3e 08 a0 af 3e
       0.43652728 -0.18099621 0.44204125 0.34301782
000190 78 3e d1 be 03 96 ca be 3e 20 ac be e5 35 cd 3e
       -0.40867972 -0.39567575 -0.3361835 0.4008018
0001a0 4a 97 b2 bd 9c d1 81 be 4c 8b 7f be 91 ab c1 be
       -0.08720262 -0.25355232 -0.24955481 -0.37826207
0001b0 61 ea 9c 3e 47 b4 25 3e e4 11 b9 be 95 72 ae be
       0.30647567 0.16182052 -0.36146462 -0.34071794
0001c0 4e bf b8 3e 3f b8 0d 3e d9 96 87 bd bc 68 b6 be
       0.36083454 0.13839816 -0.06620569 -0.3562678
0001d0 2e 24 d9 3e 7a cd 01 3e 65 05 6b 3d b9 ee 72 be
       0.42410415 0.1267604 0.05737819 -0.23723878
0001e0 91 15 32 3d 76 6e be be 6a e3 94 be 2d c2 b9 3e
       0.0434776 -0.3719365 -0.29079753 0.36280957
0001f0 84 bb bb 3e 0d c6 d1 3e bb 42 a4 3d 8c d7 df 3e
       0.366665 0.40971413 0.0802054 0.43719137
000200 62 3e 2a bd e9 ae 1e 3e fd b7 b9 3e 8b 8b cd bd
       -0.0415634 0.1549641 0.36273184 -0.10036381
000210 ff 8b 60 3d 13 00 be be 2a eb 81 3e 23 ce c6 3c
       0.05482101 -0.37109432 0.25374728 0.024268216
000220 56 28 4f be 64 bf ec bd bd 1c 1c 3e 70 59 e3 3e
       -0.2023023 -0.11559942 0.15245338 0.44404173
000230 33 94 80 3e 71 89 b0 3e 9a 6d 81 3d c5 d1 5a 3e
       0.25113067 0.3447986 0.06319733 0.21369083
000240 ad 62 c0 3e 0a f0 10 3e c4 e1 a7 be 52 75 1f be
       0.37575284 0.14154068 -0.32789433 -0.15572098
000250 fd 27 51 3c 5c 8b cc be 23 05 9c 3e d5 60 c6 3d
       0.012765882 -0.39950073 0.3047267 0.09686438
000260 c0 47 cc 3e 44 e5 54 3e 41 2d 38 3e c0 c6 68 3e
       0.3989849 0.20790583 0.17986013 0.22732067
000270 07 42 37 3e c2 8f 11 3e 34 18 b0 bd 38 09 d6 be
       0.17896281 0.14214996 -0.085983664 -0.41803908
000280 e4 86 a4 be 83 7d 7b be 5a 51 d6 be af 3d e4 bd
       -0.32134163 -0.24559598 -0.4185894 -0.11144578
000290 c2 82 8f 3e e7 ae 98 3e f9 1d 25 be 40 aa d7 3e
       0.28029448 0.2982094 -0.16124715 0.42122078
0002a0 ca 9b ff bd 67 34 9a be 48 b1 ae 3e 61 3d 6c be
       -0.12480886 -0.30118105 0.3411963 -0.23070289
0002b0 58 e1 b9 3d 56 2a 80 be 95 f2 3e 3e b4 08 a4 3e
       0.09076184 -0.250323 0.18647225 0.3203789
0002c0 38 37 28 bc 14 6e 8a 3e a7 2d 89 bc 19 e9 75 3e
       -0.010267071 0.27037108 -0.016745402 0.24014701
0002d0 ed d8 b7 be 51 d2 5d be 61 9f d8 bd 62 2e 27 3e
       -0.3590769 -0.2166226 -0.10577274 0.16326287
0002e0 ee 8a b7 3e 8b 22 76 3e 52 8e c5 3d 0c 97 3d 3e
       0.35848182 0.24036615 0.09646286 0.18514651
0002f0 0a a8 af 3c 23 a9 8a 3e 58 c3 d8 3e e1 6f bb 3e
       0.021442432 0.27082166 0.42336535 0.36608794
000300 d2 e1 3a bc 59 5e d0 be 26 ce ad be 0c 3e cb be
       -0.011406379 -0.40696982 -0.3394634 -0.39695776
000310 8c 40 c9 3e 59 54 8d 3e b2 65 54 3c 8f 80 88 3e
       0.39307058 0.27603415 0.012963699 0.26660582
000320 e4 73 cb bd 35 ef 3a be 7f 75 d1 bd 3f c3 dc be
       -0.09934214 -0.18255313 -0.10227489 -0.4311771
000330 7d 21 7e be c7 4a 6a 3d 8c d7 df be e5 1f e2 be
       -0.24817462 0.05720022 -0.43719137 -0.4416496
000340 c9 c7 d6 be fb 8c b2 be 3c a1 c2 bd b7 1e 01 3e
       -0.419493 -0.34873185 -0.09503409 0.12609373
000350 15 fc 24 3e 64 b9 97 be fe 1d b4 3e c7 be b7 3e
       0.16111787 -0.2963363 0.35179132 0.3588774
000360 7e ab 8a be 0e e2 21 be 0e 6b cf be f9 4f 1c be
       -0.27083963 -0.1580889 -0.40511364 -0.15264882
000370 57 7d b9 3e 10 21 5c be 54 4f ab bc 71 eb 7b 3d
       0.3622844 -0.21496987 -0.02091185 0.06150383
000380 8a df 12 3d 85 71 8f be 17 81 fb bd 6e 0f ad 3e
       0.035857715 -0.28016296 -0.12280481 0.33800834
000390 58 7d 65 be 39 53 b7 3e d1 30 2f bc 61 8c 8e be
       -0.22411096 0.3580568 -0.010692791 -0.27841476
0003a0 6f b1 a9 3b de 3b d3 bd 1b 21 c2 be 82 6f 90 3d
       0.0051786224 -0.10314153 -0.37915882 0.070525184
0003b0 85 2e d0 be 71 4b a1 3e db e0 e0 3d f5 e8 31 bd
       -0.40660492 0.3150287 0.10980388 -0.043435056
0003c0 aa 50 a6 bd f5 1e 03 bc 2b 7e e4 3d 5a 95 5b be
       -0.08120854 -0.008002986 0.11156877 -0.21443692
0003d0 d7 a2 b3 be 58 49 c7 bc cd 95 d2 be ec 0a d6 be
       -0.35085174 -0.024326965 -0.41129914 -0.41805208
0003e0 a1 44 8b be 40 37 52 3e 10 4b 4e 3d 55 b2 f7 bd
       -0.27200797 0.20528889 0.050364554 -0.12094561
0003f0 38 54 d3 3e 03 5c c1 be 48 9c cc bd b1 f4 dd 3e
       0.4127519 -0.37765512 -0.09990746 0.43350747

encoder.0.bias f4 [128]
000000 4d 6a 65 3e fd 2c 0d be e2 40 4c 3e bb 0d 8d 3d
       0.22403832 -0.13786693 0.19946626 0.068873845
000010 93 08 62 be 37 1b a9 be ff e8 e5 bc 19 1f 12 be
       -0.22073583 -0.33028576 -0.028065203 -0.14269675
000020 9e d5 97 be 05 e2 31 bd a5 2a 21 3e e7 67 cb bd
       -0.29655164 -0.04342844 0.15738924 -0.09931927
000030 a9 f0 67 be ab 94 6c be e7 4b de bd cc 64 e4 3e
       -0.22650398 -0.23103587 -0.10854321 0.44608152
000040 ab 52 5f 3e 99 c2 49 bd 26 68 dc be da ec 30 be
       0.21808879 -0.04925785 -0.4304821 -0.17277852
000050 0f 4f 02 bd c3 9c 8d be a4 fc a1 3e f2 77 b0 be
       -0.031813677 -0.27658662 0.31638062 -0.3446651
000060 bb cc 4a be 80 87 57 be 8f 25 52 3e 56 bb 00 bd
       -0.19804661 -0.21047783 0.2052214 -0.031428657
000070 4d b7 94 be 8d 15 75 3d 84 0e 35 bd 10 b1 53 be
       -0.29046097 0.059835006 -0.044203296 -0.20673013
000080 00 07 5c 3c e2 06 92 3e 2c 04 43 3e 85 d3 61 3d
       0.013429403 0.28520876 0.1904456 0.05513336
000090 25 f1 eb 3d c3 93 dc 3d 9a ca 91 be fe 08 11 be
       0.11520604 0.10770371 -0.28474885 -0.14163586
0000a0 e3 c8 cd be b7 82 fd bd 57 02 90 3e 5e 33 da be
       -0.40192327 -0.123784475 0.28126785 -0.42617315
0000b0 c3 c4 bf bd 40 d6 33 3e f7 06 9b 3c 02 e6 66 bb
       -0.09363701 0.17562199 0.01892422 -0.003523231
0000c0 7b e7 b2 bc 7c cc bc be 22 e4 54 3e 87 8f 2a 3e
       -0.021838894 -0.3687476 0.20790151 0.16656314
0000d0 c5 89 d9 be c6 75 df be b3 04 58 3d 91 e0 db be
       -0.42487922 -0.43644542 0.052738857 -0.42944768
0000e0 20 c9 8d be de 5a b7 3c 79 5d c7 bd 1b b9 c4 3e
       -0.2769251 0.022382196 -0.09734625 0.38422474
0000f0 48 29 be bd 90 01 c5 bd 05 fd cc be 64 9e 5c be
       -0.092852175 -0.09619439 -0.4003679 -0.21544796
000100 52 a9 aa 3c c9 27 0f be c9 36 bd be cb f2 2d 3d
       0.020832691 -0.1398002 -0.3695586 0.042467874
000110 7e f3 64 be ae 46 b3 3d 91 7d 8b 3e 14 46 ba 3e
       -0.2235851 0.087537155 0.27244237 0.3638159
000120 c8 79 bb 3e 26 e8 41 be 7c 98 7b be de 3f b4 3e
       0.3661635 -0.18936214 -0.24569887 0.35204977
000130 b2 69 8d 3e e5 1c de 3e 57 23 9b be 4b 36 e3 3d
       0.27619702 0.4338142 -0.303004 0.1109434
000140 c9 2a 3a be 41 90 2f be 0e f0 dc 3e 2a 89 ad 3e
       -0.18180384 -0.17144872 0.43151897 0.3389371
000150 70 94 d4 3e f9 70 a3 be af 10 e3 be be eb c9 bd
       0.415195 -0.3192213 -0.44348666 -0.098594174
000160 19 13 98 3e 53 ed 6d be 21 1a 59 be c0 be 6d bd
       0.2970207 -0.23235063 -0.21201374 -0.05804324
000170 91 39 e4 3d 01 db 79 3e 2c 1a eb bd 41 ee 59 3d
       0.111437924 0.2439995 -0.11479601 0.053205732
000180 30 5f 3f bd ea 8f 62 bd 6e 7c a4 bb c8 9e 71 3e
       -0.046721637 -0.05531303 -0.005019716 0.23595726
000190 6f 2e fa 3d ae 3a cd bd 14 12 35 bd ef fa a5 be
       0.12215888 -0.10020958 -0.044206694 -0.3241801
0001a0 fe 50 8c be c5 cb 1d 3e 59 9c 93 be 69 a7 a6 be
       -0.27405542 0.15409763 -0.2883022 -0.325496
0001b0 f7 d9 b4 3d 51 31 e4 3e b0 7f bc 3d 23 b0 9c be
       0.08830636 0.44568875 0.09204042 -0.30603132
0001c0 00 53 4e 3d ff 79 81 be 83 e1 2b 3d f6 6c 79 be
       0.050372124 -0.25288388 0.04196311 -0.24357972
0001d0 8c 9d 00 be 25 b0 c5 bc 83 e1 a6 be 62 b3 35 3e
       -0.125601 -0.024131844 -0.32593927 0.1774421
0001e0 ca 4c 66 3e 56 65 7d 3e e7 db cd be f7 57 c7 be
       0.2249023 0.24745688 -0.40206835 -0.389343
0001f0 e0 1f 86 be 7d fb 8a 3d 03 23 c9 be d2 9d a3 3e
       -0.26196194 0.06786249 -0.39284524 0.31956345

encoder.2.weight f4 [128, 128]
000000 34 ea cb bc 66 db 96 3d 3e f6 2c 3d 4b 79 39 bc
       -0.02489195 0.07366066 0.042227022 -0.011320422
000010 a0 a8 2a bd 36 71 79 3d d3 6e 96 3c 61 54 91 bc
       -0.04166472 0.060898982 0.018363392 -0.01774043
000020 13 e0 8d 3c cd 71 bd bc 44 93 2f bd e9 58 ed bc
       0.017318761 -0.023125554 -0.042865053 -0.02897306
000030 c2 b5 2f 3c 32 f1 12 bd 21 71 7e 3d 69 e1 be bb
       0.010724487 -0.035874553 0.062119607 -0.005825211
000040 35 56 14 3d cc df db 3c 3e c7 e9 3c f8 94 e5 bc
       0.036215026 0.026840113 0.028537389 -0.028025135
000050 cb b5 d2 3c 00 3d bb 3b 4f 2e 4b 3d 57 e7 0a 3d
       0.025721451 0.005714059 0.04960471 0.03391203
000060 e9 5d f0 3c c3 38 8b 3d 6f 42 7f bc 84 de 16 3d
       0.029341655 0.06797936 -0.015579804 0.0368333
000070 3a c8 9b 3c d8 b6 e9 bc 06 b4 61 bd e1 9f 12 3b
       0.019016374 -0.02852957 -0.055103324 0.0022373127
000080 98 52 81 3d c9 62 cc 3c 71 6e 4c 3d 87 73 8d bd
       0.06314582 0.024949448 0.049910013 -0.06906801
000090 0b e6 11 3d e3 19 59 bb 63 d5 8d 3d a5 42 09 bd
       0.035619777 -0.0033127002 0.06925466 -0.033510823
0000a0 29 16 a9 3c 78 9a f6 3c 6b 31 94 3d f8 7f f7 3c
       0.02064045 0.030102953 0.07235988 0.030212387
0000b0 47 f3 a6 3d 51 62 84 bd e2 87 ff 3c 22 f8 08 3d
       0.0815187 -0.06464065 0.031192724 0.033439763
0000c0 44 63 b4 bc 34 df 81 bd 30 55 5e bd 67 6e 1b 3d
       -0.02201999 -0.06341401 -0.05428046 0.037947085
0000d0 f9 70 3b bc 7a 6b a4 3d 6c ca ae bd 3e d7 32 3d
       -0.011440509 0.08028312 -0.08534703 0.043662302
0000e0 22 de e5 3a cd a4 28 bc 22 0b a1 3d 57 46 ef bc
       0.0017537514 -0.010293198 0.078634515 -0.029208345
0000f0 fe ee 22 bc 91 97 b0 3d 4e 0f 99 3d 1f 0b 49 3b
       -0.0099446755 0.08622659 0.07473622 0.0030676795
000100 97 60 02 3c c6 d5 14 3d eb 88 9e bd 5b 68 2e bc
       0.007957599 0.036336683 -0.07740959 -0.0106449975
000110 53 ae ce ba 92 1c b0 bd a7 6d a3 3b 07 b8 63 bd
       -0.0015768505 -0.08599199 0.004987437 -0.055595424
000120 28 bf 8f 3d a4 3f 90 bd 8f 36 50 3d b4 d0 44 3d
       0.07018882 -0.070433885 0.05083328 0.048050597
000130 3a d2 3e bd 32 d8 c6 bc 4c 42 27 bd c2 08 94 bd
       -0.046587206 -0.024273012 -0.04083471 -0.07228233
000140 78 c0 28 bc 51 db 34 bd 67 7e 9a bc 0e a2 94 3c
       -0.010299794 -0.04415447 -0.018859101 0.01814368
000150 dc fb 6e bd 26 e8 a5 bc fa cf 6c bc 76 34 78 3d
       -0.05834566 -0.020252299 -0.014453882 0.060596906
000160 be 5d 2b 3c 8a 6e c4 3c 8f 03 fc 3c 91 96 64 3b
       0.010459362 0.02397849 0.030763416 0.0034879784
000170 a4 3a 5e bd ab 69 af bd b1 39 53 3b e5 d0 94 3d
       -0.054255143 -0.085650764 0.0032230432 0.07266406
000180 d0 34 ca bc 8a 5b 4e bd 22 e0 bd 3c e6 5d 7b bb
       -0.024683386 -0.050380267 0.023178164 -0.0038355528
000190 8b 05 3c 3d 08 d3 8c 3d e2 5b 5a 3d 5b fb 99 bd
       0.045903724 0.068761885 0.053310283 -0.075186454
0001a0 07 a4 ca bc 0e 30 49 3d ce bf 45 bc 35 bd 80 bc
       -0.024736417 0.049118094 -0.012069656 -0.015715221
0001b0 d1 19 84 bd c6 a4 29 bc 45 7c 81 bd 9b a5 20 3d
       -0.064502366 -0.010354226 -0.06322531 0.039220434
0001c0 9a 12 a3 bd 85 7a ac 3d d5 9c 0b bd d4 14 d0 bb
       -0.07962532 0.08421806 -0.034085114 -0.006350139
0001d0 81 5c 7b bd 4f ec 30 bc a4 47 a4 3c 8e 09 0d 3d
       -0.061367515 -0.010798528 0.020053692 0.03443294
0001e0 37 54 6b 3c cd 34 6e bc 75 8c bc 3c 06 04 19 bd
       0.01436334 -0.014538956 0.023016194 -0.037357353
0001f0 84 ff ab 3c ce 8d b1 3d c2 37 92 3b 1f 6b dc 39
       0.020995863 0.08669625 0.0044622133 0.0004204148
000200 a4 8c f6 3c d7 3b df bb 3b 6e 8d bc 19 cd aa bd
       0.03009636 -0.0068125534 -0.017264476 -0.083399005
000210 b2 c1 6f 3d 8c f8 50 3d 32 58 f7 bc 5d 10 cc bc
       0.05853433 0.051018283 -0.030193422 -0.024910146
000220 68 40 ae 3d 8c 01 72 3d 55 31 a0 bd 42 f6 89 bd
       0.08508378 0.059083506 -0.07821909 -0.06736423
000230 19 94 b0 bd 24 ff 66 3d 7e dc 2d bd bd 41 37 bd
       -0.086219974 0.056395665 -0.042446606 -0.044740427
000240 31 ff a8 3d cd 49 6a 3d ea c8 b1 3d 55 4d 1a 3d
       0.08251799 0.05719929 0.086808994 0.037671406
000250 7e 77 1d bc 44 54 70 bd 10 a3 1e 3d fc 3c 0c bd
       -0.009611009 -0.058674112 0.038729727 -0.034237847
000260 91 e8 0e bd f0 9c 9d 3d 4d 67 9c 3b 27 bd 7a bd
       -0.03488976 0.07695949 0.0047730566 -0.061215546
000270 9a 0b b2 3c 96 07 b4 3c 3f cf 72 bd 14 31 2e 3d
       0.021734048 0.021976274 -0.059279677 0.042527273
000280 53 ab c9 3c ba 7f 80 bd a3 54 0e 3c a7 dd 97 bd
       0.024617827 -0.06274362 0.008687171 -0.07415324
000290 2c 81 7e 3c 93 8b ad 3d 80 94 bc bb 6a cc 64 3d
       0.015533727 0.08473887 -0.0057550073 0.055859007
0002a0 d7 82 97 bd c3 c2 b3 bd 98 3e 8f bc 46 b7 aa 3d
       -0.073980026 -0.08777382 -0.017485902 0.08335738
0002b0 93 09 8e 3c f8 26 a2 bc af 97 c4 3c a5 c2 88 3c
       0.01733855 -0.019793972 0.02399811 0.016694376
0002c0 46 b0 49 3c 36 d4 24 bd c5 b5 b2 bd c1 36 98 bd
       0.012310093 -0.040241443 -0.08726076 -0.074323185
0002d0 17 f2 ae bd 42 7c a9 3d 05 ea db 3c 15 d5 ad 3d
       -0.08542269 0.082756534 0.026844988 0.08487908
0002e0 19 4b fa bc 5b d3 12 bd 27 32 dc bc 76 65 6d bd
       -0.030553387 -0.035846096 -0.026879383 -0.05795809
0002f0 38 c3 15 bd ad 19 09 bd 86 b6 4a bc c4 25 4b 3d
       -0.03656313 -0.033471752 -0.012372619 0.049596563
000300 b5 7a c3 bc 27 9f 89 bc 99 b9 49 3d 40 7c 6c bd
       -0.023862222 -0.016799523 0.049249265 -0.05773568
000310 ba 31 95 3d 0a e5 78 3d cb 0e ee bc 7c 44 11 3d
       0.07284875 0.060765304 -0.029059788 0.035465702
000320 42 59 44 bd 32 06 1f 3d 55 54 20 3d 4d ce b1 bd
       -0.047936685 0.038824268 0.039142925 -0.08681927
000330 8e e6 3a 3b 4c 98 c5 3b b0 7a 8e bb e5 72 c1 bc
       0.002851877 0.006030118 -0.0043481216 -0.023614356
000340 76 d4 05 3d b3 31 eb 3b 17 43 9b 3d 45 02 73 3d
       0.03267332 0.0071775555 0.07581156 0.059328336
000350 4b 1c 11 3d fa 7c 55 3d 07 74 b6 3c fa 5b e6 bc
       0.035427373 0.05212114 0.022272123 -0.02812003
000360 1f c1 00 bc 94 4b 0f 3c 22 74 ac 3c 8f db ae bd
       -0.007858544 0.008746047 0.02105147 -0.08537971
000370 23 6a 9d bd 49 80 3b 3d 92 a7 d9 3b 4a b1 5e ba
       -0.076862596 0.04577664 0.0066422904 -0.0008495046
000380 9d e6 25 3d 4d d0 5c 3d 46 2a 51 bd 8a 14 61 bc
       0.040503133 0.05390959 -0.051065706 -0.013737807
000390 ac d7 4d 3d e1 be 8b bd 35 60 d7 bb f8 75 02 bd
       0.05025451 -0.06823517 -0.006572748 -0.031850785
0003a0 03 37 d4 3a 1f b1 ee bb 5c 6c 39 3d 78 a8 f9 3c
       0.0016190711 -0.007284298 0.045269355 0.03047584
0003b0 2a 34 b0 3d f5 26 b1 3c e2 1a 91 3b 6a b5 18 bc
       0.086036995 0.021625021 0.0044282535 -0.009320596
0003c0 01 c5 1e bd e9 f0 16 bc 84 dc b3 bc 1d fa ad 3d
       -0.038762096 -0.009212711 -0.021955736 0.08494971
0003d0 ec 68 1f bd 6e 03 9e 3d f4 31 af 3d 26 1b 52 bd
       -0.03891842 0.07715498 0.0855445 -0.051295422
0003e0 e4 de 71 3c cc b5 7a 3c 8e 71 98 bc c8 ca 60 3d
       0.014762614 0.015302133 -0.018608835 0.054880887
0003f0 26 3c 58 3b 3b 69 86 bd 59 81 95 3d e2 02 55 bd
       0.0032994836 -0.0656304 0.07300062 -0.052004702

encoder.2.bias f4 [128]
000000 f2 b4 04 bc ba 05 63 3d 9c c9 86 3d 50 36 a0 ba
       -0.008099781 0.055425383 0.06581423 -0.0012223218
000010 f9 ea df 3c e7 bc 51 bd b5 a8 a1 3c b4 b3 1c bd
       0.027333723 -0.051205542 0.019733766 -0.038257316
000020 6c 58 e5 3c eb 9c 5e bd e8 d6 78 bd ba fc a4 bb
       0.027996264 -0.054348867 -0.060751826 -0.00503501
000030 68 9d dd 3b 14 55 60 bd f6 a4 68 3d 31 a3 43 3d
       0.006763149 -0.054768637 0.056797944 0.047763053
000040 2f b5 ab bd d9 bc 0c bd 02 8b a0 3d 68 ca 57 bd
       -0.083841674 -0.034359787 0.07839014 -0.052683264
000050 b8 d9 8e 3c 22 88 60 3c 85 79 95 bd 2c 7f 3f 3d
       0.0174378 0.013704332 -0.07298569 0.04675214
000060 33 90 58 bd 4c bc 12 bc e7 af 18 3d ce 8c 9c bc
       -0.052871894 -0.008956026 0.03727713 -0.01911011
000070 0a 60 1b bd 71 b0 6a 3d 7a aa a0 bd 62 6e 9c bd
       -0.037933387 0.057297174 -0.07845016 -0.07638241
000080 9b f4 37 3d 7f 9d 15 bc b2 c8 40 3d 40 61 77 bd
       0.04491101 -0.009131788 0.047066398 -0.06039548
000090 8e f9 56 bd 33 cf 9c bd 03 cf 38 3c ab c6 a3 3d
       -0.052484088 -0.076567076 0.011279824 0.07996877
0000a0 c3 ef 56 bd ad 83 a6 bd 24 ea ae bc 89 b1 3d 3d
       -0.05247475 -0.08130584 -0.021351881 0.04631189
0000b0 c5 35 05 3d 8b 83 3d 3c d0 2f 25 bd 88 3d 9b bd
       0.03252198 0.011567007 -0.0403288 -0.075800955
0000c0 91 e6 66 3d e2 84 8e bd f9 aa c6 bb b7 c5 72 3d
       0.05637223 -0.06958939 -0.006062862 0.059270587
0000d0 d8 26 6d bc 72 fc a7 3c 37 0e 4b 3c e6 0d 07 bc
       -0.014474593 0.020506117 0.012393526 -0.00824306
0000e0 48 02 af 3c 8b 42 26 bd f6 7f 10 bd e2 41 1c 3c
       0.021363392 -0.040590804 -0.035278283 0.009537192
0000f0 53 84 c0 3c 38 9c 9a bd fd 79 26 bd b0 b6 b6 bc
       0.023500597 -0.075493276 -0.04064368 -0.022303909
000100 54 6c bf 3a 78 3a b1 bc 34 e2 1a bd 25 05 18 3d
       0.0014604428 -0.021634325 -0.03781338 0.03711428
000110 2d 91 c2 3c 56 9f 9e bc 88 29 2f bb 50 a4 89 bd
       0.023750866 -0.019363087 -0.0026727635 -0.06720793
000120 30 96 27 3d da 85 f5 3c 18 8e a6 bd 92 72 38 3b
       0.040914714 0.029971052 -0.08132571 0.002814446
000130 34 59 12 bd 8b 1b 0b bd 93 e9 94 3c 07 6b a4 3d
       -0.035729602 -0.033961814 0.018177783 0.08028226
000140 01 3c a0 3d 85 e3 62 bd c1 18 62 3c 94 e7 91 3d
       0.07823945 -0.05539276 0.013799847 0.07124248
000150 83 70 7e 3c c8 e0 9a bc 1a 2b 2e bc 64 aa a8 bd
       0.015529755 -0.018906012 -0.010630393 -0.082356244
000160 f8 d1 da 3c a5 2a 18 bb aa ba 09 3d 45 40 8c 3d
       0.026711449 -0.0023218777 0.033625282 0.06848196
000170 01 26 7d 3d bf 38 b5 3b 0b dc 61 bd 5a 68 c0 3c
       0.06180382 0.0055304463 -0.05514149 0.023487259
000180 d1 43 93 3d a5 9d 85 bd 95 de 05 bd d7 aa 2f 3d
       0.07190669 -0.06524209 -0.032682974 0.042887535
000190 27 08 4b bd 61 a4 d7 bc e3 0c 87 3d cf c4 4c 3c
       -0.04956832 -0.0263235 0.06594255 0.012498095
0001a0 da a7 80 bc e9 9a 9d bd d4 40 7e bc ff bb e2 3b
       -0.015705038 -0.076955624 -0.015518386 0.0069193835
0001b0 71 3d 91 bd 72 44 57 3c c0 4e cf 3c db 52 82 3d
       -0.07091797 0.013138877 0.025306106 0.0636346
0001c0 b1 3a bd bc 6e b3 3d 3c 91 5d 14 bc 2c 04 ff bc
       -0.023099275 0.011578424 -0.009055511 -0.031129919
0001d0 1c 55 d0 bc 13 42 30 3d 35 65 79 bd 63 2f 96 bd
       -0.025431208 0.043031763 -0.060887534 -0.07333257
0001e0 c1 38 72 3c 80 eb 2a bd 10 71 9e 3d 16 a3 a3 bc
       0.014784039 -0.041728497 0.07736409 -0.019975226
0001f0 e7 68 66 bd 0c 6c b4 3d 34 2a 68 3d 1e 14 3e 3d
       -0.056252386 0.08809671 0.056680873 0.046405904

actor.weight f4 [4, 128]
000000 4c c7 65 3d a1 3d 57 3c b5 4e 51 bd 0e aa a9 bd
       0.056098267 0.013137252 -0.05110045 -0.082843885
000010 33 b9 a5 3d 9e ca a0 3d 78 da 36 3c e5 d5 f9 bb
       0.080919646 0.07851146 0.011160485 -0.007624375
000020 30 97 59 bd e1 29 99 3d b4 ae e7 3c f1 5d 96 3d
       -0.0531227 0.07478691 0.028281547 0.07342137
000030 4a 12 28 3b 63 c0 68 3d 96 23 6a bd ed cf 99 bc
       0.0025645667 0.0568241 -0.057162844 -0.018775905
000040 97 d2 b3 bd e6 a0 94 bd 8a fd e8 3c f9 06 83 3d
       -0.08780401 -0.072572514 0.02844121 0.06397814
000050 69 3f 97 3d 3b d0 ab 3c 8d 36 fe 3c fe a7 70 bd
       0.073851414 0.020973315 0.031031871 -0.05875396
000060 f9 7e 8a bc c2 d5 02 bd d9 0b 5e 3d fe 87 1b bd
       -0.016906248 -0.031942137 0.054210518 -0.03797149
000070 89 0d 2d bd 22 63 a6 bd 07 44 84 bd f5 8c 77 3c
       -0.042249236 -0.08124377 -0.06458288 0.01510929
000080 b9 62 ac bd 54 2c 73 bd 20 34 89 bd a4 5c 50 bd
       -0.08417267 -0.059368446 -0.06699395 -0.0508696
000090 39 ca f6 3c 6c d7 8c 3d c7 9a 98 3d 6b e2 d0 bc
       0.030125724 0.06877026 0.074513964 -0.02549859
0000a0 a0 bc 56 3b e4 05 bf 3c 5e 3e 2a bd 8d d8 e7 bc
       0.0032766238 0.023318239 -0.041563384 -0.028301502
0000b0 51 ff 8c 3d c1 58 5d 3d 2c 1a 6c 3d 98 9a 94 bc
       0.06884635 0.05403972 0.057642147 -0.018140122
0000c0 3a a0 8f bc 7e 3d 2a 3d 12 b8 5e bd 02 79 60 3d
       -0.017532457 0.04156255 -0.054374762 0.054802902
0000d0 12 1c 5d 3d 52 83 4f bd 7b 96 84 bd 1c 31 b4 bd
       0.053981848 -0.050662346 -0.06474014 -0.08798429
0000e0 a4 fc 9b bc ba 54 48 3d 80 62 82 bd 7c ee 9f 3d
       -0.019041367 0.048908927 -0.06366444 0.07809159
0000f0 17 a5 56 3c c2 27 9f bc 0d fa b9 bb 4c 2a dd bc
       0.013100884 -0.019428138 -0.0056755603 -0.026997708
000100 09 a0 b9 bc 25 45 3b bd ec eb 5b 3d 20 6c b0 bd
       -0.022659319 -0.04572024 0.05369179 -0.08614373
000110 b5 43 1b 3d 73 4e 62 bd 1a ff e9 3c f6 6b 10 3c
       0.037906367 -0.055250596 0.028564025 0.008814802
000120 21 84 84 3b 68 7d 09 bd b5 45 3e bd 0a 8d 95 bc
       0.0040440713 -0.033566862 -0.046453197 -0.01825573
000130 85 96 26 bd 03 3e 9a bc fc 81 2f 3b a5 31 9c 3d
       -0.04067089 -0.018828398 0.0026780358 0.076266564
000140 4d 77 ad 3d 43 97 aa bd d5 59 90 3d 70 18 72 bd
       0.084700204 -0.08329632 0.07048384 -0.059105337
000150 16 25 75 bd e9 69 40 3d 27 8a 82 3d 8e 0e 3a b9
       -0.05984982 0.046976004 0.06374007 -0.00017743764
000160 df 9f 59 bd 2c f4 9d ba 33 0a e5 bc e5 d7 f9 ba
       -0.05313098 -0.0012050918 -0.027958965 -0.0019061534
000170 ce 1c 5e bd 6d 2f b4 3d eb 18 ab 3d c3 26 89 bd
       -0.05422669 0.08798108 0.08354362 -0.06696846
000180 a0 5f 48 bc e1 7b 26 bd 91 ac 76 bd e5 c2 f4 bc
       -0.01222983 -0.040645484 -0.060223166 -0.02987809
000190 cc e8 9a bc 3d e4 31 3d 4e cb 95 bd 88 34 95 bd
       -0.018909834 0.043430556 -0.07314168 -0.0728541
0001a0 ff aa b4 3d 12 a9 89 3d af 25 97 bd b7 f1 64 3d
       0.088216774 0.06721701 -0.073802345 0.05589458
0001b0 6b a2 98 bd 13 8b 70 bd 87 3e 1f 3d 55 3b 3b bd
       -0.07452854 -0.05872638 0.03887799 -0.04571088
0001c0 05 cc 7d bc c5 29 a7 bd a6 c0 80 3c 4e e1 29 bd
       -0.015490537 -0.08162264 0.015716862 -0.041474633
0001d0 f5 44 1e 3d 9e c9 ae 3d 52 53 e1 3c cc cc 93 3d
       0.03863998 0.08534549 0.02750555 0.07216796
0001e0 0f 06 28 3d 4a e6 b6 bc 75 69 e1 3c 89 0f 78 bd
       0.041021403 -0.022326607 0.027516106 -0.06056169
0001f0 8d 43 b4 bd 6b f8 41 bd 70 aa c5 bc a2 24 9a 3d
       -0.08801947 -0.04735605 -0.024129122 0.075265184
000200 44 99 9d bd aa 73 1e bd ff 57 d7 3c 1b 81 41 bd
       -0.07695249 -0.038684525 0.026287077 -0.047242265
000210 53 a4 87 bd d4 5c 5d bd a4 fe b6 bc 96 ae 59 bd
       -0.06623139 -0.054043606 -0.022338219 -0.053145014
000220 6f 2d 93 bd 77 ae 01 3d 88 0d 01 3d 1d ec e2 3c
       -0.071864 0.031660523 0.031507045 0.027700478
000230 5e e0 88 bd f9 a6 8b 3d af 41 5b 3d 5f 30 8f 3c
       -0.0668342 0.06818957 0.053529438 0.01747912
000240 04 d9 74 3d 17 f5 a0 bc 49 71 d8 bc a5 c5 44 bd
       0.059777275 -0.019648118 -0.026421206 -0.04804005
000250 1c 57 75 bd 80 5e 54 bd 1b 6c a9 3d 12 f0 03 bd
       -0.059897527 -0.051847935 0.082725726 -0.03221137
000260 d9 a4 21 bd c7 b4 3d 3d 0b 9a b3 3d d5 13 08 3d
       -0.03946385 0.04631498 0.08769616 0.03322204
000270 b4 3b 91 3d ec af 1a bb e9 99 5a bd 9d 56 2e bd
       0.070914656 -0.0023603393 -0.053369436 -0.04256307
000280 bf 96 8a 3d 68 0d 24 3b c2 77 82 3d 88 c2 3f bc
       0.06767034 0.0025032405 0.06370498 -0.011704095
000290 56 3f c5 3c a4 fe 4a 3c 28 69 53 3c d2 7f 24 bd
       0.024078052 0.012389813 0.012903489 -0.04016096
0002a0 87 ad db 3a c7 c8 04 bd 7c 3e 3e bd 8f 6e 89 bd
       0.0016760089 -0.03241804 -0.04644631 -0.067105405
0002b0 ef 29 89 3d 9f 16 1e bd 81 39 7d bd be 6b 5a bb
       0.06697451 -0.038595792 -0.061822418 -0.003332838
0002c0 5f 3f a5 ba b7 a3 2c 3d 98 42 e0 3c c3 fb ff bc
       -0.0012607387 0.04214832 0.027375504 -0.031247979
0002d0 b3 72 63 bc c7 b3 10 3d d9 75 1e 3d 1a ca f8 3c
       -0.013882327 0.0353277 0.038686607 0.030369807
0002e0 39 5f b7 3c 83 d7 99 bc 4e 7d 15 bd 64 69 5e 3d
       0.022384273 -0.018779522 -0.036496453 0.054299727
0002f0 17 72 7c 3d 98 40 c1 3c 36 70 a7 3b a9 60 fb 3c
       0.061632242 0.023590371 0.005109812 0.03068574
000300 06 37 ae 3d ad d2 ad 3d 23 23 d8 bc 4c 4b 7a bd
       0.08506589 0.08487449 -0.026383942 -0.061106965
000310 29 9a c8 3b 14 78 93 3d 3c c8 99 3d 95 b4 8a bc
       0.006121893 0.072006375 0.07508895 -0.016931811
000320 71 27 58 bd 4a 7c a5 bd ca c4 4e bd 88 6c 20 bd
       -0.05277199 -0.08080347 -0.05048064 -0.039166003
000330 fd 4e b1 bd 75 9d e9 3c 67 f1 8d bd 16 57 4c bd
       -0.08657644 0.028517464 -0.069308095 -0.04988774
000340 7c 55 06 bd 85 7b 42 3d 2d 1b 87 3c 9c 54 20 bd
       -0.032796368 0.04748108 0.01649245 -0.03914319
000350 84 cc 14 bd 7f 59 8a 3c 80 32 af 3c e6 98 18 bd
       -0.036327854 0.016888378 0.021386385 -0.03725519
000360 e2 3f 8f 3c 51 b6 50 3d dd 41 89 bd c2 0f 89 bd
       0.017486516 0.05095512 -0.067020155 -0.06692459
000370 e9 ad e3 3c 5a 2f be 3c 42 41 38 3d f8 6e b7 3d
       0.027792888 0.023215938 0.04498411 0.089567125
000380 fc d4 38 3d 42 7d ab 3d 75 25 9d 3d 96 d9 a5 bd
       0.045124993 0.083735004 0.0767316 -0.08098142
000390 2b f9 ec bc 8e 6e cc 3c de 7f a7 bd ee b5 59 bd
       -0.028927406 0.02495506 -0.081786856 -0.053152017
0003a0 b8 3c 7f 3d dd 65 83 3b 5f 4e 97 bd 1a 88 0d 3d
       0.062313765 0.004009946 -0.07387995 0.034553625
0003b0 b6 6f 85 3c 8d ac 14 bd 08 0d 5c bd c6 fb 6c bd
       0.01628862 -0.03629737 -0.053723365 -0.057857297
0003c0 58 c6 76 3d fb b5 28 3d 0c cc ca 3c 29 4d 43 bd
       0.06024775 0.041189175 0.0247555 -0.047681008
0003d0 ba 2b 01 bd f1 1b 91 3c b7 16 b7 3d 2e 4a 61 bd
       -0.03153584 0.017713519 0.089398794 -0.055002384
0003e0 16 a8 b7 3d e9 0b 8b 3c 45 fb 2c 3a 18 9f 18 3d
       0.08967607 0.016973453 0.00065987214 0.0372611
0003f0 b4 24 a8 bd 12 d2 89 bd bc 75 37 3d 67 d8 27 bc
       -0.082101256 -0.06729521 0.044790015 -0.010244465

actor.bias f4 [4]
000000 bb 67 86 bd 42 cb ae 3d 15 cd 15 bd 5a f5 b3 3c
       -0.06562754 0.08534862 -0.036572535 0.021967579

critic.weight f4 [1, 128]
000000 a6 d8 9a 3d 77 67 f4 bc 1b 08 bc 3b e3 ec 16 3c
       0.07560854 -0.029834492 0.005738271 0.009211752
000010 f0 86 0f bc cb 06 af 3d bc 6a a8 3d 9d 8a 8b bc
       -0.008760199 0.085462175 0.08223483 -0.01703387
000020 90 f6 80 bd 35 86 7f 3d 52 9d 48 bd 37 e3 90 bd
       -0.06297028 0.06238385 -0.048978157 -0.07074588
000030 5f b3 8c bd 0f 3b 9b bd e7 c2 23 bd aa d8 24 3c
       -0.0687015 -0.07579624 -0.039980795 0.010061422
000040 8d db 88 3b a9 00 44 3d ea 09 80 3d d6 91 f1 bc
       0.004176563 0.047852192 0.06251891 -0.029488485
000050 25 d2 cd bc 66 81 07 bd f1 3a 09 bd 72 55 d7 3c
       -0.025124619 -0.03308239 -0.033503477 0.02628586
000060 12 a6 39 bd af bd 7a 3d 60 4e 6c bd 68 d1 e0 bb
       -0.045324393 0.061216053 -0.05769193 -0.0068609007
000070 75 0b 2c bd eb 9f 02 3c 45 9a 8b 3d 89 fa a4 3d
       -0.042003114 0.007972698 0.06816534 0.08055598
000080 64 15 93 3c ca d8 8a bd 85 dd 91 3d d7 10 96 bd
       0.017954536 -0.067796305 0.071223296 -0.07327431
000090 59 04 0a 3d 09 33 4f bd 3d ab 44 3b a6 ed 88 bd
       0.033695552 -0.05058578 0.0030009293 -0.06685953
0000a0 56 db 62 3c 55 a3 69 3d c9 f3 19 3d c2 db 18 3d
       0.013846239 0.05704053 0.037586007 0.037318952
0000b0 f6 df 97 bd e1 ac 01 bd c4 73 f0 bc db cd 3a bd
       -0.07415764 -0.03165901 -0.029352076 -0.045606475
0000c0 d0 05 22 3d 4a 7f a6 3c d2 eb 94 bd 8a 09 8a bd
       0.039556324 0.020324368 -0.07271542 -0.06740101
0000d0 12 68 7c 3d 25 19 35 bc ba 6d 6e 3d 63 7e 92 bd
       0.061622687 -0.011053358 0.058210112 -0.071530126
0000e0 3e dc 72 bd 63 d7 5f bb 78 bf 68 bd bd ae 52 bc
       -0.05929207 -0.003415548 -0.056823224 -0.012859044
0000f0 07 27 85 bd 0c d2 97 3d 9b 5a 9e 3d 01 ac 0e 3d
       -0.065015845 0.0741311 0.07732125 0.034832004
000100 27 7b 73 bd ce bf fc 3b e6 c0 a0 bd 4e 64 e6 3b
       -0.05944362 0.0077132946 -0.078492925 0.007031
000110 82 8a 3d bd c1 15 a3 3d d7 78 00 bd ba 11 b3 bd
       -0.04627467 0.079631336 -0.03136524 -0.087436154
000120 bc ee 94 bd a9 65 9b bd f8 91 52 bd 6b 7b a1 3d
       -0.072720975 -0.075877495 -0.051408738 0.07884868
000130 48 6c 6a ba 97 a5 0c bd 16 5a 73 3d d7 91 f3 bc
       -0.0008942527 -0.034337606 0.059412085 -0.029732628
000140 43 5b 28 3d 34 e8 25 3d 14 15 79 3d c4 ae 1e 3d
       0.04110266 0.04050465 0.060811117 0.03874089
000150 81 9a 63 3d 58 b1 19 3d de 33 b4 bd 3d 57 4b bd
       0.05556727 0.037522644 -0.087989554 -0.049643744
000160 39 66 50 bd 04 5a 50 bc b6 13 4e 3d db 7e d4 3c
       -0.050878737 -0.012716774 0.050311767 0.025939396
000170 9e 62 89 bd 0b b8 60 bd f2 98 ee bb 9c c1 43 bd
       -0.06708263 -0.054863017 -0.007281416 -0.047792062
000180 cb 55 86 bd db e3 69 3c 0c 57 92 bb 5c 0d 04 3b
       -0.065593325 0.014275516 -0.004465943 0.0020149564
000190 5c 90 34 bc 96 23 15 3c 05 3a 0e bd 7d 42 42 3d
       -0.011020746 0.009102723 -0.0347233 0.04742669
0001a0 7b 2f b1 bd 01 bf 55 bd 05 83 2b 3d e0 6c c3 bc
       -0.08651634 -0.05218411 0.041872997 -0.023855627
0001b0 a9 c4 64 bc ff 82 a5 bd b2 f5 1c 3d dc 75 7e bd
       -0.013962903 -0.08081626 0.03832025 -0.06212412
0001c0 ad d3 97 3d a7 2f 90 3d 16 a0 5f bd e7 a2 7f ba
       0.07413421 0.07040339 -0.05459603 -0.00097517524
0001d0 f3 32 a4 3c fd a2 0b bc 5f fc 72 bd 44 2a 91 3d
       0.020043826 -0.008522746 -0.05932271 0.0708814
0001e0 49 b8 51 3d 91 5e d0 bc 99 8e a7 bc 89 f1 ab 3d
       0.05120114 -0.025435718 -0.020453738 0.083956786
0001f0 9e 8b 62 bc b9 b1 2d 3d 3d 9f 84 3d 24 6d 8c bd
       -0.013827233 0.042405818 0.06475685 -0.068567544
