code/models/ppo_time_penalty_checkpoint_200.pt (torch, 75741 bytes, 7 tensors)

encoder.0.weight f4 [128, 5]
00000000: d380 893e 80b5 5ebe ac7a 533d 0f2f b23d
00000010: da03 a8be cace a53e 4ab2 cf3e 250c 2fbd
00000020: 0296 0f3e ffc5 613e aab2 87be e4ae d83c
00000030: 1ae1 90bc 96cd 15be f225 d03b bd4c 5c3a
00000040: a2d6 5f3c 637a c5be f4bc 813e 0eb1 99be
00000050: 3f07 7cbe 8f6f 8f3e 19a5 78be cce5 a7be
00000060: f4a0 b6be f31e 2d3e bb96 e0be a414 ac3e
00000070: c903 5dbe 1cdd 60bc d806 b83e c795 973e
00000080: 66f1 82be dd30 d2be 936b 683e 0b9d a53e
00000090: 3152 aabe 72dc 2fbe 32b5 d03e 73bc f63b
000000a0: 8a43 dabc 809a 243d d841 7fbd 28dc 40be
000000b0: 6782 7abe 1b80 fcbd 7da8 6d3d 7327 55be
000000c0: 5028 c2be 7d64 dcbe e237 19be d225 113e
000000d0: 4fba d43e 07f4 0b3e 414b 27be 72d5 cdbe
000000e0: 6a13 b8be ce05 97be 7ada ed3d e110 d8be
000000f0: 0cec 48be 4c8e e43d 397c 3c3e a091 1a3e
00000100: 12bc 4f3d 8e9c 223e 4902 d73e 34cd 22be
00000110: c8f7 d83e 4349 c4be aae9 09be 604e e13e
00000120: 72fa 143e bfe9 3b3e bf89 973e 1027 293e
00000130: b915 df3e 91df a13d 45f1 883d aefb 83be
00000140: 1ca8 27be bd39 49be 2da8 4cbe 8ee7 4d3e
00000150: 8bc5 7d3d a531 f73d 689b dabe 5116 90bd
00000160: f0fe c53e a54b ae3e 4922 c03e 46eb c6be
00000170: 914c 2d3e 5b69 f9bd 38b0 493e 5e8b f03d
00000180: 24b2 b93e d32d bbbe 3de6 e13e 0d8c b93e
00000190: 08fc 973c a7e0 35be 2db2 313e fdf8 ac3e
000001a0: 5ab4 ba3e 2ac3 a23e 7186 bb3e 175e 8ebe
000001b0: 683e a4bd 9595 fe3d eb7d 553e d6d2 c8bd
000001c0: dae4 98be 7b36 dd3e 92ac aa3e d9d9 823e
000001d0: 6325 ac3e f5cb a5be 8e21 64be b03e b33d
000001e0: c92e 9abe 3ff4 37be 330c 18be d8ac 8cbe
000001f0: e813 bb3d 527b b93e 3745 a43e b2fe 78be
00000200: 0db7 30be 7480 f0bd 4dbb cc3e c257 413e
00000210: 6939 a8be a6c9 e03e 0d81 c0be f744 2d3e
00000220: 3297 bcbd a60a b73e fbed 81be 428f 25be
00000230: ecee 59be 8ebd 9a3e f70f f7bc 0f2b 4f3d
00000240: 80f1 8dbd 84f0 d6bd 1ffc 2bbd dd67 26be
00000250: 0d1a bcbe 9081 2e3d deb4 d5bd f4d1 03bd
00000260: c30e b93d d8dd e43e 75f0 a9be fd0b 873e
00000270: 9c26 e23e 13ea 02be 0042 79be 4ad6 503e
00000280: e75c 573e 1d6c fc3b 9415 993e cc06 c6be
00000290: 959d a6be 78f2 c3bd d380 6e3d 8568 94be
000002a0: a463 353e 6177 21be cebd 11be d70a 0e3b
000002b0: 199e 163e f8a8 0d3e 6c72 a33d cd02 613e
000002c0: f9d4 bfbe 8e64 a53e 3db6 65bd 7337 073c
000002d0: a736 2a3c abe9 0c3d ea16 b5be 251f e13e
000002e0: bb7e 473d b941 e2be fde0 653d 6b65 ddbd
000002f0: 6cc4 d0be 2d70 79bd f508 a8be e877 e43e
00000300: 0e0c e13e 8d88 bd3c 479f 953e ea2c d33e
00000310: 8c66 743e 755e a73e 2ae2 c73e ded9 93bd
00000320: b352 c6be ba97 adbc 5862 943e 2740 c53e
00000330: f2ae 573e 5f8a d93e 7239 913e f59f 693e
00000340: f508 1f3e 3277 813d 6bb0 8a3e 5d11 813d
00000350: f528 7a3e aaf4 cdbe 71e4 37bd d5d8 b3be
00000360: 7a9e 293e 1ead 843d 048b 84bd 62ff b1be
00000370: 4d05 58be c899 88bd eeaa b6be 6259 6b3e
00000380: c8f9 ca3e 8bc6 3e3e 4a83 09bb 5e57 62be
00000390: 0a95 593e b20d b03e ad11 cbbd 7266 723e
000003a0: c461 d6be 9214 c3be 86f8 a8be ad8e b63c
000003b0: cca3 9f3e 19c5 c0bd f6c3 d5be 3ac7 423e
000003c0: ab87 953d 4786 50be 0a01 773e 37c0 26be
000003d0: 636b cb3e c43e 1a3e ce95 99bb 1271 7a3e
000003e0: 88a9 0f3e 8272 b83e 8f02 b03e 1cbe a5be
000003f0: 6a86 aa3e 8770 8b3e 551b b6bc b877 49be
0.26856098 -0.21748924 0.05163066 0.08700382 -0.32815439 0.3238433 0.4056571 -0.04273619
0.14022067 0.22048186 -0.26503497 0.026450582 -0.017685462 -0.14629206 0.0063521797 0.0008403769
0.013662012 -0.38569936 0.25339472 -0.30017895 -0.24612139 0.280148 -0.2428173 -0.3279251
-0.35669672 0.16906337 -0.43864998 0.33609498 -0.21583475 -0.013724592 0.3594272 0.2960646
-0.25574797 -0.41052905 0.22697286 0.32346377 -0.33265832 -0.17173937 0.4076324 0.007529789
-0.026643533 0.040186405 -0.062318653 -0.18833983 -0.24463807 -0.12329122 0.05802201 -0.2081583
-0.3792138 -0.43045416 -0.14962724 0.14174584 0.41548392 0.13667308 -0.16337301 -0.40201908
-0.35952312 -0.29496616 0.11613937 -0.42200378 -0.19621295 0.111599535 0.18406762 0.15094614
0.050716467 0.15880033 0.4199393 -0.15898591 0.42376542 -0.38337144 -0.13468042 0.44005108
0.14548662 0.18350886 0.2959728 0.16518807 0.4357126 0.0790397 0.066866435 -0.25777954
-0.16372722 -0.19650932 -0.19986029 0.20107862 0.06195597 0.12070016 -0.4269669 -0.070355065
0.38671064 0.34042087 0.37526157 -0.38851374 0.16923739 -0.12178298 0.19696128 0.11745332
0.36268723 -0.365584 0.4412097 0.36239663 0.018552795 -0.1776148 0.17353125 0.33783713
0.36465722 0.31789523 0.36626008 -0.2780616 -0.080197155 0.12430874 0.20848815 -0.09805839
-0.298621 0.43205628 0.33334786 0.2555683 0.33622274 -0.3238217 -0.22278425 0.08752191
-0.3011382 -0.17964266 -0.14848404 -0.2747562 0.09134656 0.36226898 0.32084057 -0.24315909
-0.17257328 -0.117432505 0.3998665 0.18881133 -0.328563 0.43903846 -0.37598458 0.16920839
-0.09208526 0.35750312 -0.25376877 -0.1616793 -0.21282548 0.30222744 -0.03015898 0.050578173
-0.06930828 -0.104950935 -0.04198849 -0.16250558 -0.36738625 0.04260403 -0.10434888 -0.03218265
0.09036019 0.44700503 -0.33191267 0.26376334 0.44170082 -0.12784605 -0.24341583 0.20394245
0.21031533 0.007703318 0.29899275 -0.3867706 -0.325421 -0.095677316 0.058228325 -0.28985992
0.17713791 -0.15768196 -0.14232561 0.0021673942 0.14708747 0.13833988 0.079808086 0.21973725
-0.37467173 0.3230328 -0.056082 0.008252966 0.010389007 0.03440253 -0.35369045 0.43969074
0.048704844 -0.44190767 0.05612277 -0.108103596 -0.40774858 -0.060897995 -0.32819334 0.4462273
0.4395451 0.023136402 0.2922308 0.41245204 0.23867244 0.32689252 0.39039737 -0.07219289
-0.3873497 -0.021190513 0.2898128 0.38525507 0.2106283 0.4248838 0.2836414 0.22814925
0.1553076 0.06321563 0.2708772 0.0630214 0.24429686 -0.40225726 -0.044895593 -0.35126367
0.1656436 0.06478332 -0.064718276 -0.34765154 -0.21095772 -0.066699564 -0.35677284 0.22983316
0.39643693 0.18630426 -0.0020982795 -0.2210364 0.2124826 0.3438545 -0.09915481 0.23671892
-0.41871464 -0.3810163 -0.33002108 0.02228483 0.31179655 -0.094125934 -0.4175107 0.19021311
0.07301267 -0.20363723 0.2412149 -0.16284262 0.39730367 0.15063006 -0.0046870476 0.24457195
0.14029515 0.36024863 0.34376952 -0.32371604 0.33305675 0.2723429 -0.02222983 -0.19674575

encoder.0.bias f4 [128]
00000000: 20d3 3d3e e1c5 5a3e b6bf 983e e58e 6abe
00000010: 4577 ab3d be8f 1cbe e4ad b83e fdd3 06be
00000020: 9c5f 24be a63b 62be 815f c13d 1643 ba3e
00000030: 8184 8abc 9dac dabe 8e19 a43d 4fd9 a73d
00000040: cff2 dd3e 208e cb3e 18fd acbe 970c 5f3c
00000050: aeb5 473e 2f5f 30be 1c99 073d 2331 18be
00000060: 8ca2 4e3d 05b5 dfbe efc2 a4be 9576 2f3e
00000070: abf4 a5bd a0ac cfbe 5e0b cebe 9e2a d93e
00000080: 8b39 b0be 3701 733e dfb3 9cbe bec2 3bbd
00000090: 36aa c8bd 8310 b4bd 73bc 89bd cf14 02be
000000a0: fa49 7e3e 0bd3 893e 5516 d1be baaa 193d
000000b0: 56a7 a5be cb74 9b3e 68b4 c8be c1d9 ae3e
000000c0: 0ea5 b23e 0477 2bbd 21e4 d33e c2ce 8c3b
000000d0: 9556 233e d488 a53e cbe3 2a3e 68f8 b7be
000000e0: 5203 d13e c150 543e e8ab b7be 3d27 d53e
000000f0: 6e97 d53e c4f5 8bbe b9c0 a9be cd0c acbb
00000100: fb1a b43d 6edd b53e 5540 9abe cb1f debe
00000110: 7756 c6be adf1 b7be e8f5 aa3e 517e e03d
00000120: 90a4 c7be dfbc 873c 04b2 35bd 0396 aebe
00000130: 5005 5f3e bd05 61bc 1cdb d7be 4aba b5bc
00000140: f047 a8be d862 d0be e10b d53d a870 54be
00000150: 20f3 52be c353 fa3d c190 a73d 75e7 b53d
00000160: b821 9cbd ee82 cabe d9bf c33c f5f9 b53e
00000170: 23b8 943e 8bd5 b93e 06d9 953e 741c d5be
00000180: 7399 8b3e 24cc d3be 7c84 c6be ced6 9b3d
00000190: 3337 4dbe 7ea1 90be b57d 683e 4045 b33e
000001a0: 144c 853e 4186 4abd 0031 f63d 3366 cb3e
000001b0: 4a7f 0a3e 94b5 dbbe d0c5 b93e 74d0 9bbe
000001c0: ea08 00be 0b01 793d e7de 9aba a9e5 89be
000001d0: 4eb6 aabe 0053 893e 4d68 a13c a61d da3e
000001e0: 67fd 09bd 47c6 8bbe 933c 77bc a2a7 b73e
000001f0: c7cd 4f3e 86ab 22bd 9f75 fcbd ecdf 623e
0.18537569 0.21364547 0.29833764 -0.22906072 0.08372358 -0.15289208 0.36070168 -0.13166805
-0.16052097 -0.22093067 0.09442044 0.36379308 -0.016908886 -0.42709818 0.08012687 0.08195745
0.4334931 0.3975687 -0.33786845 0.0136138415 0.19502899 -0.1722381 0.033105 -0.14862494
0.050447986 -0.43692794 -0.32179973 0.17135079 -0.08103307 -0.4056139 -0.40243047 0.42415327
-0.34418902 0.23730932 -0.3060598 -0.045840017 -0.0979809 -0.08792212 -0.06725397 -0.1270325
0.24832907 0.26918826 -0.4083735 0.037516333 -0.3235423 0.30362543 -0.3920014 0.34150508
0.34891552 -0.04186155 0.41384986 0.0042971084 0.15950997 0.32330954 0.16688459 -0.35931706
0.40822846 0.2073393 -0.35873342 0.416315 0.41717094 -0.27335942 -0.33154848 -0.0052505494
0.087942086 0.355205 -0.30127206 -0.4338363 -0.38737842 -0.3592657 0.33390737 0.10961593
-0.3899274 0.016569553 -0.044359222 -0.34098825 0.2177937 -0.013734278 -0.42159355 -0.022183556
-0.32867384 -0.40700412 0.10402656 -0.207461 -0.20600557 0.122230075 0.081819065 0.088820376
-0.07623619 -0.39553016 0.023895191 0.35542265 0.29046735 0.36295733 0.29267138 -0.4162327
0.2726551 -0.41366684 -0.38772953 0.0760933 -0.20040588 -0.2824821 0.22704203 0.3501377
0.26034606 -0.04944444 0.12021065 0.3972641 0.1352512 -0.4291197 0.3628373 -0.30432475
-0.125034 0.06079201 -0.0011815698 -0.2693303 -0.33342212 0.26821136 0.019703055 0.42600745
-0.03368893 -0.2729971 -0.015090126 0.3587008 0.20293342 -0.03971436 -0.12327122 0.22155732

encoder.2.weight f4 [128, 128]
00000000: 6823 643d bf6a 90bc fc8d 4cbd 6fa9 89bd
00000010: d30b 153d c957 e0bc bc5b ee3c 3697 b23d
00000020: fff4 8f3d 6491 c33c b0a3 abbd 2e88 943c
00000030: 9592 e1ba 2196 85bd 8588 e739 9665 a7bb
00000040: 01f6 703c 874e 4d3d fc64 acbd 572c e1bc
00000050: 4271 2fbc e79d 16bd 752f a2bd aff4 c1bb
00000060: 5f4a 893d 3a15 1dbd 0762 c5bb b604 84bd
00000070: cab3 e23b 5575 873d 7d2b a83c 72cb 943c
00000080: 0b13 62bd 9961 f1bc fb8e 4cbd 69c7 4d3d
00000090: 7843 55bd 01bd 3cbc 3745 55bd cfe4 0abd
000000a0: 31ce b0bc 4174 673d 6fbb c0bc 733b 893b
000000b0: a39c a2bc 5a9a 2abd 6926 14bd 2c09 90bd
000000c0: 3b3d 9b3d 214e 38bd df27 2f3d c8af cebc
000000d0: 046d 113d 8fe6 db3c d66e 94bd fc57 0abd
000000e0: 19ed 8d3d 2d9c 89bd 0603 3e3c c70c bc3c
000000f0: 6ddd d4bc 5cac abbd d1e9 ae3d 918a a13d
00000100: 6243 aabd 8dae 9f3a 5bf3 f0bc 8987 d43b
00000110: 20e2 92bd 3b20 97bd 4b2e 923d c0f3 813d
00000120: b0dc 1f3b 3728 ec3c 4141 ab3d 5f34 92bd
00000130: 94c4 283d e4ae 943d bad3 803b b5ff b1bc
00000140: 477e 803c fd8e 8c3d a8be 283d 7b40 ac3c
00000150: 3704 75bd 3c91 563d 4e38 a4bc 859d 54bd
00000160: 6c1d 133d 5462 6c3d 01d7 913d bb41 583d
00000170: 3826 6b3d 70dc 66bd b4e4 0b3c 88be 6c3d
00000180: cf6d a73b 56f7 69bd a7ac 7f3d a08c 46bd
00000190: d3f2 9ebd 9e4d 6bbd 4d16 e23c b417 21bc
000001a0: 0f8b 9b3d bf84 5bbd b6b5 a7bc 339a a3bd
000001b0: 971c 053d b661 a83d d0e9 82bd f8ed 0e3d
000001c0: a43e 14bd 621b d6bc be7a 8fbd c78d ad3d
000001d0: 3e7f 92bd 2955 7d3d c8c6 513d ee8d 2abd
000001e0: e680 1fbc d3f0 31bd 78cb 42bc 55c0 1abd
000001f0: d8d3 053d 00b8 b33d 8291 613d 2487 a3bd
00000200: 2915 1dbb 05f8 543d 9b39 7d3b 48e7 e53c
00000210: bfd8 2bbd 5492 f43c 041e 883d 355d 853d
00000220: 7159 733d 8d51 e5bc 23ad e2bc aa05 8ebc
00000230: a79c 793d e249 ccbc 323f dbbc 9220 ca3b
00000240: d863 72bd df47 aa3c 333e 293b dbbd ae3d
00000250: cb3f b43d 7c0b 9a3d 749e 75bd 4c02 8bbc
00000260: 5fc5 283d 7725 9dbd 860d 0bbd b33e 9a3d
00000270: 1585 693d a936 81bd 01ff 69bd 4a43 833d
00000280: 49d9 4d3d 531e 233c 508f fe3a fffb 00bd
00000290: f76a 84bd 92db 993d 4642 69bd acb5 70bd
000002a0: 225f 10bd a6a3 29bd 8092 e4b7 98a6 36bd
000002b0: 707a 89bd 6828 0f3d 74f7 8fbd 0737 23bd
000002c0: 8232 3abc 3744 aabd ce95 7b3d a813 dd3c
000002d0: 3194 593d a2c4 96bd f28f 1dbd 56c7 7f3d
000002e0: fcb2 51bd 0730 1abc 5e5d 683d 0f39 343d
000002f0: b88c 713d 0552 4fbc a94f 4e3d c37c 9bbd
00000300: 17d5 12ba bae0 a4bd e844 383c e884 9ebd
00000310: 9b0d 5cbc 7290 e4bc 05da 0fbd 963c 3c3d
00000320: 76e2 1c3d 18bb 7fbd abd0 b03c 9a1c 84bd
00000330: 9db8 7a3b ec24 3ebc d867 2fbc c0ed 983d
00000340: 5164 64bd 0d95 8dbd 0706 f5bb 976f 333d
00000350: 54e7 343d 6a05 133d 9fae 8a3d 51a4 693d
00000360: e632 7bbd 7c15 7bbd b780 dbbc b476 953d
00000370: f0a3 8fbb 2f31 953d 731a 9d3d 9907 163d
00000380: 85fb 743d 3464 38bd b4c9 20bd ab7b 043a
00000390: 2537 6bbd f7f0 7bbd 2b13 88bd 2ed8 1fbd
000003a0: b0a0 af3d d119 ff3c a8ec 103d c48a a5bb
000003b0: 0a57 89bd 3111 cebc a8f1 a83d 01d2 dcbb
000003c0: ea60 183c 5377 b9bc 3cff 39bd 1a32 923a
000003d0: 2c65 a3bd 2d0a 8e3d 378b 473d 5637 49bd
000003e0: f13c 88bd 3945 2ebc f4ab 9cbd 89f8 9fbd
000003f0: a7e3 81bd ec66 b0bd 9717 00bc 6fc7 1a3c
0.05569783 -0.017629026 -0.049940094 -0.0672177 0.03638823 -0.02738561 0.029096477 0.087202474
0.07029151 0.023873039 -0.0838083 0.018131342 -0.0017209823 -0.065227754 0.00044161468 -0.0051085455
0.014707089 0.050123718 -0.08417699 -0.027486963 -0.010708155 -0.03677168 -0.07919208 -0.005919061
0.06703638 -0.03835032 -0.0060236487 -0.06446211 0.006918405 0.06614176 0.02052855 0.018163417
-0.055193942 -0.029465484 -0.049941044 0.050239 -0.052066296 -0.011519671 -0.05206796 -0.033909615
-0.021582695 0.056507353 -0.023526875 0.004187995 -0.01985008 -0.041651107 -0.036169443 -0.070329994
0.07580038 -0.044996385 0.042762633 -0.025230303 0.035504356 0.026843337 -0.07247703 -0.033775315
0.069299884 -0.06719241 0.0115974005 0.022955311 -0.02598449 -0.08382484 0.08540691 0.078877576
-0.083136335 0.0012182757 -0.029412916 0.0064858836 -0.07172036 -0.07379194 0.07137736 0.0634532
0.0024393015 0.02882777 0.083620556 -0.07138895 0.041203097 0.0725992 0.00393149 -0.021728376
0.015685214 0.0686321 0.04119745 0.02102684 -0.059818473 0.0523846 -0.02004638 -0.051908035
0.03591673 0.05771096 0.07121087 0.05279706 0.057409495 -0.05636257 0.008538414 0.057798892
0.0051095258 -0.057120644 0.062420513 -0.048473954 -0.07761159 -0.05744707 0.027598524 -0.009832311
0.07594883 -0.053593393 -0.020472389 -0.079883955 0.03249797 0.08221762 -0.063922524 0.034894913
-0.03619255 -0.026136104 -0.07005833 0.084743075 -0.07153176 0.061848793 0.051214963 -0.04163926
-0.009735322 -0.04344256 -0.011889331 -0.03778108 0.032672733 0.087753296 0.055070408 -0.079847604
-0.0023968911 0.051994342 0.0038639072 0.028064385 -0.041954752 0.029854931 0.0664635 0.065119185
0.05941147 -0.027992988 -0.027670449 -0.017336685 0.06094041 -0.024937574 -0.026763532 0.0061684335
-0.05917725 0.020786224 0.0025824427 0.08532306 0.0880123 0.07521722 -0.059965566 -0.016968869
0.041203853 -0.076731615 -0.033948444 0.0753149 0.057011683 -0.06309254 -0.057127956 0.06409319
0.050256047 0.00995596 0.0019421373 -0.031490322 -0.064657144 0.07512583 -0.05694797 -0.058767006
-0.035246976 -0.041415833 -2.7247937e-05 -0.04459247 -0.06712806 0.034950644 -0.0702962 -0.0398474
-0.011364581 -0.08313792 0.06142216 0.026986912 0.053119842 -0.073617235 -0.038467355 0.06244596
-0.051196083 -0.009410865 0.056729667 0.043999728 0.05897209 -0.012653832 0.05036894 -0.07592156
-0.0005601211 -0.08050676 0.011246897 -0.077401936 -0.013430978 -0.027900908 -0.03512003 0.045956217
0.038301907 -0.062434286 0.021583876 -0.06450768 0.003825701 -0.011605483 -0.010705911 0.07467222
-0.05575973 -0.06913195 -0.007477525 0.043807592 0.044165924 0.035893835 0.067715876 0.05704147
-0.061327837 -0.061299786 -0.026794774 0.072980314 -0.0043835565 0.07284772 0.076710604 0.03662834
0.05981018 -0.045017436 -0.03925486 0.00050538284 -0.057425637 -0.0615091 -0.06644281 -0.039024524
0.085755706 0.03114024 0.035381943 -0.0050519425 -0.067060545 -0.025154682 0.08249217 -0.0067389016
0.00930045 -0.022639906 -0.045409426 0.0011153847 -0.079782814 0.069355346 0.04871675 -0.049125038
-0.06652249 -0.010636621 -0.07649985 -0.07811076 -0.06342249 -0.08613381 -0.007818124 0.009446963

encoder.2.bias f4 [128]
00000000: 60ed 773c afa3 0b3d 35f3 e23c 2ba5 1abd
00000010: 1d2d 26bd 24e0 b0bd 16c4 103c 99d2 eebc
00000020: e7a0 a33d 8caa 003b e7af 9a3c 4c41 933d
00000030: 8433 a33d bfb9 6cbc 85e4 393d c24f 373d
00000040: 3610 1f3d edcd 8abd d85d 073d ee05 6e3c
00000050: 13ed 75bd bd29 e83b c51c 08bc 0da0 b03d
00000060: 48d9 2b3d 47d8 903d d008 89bd 4e18 103c
00000070: 362b d03c ff61 7dbc 4621 8b3d 1245 c7bb
00000080: 4c52 e6bc 1699 fabb 1fc2 8e3c d659 0d3d
00000090: 3269 bf3c 3b42 b13d 7f28 a1bd 18ec 493d
000000a0: c94e 973d 801e 163d 126d 9cbc 03d6 543d
000000b0: 2c6f 913d db68 aa3d aad4 8ebc 17b6 6e3d
000000c0: b3c2 acba 5a71 273d 3e7f 7e3d 297d 9fbc
000000d0: b0ad 86bc 98db a13d e998 adbc 29ae 15bc
000000e0: 00aa 05bc 1f27 073d 287c 32bd 43b5 293d
000000f0: de48 a8ba c379 14bc 23ef 853d 56cf acbc
00000100: f744 313c 39ba 1a3d c010 dfbc 13c9 14bd
00000110: e3cf 663b 825a aebd 59b7 533d 5771 af3d
00000120: caf3 ad3d ad10 583c 76cf 7c3d 3291 923d
00000130: 81f7 c8bc ce1c 19bd 4ee8 993d e447 2dbd
00000140: a6e2 7f3d 54b7 88bd b5e2 abbd 8f22 86bd
00000150: 3e6b 813d cf5d b4bc 13f4 d4bb d7a6 ac3d
00000160: 34fc 4dbc 0e55 8a3c 1ab1 a93d f838 943c
00000170: a194 823d b513 92bd cdc8 0bbd 0b62 9cbd
00000180: b238 ad3d eab6 5c3c e955 843d 233e dbbc
00000190: 02d8 8c3c 166d b4bd 0ed9 d3bc 4304 5bbd
000001a0: 135c c2bc fb9d a8bc 710e e53c e8a3 0fbd
000001b0: 2452 a0bd fd4e 01bd ba26 83bd b5e5 92bc
000001c0: f762 50bb 0e71 82bd 779e 4dbd 7750 c8bc
000001d0: 59fa 833d 5d26 6b3c 67ac d83b cf34 913d
000001e0: 269d 19bd 502d 153d 0d8c 8fbc 47d9 353d
000001f0: 619a 253d 6656 1a3d 6a57 5fbd ce2f 2dbd
0.015132278 0.034091648 0.02770386 -0.037755173 -0.040570367 -0.086365014 0.008835813 -0.029153155
0.07989674 0.0019632904 0.018882705 0.07190189 0.0796881 -0.014448582 0.04538395 0.044753797
0.03883382 -0.067775585 0.03304848 0.014527781 -0.060040545 0.0070850537 -0.00830764 0.08624277
0.041955262 0.07072502 -0.06691134 0.008794857 0.02541123 -0.015465259 0.06793456 -0.006081232
-0.028115414 -0.007647644 0.017426549 0.034509502 0.02336559 0.086552106 -0.07869052 0.049297422
0.07388074 0.03665018 -0.019094978 0.05196191 0.071012825 0.08320781 -0.01743539 0.058279123
-0.0013180583 0.040879585 0.062133066 -0.01946886 -0.016440243 0.07903212 -0.021191077 -0.009135761
-0.008158207 0.032996293 -0.043575436 0.04143263 -0.0012839099 -0.009062233 0.06539752 -0.02109496
0.010819665 0.037775252 -0.027229667 -0.03632457 0.0035219125 -0.08513357 0.051688526 0.0856654
0.08493765 0.01318757 0.061721288 0.071566 -0.024532082 -0.037380986 0.07515012 -0.04230489
0.06247201 -0.06675592 -0.0839285 -0.0654956 0.06319283 -0.022017388 -0.0064988225 0.0843026
-0.012572337 0.01688626 0.082857326 0.018093571 0.06376005 -0.07132665 -0.034127045 -0.07635888
0.084580794 0.0134713445 0.064616986 -0.026763028 0.017192844 -0.08809869 -0.025860336 -0.05347086
-0.023725545 -0.020583143 0.027960988 -0.035068423 -0.07828167 -0.03156947 -0.06403871 -0.017931798
-0.003179727 -0.0636922 -0.050199952 -0.024452431 0.064442344 0.014352408 0.006612349 0.070901506
-0.037503384 0.036420166 -0.017522836 0.044396665 0.04043043 0.037680052 -0.054526724 -0.04228192

actor.weight f4 [4, 128]
00000000: b8e9 313d 2cbb 553d 3192 1ebd dbaf 05bd
00000010: 358d 013c faa3 86bd c6e6 a53d a88f 503d
00000020: 772d aa3c e204 a4bd b89e a3bd b73e a8bd
00000030: 2444 b33d f3c6 33bd 776e 8f3b feff 553d
00000040: 90bf 2abd 1af4 403d 55f9 b4bd 57d7 36bd
00000050: 9f1f c63b 80bb 79bd 4017 a3bd 58d8 50bc
00000060: 198a 37bc e930 99bd e25c 8dbc f2a6 063d
00000070: 7926 8e3d f8be 8d3d c614 52bd caee abbc
00000080: d768 a53d 42ba cabc 397b 683d 437f b43d
00000090: ac86 a6bd 19b8 943d 4e35 533d 7267 463d
000000a0: f462 9b3d c6b7 503c 3c89 5fbd facd 2f3d
000000b0: 4f1d 273d 20c4 323c adbf a8bd 3d89 9ebd
000000c0: 9959 4fbd 521f d9bc 3f14 0b39 48e9 56bd
000000d0: fbc2 98bc f23c 3bbd 4a39 583d 47f7 763d
000000e0: 9531 c2bb ed6b 21bd e76d fe3b c1ab a4bd
000000f0: 1321 4bbd a516 e83a 6b46 29bd ad5b a53d
00000100: 389b 883d 724e b53c 1aaa 2bbd 14d7 953d
00000110: 5db6 7b3d d1fa 173d b98a e4ba 3959 8dbd
00000120: 3690 f33c 1b35 8b3d c93e 3cbc c426 38bd
00000130: 27a4 ae3b 91a7 0cbd 196e 6c3d 6390 063c
00000140: 8f9a 263a c599 533d de4d 84bd 477e f1bc
00000150: 1dcf 87bd cb42 363b de31 af3d 2406 57bb
00000160: 2489 32bd 689d 93bd 276d 733d 7d13 f43a
00000170: 4573 59bd 904f adbd 805f 3e3d b2e8 4c3d
00000180: 56f6 7dbd 4fc8 c2bc f581 b8bc d601 263d
00000190: 3e4d afbd 3d85 85bd a4f6 dc3c 6525 de3c
000001a0: f684 973d 6444 5bbd 0faf 5ebd e46f 863d
000001b0: 9520 923d 6f07 6cbd f5c8 bc3c f675 96bd
000001c0: e523 94bd 3035 463c dd02 633d ed0b 693c
000001d0: 76c9 413d 2beb b03d 3432 59bd 89a0 113d
000001e0: 3cbf 23bb 3d52 98bd d715 833d 39f1 b3bc
000001f0: 1446 e639 1d63 273c 2a6a 59bd ca98 483c
00000200: 3217 06bd a42d b03d 4f48 c03c 7d0c 54bd
00000210: 8b9c 143d 2006 0cbd 994e 53bd 9ead 803d
00000220: 46c5 303d cd75 203d 4ae9 ee3c c7b0 a43c
00000230: d7e3 2f3d bb89 313c 2715 9fbc 5842 81bd
00000240: 724f f7bc 38db 75bd ab00 77bb 9003 08bd
00000250: 48aa 133b d460 83bd 4c42 6fbd ae72 94bc
00000260: 37e9 413d d005 24bc 8654 da3c e284 08bc
00000270: e971 b9bb 28ff fc3c fa9a b33c 0e7b 363d
00000280: 6b21 8e3d 5853 3abd 90f5 31bd 03d3 8d3d
00000290: 28ab 1bbd 8175 883d da7a 3b3d 35dc 8cbd
000002a0: de38 6ebc 0f6c 5ebd 19a0 ae3d 1d7b 1a3d
000002b0: 9eee e1bc bc0a a1bd b8f0 b6bc 140e af3d
000002c0: 0a96 4a38 18d0 6dbd 0ac8 86bd 9715 52bd
000002d0: 0c25 933d 9f34 773d b1a6 bf3c 6ac6 afbd
000002e0: b4c6 e23c 0648 5d3d 5632 a5bd 6c36 44bd
000002f0: 831b 90bd 14e0 65bb c76d df3b d5a4 913d
00000300: 4607 17bd fa70 d83b ccf7 f4bc d081 87bd
00000310: efdb d23c 8537 a8bd 228c c7bc 166c af3b
00000320: 4d0c ed3c 2c33 79bd 47e0 9dbb 09f8 983d
00000330: 9a1b 17bd 447d a93c d3d6 9cbd cad4 5cbd
00000340: 0f45 3cbc 3e72 20bc f0c6 c63a 72e2 363d
00000350: 93ef 933d 996d 85bd 1077 8bbd 36ea 2e3d
00000360: 4f96 71bd 83c8 80bd 8ecf 79bd d41e 3dbd
00000370: c071 233d 223e 793d 9c33 7e3c c08d 1c3c
00000380: 4f08 f4bc c07f 773d 987c a6bc 30f6 973d
00000390: 5e20 3ebd 6410 1d3c ff7d 35bc b437 753b
000003a0: 2d4e f9bc 57c6 a9bc 4cea 95bd 1cf7 fdbc
000003b0: c5f4 0dbd d55f 5bbb 46bb 92bd 12cb d73b
000003c0: 7331 a23d 9db4 523d 8efc a3bd 48f6 9bbd
000003d0: 007a 7c3d 9225 b4bd eea6 89bc c7e7 843d
000003e0: ebcf 3c3d 7471 60bd c0ba 07bd 946f 98bd
000003f0: 0a54 713d 3a21 80bd 22e0 11bd a11e 5abb
0.043435782 0.052180454 -0.038713638 -0.032638412 0.007907202 -0.06574245 0.08100657 0.05091825
0.020773632 -0.08008744 -0.079892576 -0.08215087 0.08753231 -0.043890905 0.004377182 0.052246086
-0.041686594 0.047107793 -0.08836619 -0.044638958 0.00604625 -0.06096983 -0.07963419 -0.012746893
-0.011202359 -0.07480032 -0.017256204 0.032874055 0.06940932 0.0692119 -0.051289342 -0.020987887
0.08076637 -0.024747018 0.05675814 0.08813336 -0.08131155 0.07261676 0.051564507 0.048438497
0.07587233 0.0127391275 -0.054574236 0.042921044 0.040799435 0.010911018 -0.08239684 -0.0774102
-0.050622556 -0.026504193 0.00013263615 -0.052468568 -0.018647661 -0.04571242 0.05278901 0.060294416
-0.005926321 -0.039409567 0.007764566 -0.08040572 -0.04959209 0.0017706944 -0.04132692 0.080741264
0.066702306 0.022132132 -0.04191027 0.073164135 0.061453212 0.03710443 -0.0017436362 -0.069017835
0.029731851 0.067972384 -0.0114895785 -0.044958845 0.005329627 -0.03433949 0.057722185 0.008213135
0.00063554285 0.051660318 -0.064601645 -0.029479159 -0.066313006 0.0027810808 0.08554433 -0.0032810057
-0.04358782 -0.07207757 0.059430268 0.0018621531 -0.053088445 -0.08462441 0.046477795 0.050026603
-0.062002502 -0.023777155 -0.022522906 0.040529095 -0.08559655 -0.06519554 0.026973076 0.02711744
0.07398407 -0.05353202 -0.054366168 0.0656431 0.07135121 -0.057624277 0.023045043 -0.07346718
-0.07233409 0.012097642 0.055422653 0.014224035 0.04731127 0.08638605 -0.053026393 0.03555349
-0.002498581 -0.07437561 0.0640065 -0.02196561 0.0004392123 0.010216502 -0.05307976 0.012243459
-0.032736965 0.08602455 0.02347198 -0.051769722 0.036282104 -0.03418553 -0.05158863 0.06283115
0.043156885 0.039174844 0.029163975 0.020103825 0.042941894 0.01083606 -0.019419266 -0.06311482
-0.03018925 -0.060023516 -0.0037689607 -0.033206522 0.0022531915 -0.06414953 -0.058412835 -0.01812109
0.04734155 -0.010011151 0.026651632 -0.008332463 -0.005659331 0.030883387 0.021924485 0.044550948
0.06939968 -0.04548964 -0.043447077 0.06925013 -0.038005024 0.06663037 0.045771457 -0.06877939
-0.014539925 -0.05430227 0.0852663 0.037715066 -0.027579602 -0.078633755 -0.02233158 0.08547607
4.8300288e-05 -0.05805978 -0.06581123 -0.05129012 0.071848005 0.060352918 0.023394914 -0.08582766
0.02768264 0.054023765 -0.080662414 -0.047903463 -0.070364974 -0.0035076188 0.0068185064 0.07111517
-0.03687217 0.0066052647 -0.029903315 -0.06616557 0.025739638 -0.082137145 -0.024358813 0.005353461
0.02893653 -0.060839817 -0.0048179957 0.07469184 -0.036891557 0.020689614 -0.07658162 -0.05391387
-0.011491074 -0.009792862 0.0015165489 0.04464955 0.072234295 -0.06515045 -0.06809819 0.04270383
-0.058981236 -0.062882446 -0.060988955 -0.046171978 0.039903402 0.06085027 0.015515234 0.00955528
-0.029789118 0.060424566 -0.020323083 0.074200034 -0.046417587 0.009586427 -0.011077403 0.0037417235
-0.030432785 -0.020724459 -0.07320079 -0.03100162 -0.03465726 -0.0033473868 -0.07164626 0.006585487
0.07919588 0.051441777 -0.08007155 -0.07615334 0.061639786 -0.087962285 -0.016803231 0.064895205
0.046096724 -0.054795697 -0.033137083 -0.07443157 0.058918037 -0.062563375 -0.03561414 -0.0033282416

actor.bias f4 [4]
00000000: d152 053d d67e 42bd f44d 4dbd b803 123d
0.032549683 -0.04748424 -0.05012317 0.035648078

critic.weight f4 [1, 128]
00000000: a7fa 86bd 7dfe b63c 1c64 6c3d 5db4 15bd
00000010: 6fa1 343d 3198 9f3d d010 ac3d c9a8 c93c
00000020: 7d64 703d 34d8 0f3d e7a0 a63c 785d b43d
00000030: 2ac1 02bd 4eaa 823c 6dc8 4bbd 875b 35bd
00000040: cceb 83bd 8044 ec3c bf67 96bd 069b 173c
00000050: d5bb 253d 6ae5 9abd 9f87 8abd e091 1ebd
00000060: 4e4c 53bd 637d f7bb cc62 a3bd 2f50 993d
00000070: 1a84 b23d 123c 76bd 9582 353d 4193 a0bc
00000080: 5338 48bd 0d38 463d 44e0 54bd ee6f 6c3d
00000090: 91c5 83bc a399 aabd 7eaa 823d 5190 993d
000000a0: 845e 7bbd 6288 133d 39f6 943d 19ab 7f3c
000000b0: c198 9cbc ec38 223d aef9 943c 9fa8 3e3d
000000c0: 027d 9a3d 4714 573c b82c e63b dd8d 10bd
000000d0: 27b5 94bd b616 5e3d 4655 873d ff95 a73d
000000e0: 1119 5b3d a6b9 5fbd b67b 35bd f458 1d3d
000000f0: 7817 6abd 7fc2 12bd 9f03 66bd 4d5b 00bc
00000100: 0dff 77bd 6bda 88bd fb92 8e3d 77cc 0cbd
00000110: af8a 3b3d 170e 42bd e2a2 e53c a2ec ddbc
00000120: 5339 c5bc 270a 8fbd 2f0c 09bd bf8e adbc
00000130: 18e3 883d 6758 873b 1ce6 1abd 226a a23d
00000140: e12f 623d 9820 d03c 2b46 13bc 113a 613d
00000150: ed7b 96bd 1004 abbd 0038 de3c 7cee 2bbd
00000160: a581 3e3d df22 e73c 7a8d 953b de4d 09bd
00000170: 9615 82bc 148a 90bd 530c 87bd ddd0 26bd
00000180: 6207 3dbc 3c23 a7bd 557f 543d fa29 e9bc
00000190: d696 cb3c 03ff 263d f54d 8ebd 9e3c b0bd
000001a0: 7bfe bbbb 46bd 993d a2a6 c63c 65f3 8ebd
000001b0: fd42 aabd e383 f6bb 9615 dbbc bdbd 973d
000001c0: 7afd 0d3d 8df8 c53c 634b 043d fa0d ddbc
000001d0: de4f 9a3d 5894 a6bc 033b 863c ab1b a6bd
000001e0: 428f 803d 0f28 f2bc 612c 853d 4edc 9a3d
000001f0: aeca e5bc e8ac 12bd 26f9 473c 590f 54bd
-0.06590777 0.022338146 0.05771266 -0.03654896 0.044099268 0.077927 0.08401644 0.024616616
0.058689583 0.035118297 0.020340396 0.0880689 -0.031922497 0.015950348 -0.049751688 -0.04427674
-0.06441459 0.028841257 -0.07344007 0.009253269 0.040462334 -0.075632885 -0.06764149 -0.038713336
-0.05158644 -0.007552789 -0.079778284 0.07485997 0.087166026 -0.06011588 0.044313986 -0.019601466
-0.04888184 0.048393298 -0.05197169 0.057723932 -0.016085418 -0.08330085 0.06380175 0.07498229
-0.061369434 0.036018737 0.07273526 0.015604758 -0.019115807 0.039605066 0.018185463 0.04654753
0.075433746 0.013127393 0.007024374 -0.03529154 -0.072611146 0.054220878 0.066080615 0.08182906
0.053490702 -0.054620408 -0.044307433 0.03841491 -0.057151288 -0.035830017 -0.056155797 -0.007834268
-0.06054597 -0.06682285 0.06961628 -0.03437468 0.045786556 -0.04737672 0.02803177 -0.027090374
-0.024075186 -0.06984358 -0.033458885 -0.02118623 0.0668394 0.0041304114 -0.037817106 0.079303995
0.055221442 0.025406167 -0.008988897 0.054987017 -0.07347856 -0.08350384 0.027126312 -0.041975483
0.046510357 0.02821487 0.0045639845 -0.033521526 -0.015879434 -0.07057586 -0.065941475 -0.04072653
-0.011537405 -0.08161017 0.051879246 -0.028462399 0.024852198 0.040770542 -0.06948463 -0.08605312
-0.0057371235 0.07506804 0.024249379 -0.069800176 -0.08313558 -0.0075230463 -0.026743691 0.074092366
0.034665562 0.02416637 0.032298457 -0.026984204 0.07534765 -0.020334408 0.01638556 -0.08110746
0.06277324 -0.029560117 0.06502605 0.07561551 -0.028050747 -0.035809427 0.012205398 -0.05177245
