code/models/ppo_checkpoint_200.pt (torch, 75495 bytes, 7 tensors)

encoder.0.weight f4 [128, 5]
0	0x3ecf0d6f	0.40439937
1	0x3e89e07c	0.2692908
2	0x3e0bd372	0.13654879
3	0x3e944aae	0.28963226
4	0x3ecb13de	0.39663595
5	0xbcd7b829	-0.026332932
6	0x3d986cd5	0.07442633
7	0x3ed70e75	0.42003217
8	0xbe942df4	-0.2894131
9	0x3eb54d3e	0.35410494
10	0x3e32dbba	0.17466632
11	0x3e5dc230	0.21656108
12	0x3ea427b0	0.3206153
13	0x3e164b29	0.14677109
14	0x3ebf6c6f	0.37387416
15	0xbe45f142	-0.19330314
16	0xbb0ba8e2	-0.0021310379
17	0xbe8d9976	-0.27656144
18	0x3e1eeac4	0.15519243
19	0xbeaa4a07	-0.33259603
20	0xbdfb8f95	-0.122832455
21	0x3ee19bd5	0.44064203
22	0xbe760e24	-0.24028832
23	0xbec3f276	-0.3827092
24	0x3dc76621	0.097362764
25	0x3eb3b869	0.3510163
26	0xbe0d0fb5	-0.13775523
27	0x3e9d0bc0	0.30673027
28	0x3e8631f0	0.26209974
29	0x3e3bc7ab	0.18337886
30	0xbd530839	-0.051521514
31	0x3ed1e462	0.40994555
32	0x3eb4c219	0.35304335
33	0x3e11b09c	0.14227527
34	0x3e1a323e	0.15058228
35	0xbeb8977d	-0.36053076
36	0x3d062e53	0.032759022
37	0x3ed847cb	0.42242274
38	0x3ed30f92	0.41222817
39	0x3b67cd03	0.003537
40	0xbdaa60d1	-0.083192475
41	0x3cf8764a	0.030329842
42	0x3e54d5a9	0.2078463
43	0xbd7ba5a6	-0.06143727
44	0xbe951321	-0.29116157
45	0xbdfbf4a7	-0.12302523
46	0x3c923d59	0.017851518
47	0x3e892c45	0.26791587
48	0xbed73943	-0.42035875
49	0x3c368321	0.011139662
50	0xbec2bf15	-0.3803641
51	0x3ed261ab	0.4109014
52	0xbec0b702	-0.37639624
53	0x3dc5d89e	0.09660457
54	0xbece23f8	-0.40261817
55	0xbe934dae	-0.28770202
56	0x3de4ec23	0.11177852
57	0x3ebaf941	0.3651829
58	0xbe44e196	-0.19226679
59	0x3ebe610a	0.3718341
60	0x3e981048	0.29699922
61	0xbe6cd4d8	-0.23128068
62	0x3edf60e5	0.43628612
63	0xbdab04b3	-0.08350506
64	0xbe354e38	-0.1770562
65	0xbeba9d5c	-0.3644818
66	0x3cb334e4	0.021875806
67	0xbeb573cf	-0.35439917
68	0xbea11063	-0.31457815
69	0xbe185960	-0.14877844
70	0xbeabb8b2	-0.3353935
71	0x3ed7948b	0.42105517
72	0xbeb4bef5	-0.3530194
73	0xbeb44efd	-0.35216513
74	0x3ec75642	0.38932997
75	0xbe3c43ad	-0.18385191
76	0xbe9cd0a3	-0.30627927
77	0x3e856ac7	0.26058027
78	0xbec507ff	-0.38482663
79	0xbeaf582d	-0.3424696
80	0x3e72862f	0.23684
81	0x3ec273a2	0.37978846
82	0x3ea9a9c9	0.33137348
83	0x3ebaf5f2	0.36515766
84	0x3decda93	0.11565127
85	0xbea7c1e3	-0.3276511
86	0x3d467b79	0.048457596
87	0xbd77a1e3	-0.06045712
88	0xbe0f3b75	-0.13987525
89	0x3cd4d60f	0.025980977
90	0x3c58c70b	0.013231049
91	0x3e4a86e0	0.19778013
92	0xbe62e1de	-0.22156474
93	0xbe13a060	-0.14416647
94	0x3e7db23d	0.24775024
95	0xbe8d6594	-0.2761656
96	0xbea224d4	-0.31668723
97	0xbe907436	-0.28213662
98	0xbeceeb3c	-0.40413845
99	0xbecaf8f0	-0.3964305
100	0xbed590ad	-0.4171194
101	0xbe9f64d8	-0.31131625
102	0x3e34c2cd	0.17652436
103	0x3ee1b7b8	0.4408548
104	0x3ea5fd3c	0.32419765
105	0xbe44b503	-0.19209675
106	0x3e9f2549	0.31083134
107	0x3eccb0c2	0.39978606
108	0xb9a018bc	-0.00030536007
109	0x3da488dd	0.08033917
110	0xbe9cd6c2	-0.30632597
111	0x3e6b7679	0.22994412
112	0xbc4445de	-0.011979548
113	0xbd7f3d69	-0.062314425
114	0xbed3d872	-0.41376072
115	0x3ecd66b4	0.4011742
116	0xbe2a2d24	-0.16618782
117	0x3edb509e	0.42834944
118	0x3e22d717	0.15902363
119	0xbec981e2	-0.39356905
120	0xbdab09e7	-0.08351498
121	0x3ecd91b6	0.4015023
122	0xbe30e6ac	-0.17275494
123	0xbe4a93b3	-0.19782905
124	0x3d6eb6b0	0.058279693
125	0xbebb5036	-0.36584634
126	0x3eaf88ba	0.34284002
127	0xbeb7dd82	-0.35911185
128	0xbe33f0e8	-0.17572367
129	0xbeb2cbb2	-0.34921032
130	0x3e90949a	0.28238374
131	0xbe104a64	-0.14090878
132	0xbeca8e35	-0.3956162
133	0x3e5f2628	0.21791899
134	0xbd5a897d	-0.053353775
135	0x3d3dd751	0.04634792
136	0xbe4af05f	-0.19818257
137	0xbe14145a	-0.14460889
138	0xbd89ec0b	-0.06734475
139	0xbd4f0350	-0.05054027
140	0x3edba473	0.42898902
141	0xbe7c3333	-0.24628906
142	0x3e71571e	0.23568389
143	0xbeb17da9	-0.34666184
144	0x3eb5c0e2	0.3549872
145	0x3e86ecd1	0.26352552
146	0x3e0a4228	0.13501799
147	0xbebc93a5	-0.36831394
148	0xbecddf34	-0.40209353
149	0x3ea084e7	0.31351396
150	0xbdf9cbb4	-0.121970564
151	0x3e4cc0b3	0.19995384
152	0x3c884678	0.016635165
153	0x3eb08c7d	0.34482184
154	0xbd90078b	-0.07032689
155	0x3e259251	0.16169097
156	0xbe356014	-0.17712432
157	0x3eb55ac8	0.35420823
158	0xbecf4422	-0.4048167
159	0xbcd83a04	-0.026394852
160	0xbe2a63e5	-0.16639669
161	0x3df44de4	0.11928919
162	0x3db7f2e6	0.08981876
163	0xbd23a2ac	-0.039950058
164	0xbcfce4f3	-0.03087089
165	0xbc002557	-0.0078214025
166	0xbbace803	-0.0052766814
167	0x3e9e2931	0.30890802
168	0xbe49fe0b	-0.19725816
169	0x3e608fbc	0.2192983
170	0x3e5fb5f5	0.21846755
171	0x3e19f94a	0.15036502
172	0x3ec5e15c	0.38648498
173	0xbe8a9888	-0.27069497
174	0x3d91730c	0.071020216
175	0xbbe4b534	-0.006979609
176	0xbe83fe0a	-0.25779754
177	0xbecdbe71	-0.40184358
178	0x3e9ba239	0.30397204
179	0x3e4aaf10	0.19793344
180	0xbd7d1aef	-0.061793264
181	0xbedae8a1	-0.42755607
182	0xbdb2eb0f	-0.0873624
183	0xbe9b8245	-0.30372825
184	0x3ed1ef3b	0.4100283
185	0xbe693b59	-0.22776546
186	0xbec9def8	-0.39427924
187	0xbd78958b	-0.06068949
188	0xbebc17f1	-0.36737016
189	0x3c7e9e46	0.015540665
190	0xbdcee31d	-0.10101912
191	0xbd35a0da	-0.044342853
192	0xbee47712	-0.44622093
193	0x3d6a2b6b	0.057170313
194	0x3a9d3047	0.0011992537
195	0x3c91396a	0.017727572
196	0x3c9340d5	0.01797525
197	0x3e08db1d	0.13364835
198	0xbe7e0a1d	-0.24808545
199	0x3de521d8	0.11188096
200	0xbecdbf94	-0.40185225
201	0xbe28cc5c	-0.16484207
202	0xbdfc1239	-0.12308163
203	0x3e50bba6	0.20384082
204	0x3ebd23c2	0.36941344
205	0xbec81ddf	-0.3908529
206	0x3e626598	0.22109067
207	0x3dba32ce	0.090917215
208	0xbe286215	-0.16443665
209	0x3ebf9494	0.37418044
210	0x3e32c017	0.17456089
211	0x3ea62e4e	0.32457203
212	0xbe8c7e28	-0.2744
213	0xbdae624e	-0.08514844
214	0xbe733265	-0.23749693
215	0xbe80be42	-0.25145155
216	0x3ecc06fb	0.39849076
217	0xbedea963	-0.43488607
218	0xbe90ee25	-0.2830669
219	0xbec5a19f	-0.3859987
220	0xbe2ef9d9	-0.17087497
221	0xbead1e6d	-0.33812276
222	0xbca632e5	-0.02028794
223	0x3bff9e15	0.0078008273
224	0xbe635d04	-0.22203451
225	0xbeae1393	-0.3399931
226	0x3dc30623	0.09522655
227	0xbda0904d	-0.07840023
228	0xbe107235	-0.14106067
229	0xbda490f9	-0.08035464
230	0x3ec5291f	0.38507935
231	0xbea950a1	-0.33069327
232	0x3ea49d4b	0.32151255
233	0xbebfd855	-0.37469736
234	0x3e86a703	0.26299295
235	0xbeb1c8a5	-0.34723392
236	0x3c4172b7	0.011807135
237	0xbed15e7b	-0.40892395
238	0x3eab8d63	0.33506307
239	0x3dc77e44	0.0974088
240	0x3e1670ff	0.14691542
241	0x3e2b6bd9	0.1674036
242	0x3e618173	0.22022037
243	0xbed90eb5	-0.42394033
244	0xbdcf61a9	-0.10126049
245	0x3ea83998	0.3285644
246	0x3ec358e1	0.38153747
247	0xbea1084b	-0.3145164
248	0xbe4b1b4e	-0.19834635
249	0x3e4d38be	0.20041177
250	0xbddb1552	-0.10697426
251	0x3ca21647	0.019786013
252	0xbe6abf15	-0.22924455
253	0xbe909384	-0.28237545
254	0x3e84332c	0.2582029
255	0xbde0a240	-0.10968447

encoder.0.bias f4 [128]
0	0x3da38d51	0.07985938
1	0xbe61b1cd	-0.22040482
2	0xbe7bf3e5	-0.24604757
3	0xbe544852	-0.20730713
4	0xbe96d677	-0.294605
5	0x3ccc1ba3	0.024915522
6	0xbe1d3eef	-0.15356039
7	0x3eb7275c	0.35772216
8	0x3e72f910	0.23727822
9	0xbecaab3f	-0.39583775
10	0x3e8d9494	0.2765242
11	0x3eaf527b	0.34242615
12	0x3db6346c	0.088967174
13	0xbe1036d3	-0.14083414
14	0x3dab809a	0.08374138
15	0xbe848251	-0.25880674
16	0x3e90762f	0.28215167
17	0xbeb1ab3f	-0.34700963
18	0xbe52027c	-0.2050876
19	0x3c939f90	0.018020421
20	0x3e92e09f	0.28686997
21	0xbe8bd9a0	-0.27314472
22	0x3d295624	0.041341916
23	0xbe8e058e	-0.27738613
24	0xbe99ae37	-0.30015728
25	0x3ecc744d	0.3993248
26	0xbe0c021b	-0.13672678
27	0x3c94f591	0.018183501
28	0xbea4be8e	-0.32176632
29	0x3ec50a71	0.3848453
30	0x3ecc3686	0.39885348
31	0x3e0f5a15	0.13999207
32	0x3e91e893	0.28497753
33	0x3ebe70a7	0.37195322
34	0x3e9e8798	0.30962825
35	0xbeb430fc	-0.35193622
36	0x3eab01c6	0.3339979
37	0x3e17601f	0.14782761
38	0xbed8d569	-0.4235032
39	0x3e95a8bf	0.29230306
40	0xbe5195a3	-0.20467238
41	0x3d395be1	0.04525364
42	0xbdb07d62	-0.08617665
43	0x3e939b26	0.28829306
44	0x3edbce3b	0.4293078
45	0x3eaa4689	0.3325694
46	0x3e1d40b4	0.15356714
47	0xbd0af1b8	-0.033921927
48	0x3d7f12a6	0.062273644
49	0x3e176d89	0.14787878
50	0xbebc81a3	-0.36817655
51	0xbdae88c6	-0.08522181
52	0x3e6a9611	0.22908808
53	0x3ec9f320	0.39443302
54	0x3ed8c67d	0.42338935
55	0xbe0a339d	-0.13496251
56	0xbed2a290	-0.4113965
57	0x3e0a56fa	0.13509741
58	0x3e54ddbb	0.20787708
59	0xbee61082	-0.4493447
60	0xbedb8806	-0.42877215
61	0xbdaa6d11	-0.08321584
62	0xbed06ec1	-0.407095
63	0x3bc1428c	0.0058978256
64	0x3ed72a70	0.42024565
65	0xbe9723f5	-0.2951962
66	0xbee05421	-0.43814185
67	0xbe6748ca	-0.2258636
68	0xbe1eaccb	-0.15495603
69	0xbe6c3514	-0.23067123
70	0x3e4cc9b6	0.19998822
71	0xbeb62232	-0.35572964
72	0xbd9f87e7	-0.07789593
73	0x3ca943ca	0.020662207
74	0xbcba3e9e	-0.022734936
75	0x3e8a6c51	0.27035764
76	0x3e86fce5	0.26364818
77	0xbea192a8	-0.31557202
78	0xbde3d8e5	-0.11125354
79	0xbe849cb9	-0.2590082
80	0x3e6935c3	0.22774415
81	0x3eaef503	0.34171304
82	0x3e221d17	0.1583141
83	0xbdc72221	-0.097233064
84	0xbedf37df	-0.43597314
85	0x3e455e41	0.19274236
86	0x3ea0e61a	0.31425554
87	0xbe458a1d	-0.19290967
88	0xbecca771	-0.39971498
89	0x3ecb694a	0.39728767
90	0xbe2ce441	-0.16883947
91	0x3e40537d	0.18781848
92	0xbe0a16e1	-0.1348529
93	0x3ec9954a	0.3937171
94	0x3e375322	0.17902806
95	0xbe5de8a4	-0.21670777
96	0x3eaf9dc4	0.34300053
97	0x3e336b8c	0.17521495
98	0xbe165124	-0.1467939
99	0xbd3ab900	-0.045586586
100	0x3ccd2d96	0.025046151
101	0x3ebddff6	0.3708493
102	0xbd98a342	-0.07453014
103	0xbeb2386e	-0.34808677
104	0x3e9b125d	0.30287448
105	0x3e923112	0.28553063
106	0xbe8a50be	-0.27014726
107	0x3e4301fb	0.19043724
108	0x3e0059aa	0.12534204
109	0xbe236214	-0.15955383
110	0xbdc0f338	-0.0942139
111	0xbec2c6d2	-0.38042313
112	0xbedade47	-0.4274771
113	0x3ed8cbb6	0.4234292
114	0xbe383494	-0.17988807
115	0xbe801167	-0.25013277
116	0x3e841266	0.25795287
117	0x3e038893	0.12845068
118	0xbde12e30	-0.10995138
119	0x3e3de343	0.18543725
120	0x3dd0a388	0.10187441
121	0xbdc7c10e	-0.09753619
122	0x3ea22e98	0.31676173
123	0xbe82b1ab	-0.25526175
124	0x3eb5bb19	0.35494307
125	0xbe81ba97	-0.2533767
126	0xbe85db3f	-0.26143834
127	0x3ebea109	0.37232235

encoder.2.weight f4 [128, 128]
0	0xbb818672	-0.0039527947
1	0x3cf46863	0.029834932
2	0xbbf753ee	-0.007547847
3	0xbd330312	-0.0437041
4	0xbca3bb20	-0.01998669
5	0x3d6bab7a	0.05753658
6	0xbcce203e	-0.025161859
7	0x3c75c782	0.01500118
8	0xbd800b02	-0.062520996
9	0xbdb10be7	-0.08644848
10	0x3c3043aa	0.01075832
11	0xbb93904c	-0.0045032855
12	0xbd8070d6	-0.06271522
13	0xbd945631	-0.07243002
14	0x3d8da5e9	0.069164105
15	0x3c411ebd	0.011787114
16	0xbd87a71d	-0.06623671
17	0x3d970813	0.07374587
18	0xbd4f259e	-0.050572984
19	0x3d92a8b9	0.071610875
20	0xbcd2423a	-0.025666345
21	0xbda5a50a	-0.08088119
22	0x3d46c00e	0.048523
23	0xbda4e53e	-0.08051537
24	0x3d90b55e	0.07065843
25	0x3cb9d521	0.022684636
26	0x3cc0f0ef	0.023552386
27	0x3d4d1097	0.05006465
28	0xbd9bebc9	-0.07613332
29	0xbc163888	-0.009168752
30	0xbdad2af7	-0.084554605
31	0xbb9333ee	-0.0044922745
32	0xbc27b36a	-0.010235647
33	0xbcf1b6f5	-0.029506186
34	0x3d8281e6	0.063724324
35	0x3d1bc8ec	0.03803341
36	0x3d9e247f	0.07721805
37	0xbd64d722	-0.05586923
38	0x3d24cf23	0.040236603
39	0x3d8b9032	0.068146124
40	0x3d5c1d9d	0.05373918
41	0x3c2b2d4f	0.010447814
42	0x3dacff1a	0.08447094
43	0xbd81bd76	-0.06334965
44	0x3d8a4bbe	0.06752728
45	0xbd2b2155	-0.041779835
46	0xbc48ee4e	-0.0122638475
47	0x3d1d8b23	0.03846277
48	0xbd156140	-0.036469698
49	0xbd6469d7	-0.055765
50	0x3d9cc7e2	0.07655312
51	0x3bb2daee	0.0054582274
52	0xbc790821	-0.015199692
53	0x3d55336e	0.052051
54	0xbd4fb4a1	-0.05070937
55	0xbd8833e6	-0.06650524
56	0xbcab19bb	-0.020886293
57	0x3d5339a3	0.05156864
58	0x3da0cd26	0.07851629
59	0xbd8c2dd6	-0.0684468
60	0xbda905c2	-0.08253051
61	0xbd9efbc0	-0.07762861
62	0x3ba386c1	0.004990429
63	0x3cd862ae	0.026414242
64	0xbd7289c4	-0.059213415
65	0xbd9222fe	-0.071355805
66	0x3bfdee01	0.0077493195
67	0x3d48bdd3	0.049009155
68	0xbd8b825a	-0.06811972
69	0x3d891b2f	0.06694638
70	0x3abfdbfd	0.0014637705
71	0x3d9fd40b	0.07804116
72	0x3c7a01bc	0.015259203
73	0xbc2b183a	-0.010442788
74	0x3d0c33b1	0.034228984
75	0xbd1b78f4	-0.037957147
76	0xbc21a257	-0.009865365
77	0xbd868c77	-0.0656976
78	0x3d874c02	0.06606294
79	0xbc9e9bfe	-0.019361492
80	0xbd871035	-0.06594888
81	0xbd094833	-0.03351612
82	0x3d2fee86	0.042952083
83	0xbcebca53	-0.028783
84	0xbc71bccb	-0.014754484
85	0xbd6dc4b3	-0.058048915
86	0x3d7caf82	0.061690815
87	0xbd77714c	-0.060410783
88	0x3d99e554	0.07514444
89	0x3c2a5f73	0.010398733
90	0xbda7f6ea	-0.08201392
91	0xbdac391e	-0.08409332
92	0xba5109d7	-0.00079741835
93	0x3c9760a2	0.018478695
94	0xbd78813c	-0.060670123
95	0x3c216e97	0.009853027
96	0xbcb403da	-0.021974493
97	0xbc568f20	-0.013095647
98	0xbd8759d7	-0.066089325
99	0x3d4fec12	0.050762244
100	0x3cca47af	0.024692385
101	0xbc6298a7	-0.0138303405
102	0xbd5c752d	-0.053822685
103	0x3cf3cc23	0.029760426
104	0xbcefc7c9	-0.02927007
105	0x3da687dc	0.08131382
106	0xbdb4cce8	-0.08828145
107	0xbd9f7ff5	-0.07788078
108	0xbd8f8a19	-0.07008762
109	0xbd02e2a1	-0.03195441
110	0xbd918bfb	-0.07106777
111	0xbd26198c	-0.040551707
112	0x3c743694	0.014905591
113	0x3da5f702	0.081037536
114	0x3d65e997	0.05613097
115	0x3d9ce9ee	0.07661806
116	0xbd3c000a	-0.045898475
117	0x3d02832e	0.031863384
118	0x3d16fd19	0.036862466
119	0x3d856b69	0.065146275
120	0xbd028044	-0.031860605
121	0x3cd0d4c9	0.025492089
122	0xbd9c28d0	-0.07624972
123	0xbcccb4e6	-0.024988603
124	0x3bf3555e	0.007425948
125	0x3c9a4d3d	0.018835658
126	0xbd967aa3	-0.0734761
127	0x3d297a89	0.041376624
128	0x3d831169	0.06399805
129	0xbda92203	-0.0825844
130	0x3dab0984	0.08351424
131	0xbd0458ce	-0.032311253
132	0xbccdb862	-0.025112335
133	0x3da498d8	0.08036965
134	0x3d2bd24d	0.041948605
135	0x3d3172eb	0.043322485
136	0xbb8c19d1	-0.0042755385
137	0x3d5f2f90	0.05448872
138	0x3cf8eb57	0.030385656
139	0x3b8bb1c8	0.0042631365
140	0x3d52df31	0.051482383
141	0xbcba2e37	-0.022727115
142	0x3d0cfeb8	0.034422606
143	0xbcdfcfa5	-0.027320692
144	0xbd4c871c	-0.049933538
145	0xbd1e07f3	-0.0385818
146	0xbcaa2f27	-0.020774437
147	0x3d91fe9d	0.07128642
148	0x3c9dc79d	0.019260222
149	0x3d7445f0	0.05963701
150	0xbda93917	-0.08262842
151	0x3d11b364	0.03557147
152	0x3d9a82b2	0.075444594
153	0xbd35ae41	-0.044355635
154	0x3db4a7b1	0.08821047
155	0x3d8e6de6	0.06954555
156	0x3d30d909	0.04317573
157	0x3d5bfb68	0.053706557
158	0x3d90d545	0.07071928
159	0xbcb31116	-0.021858733
160	0xbd200949	-0.039071355
161	0xbd976f43	-0.07394268
162	0xbdac893c	-0.08424613
163	0x3d2c670b	0.042090457
164	0x3c95764c	0.018244885
165	0xbd346a5c	-0.044046745
166	0xbc997373	-0.018731808
167	0xbc93df1e	-0.018050727
168	0x3d414a6b	0.04719011
169	0xbd01585f	-0.031578418
170	0x3da48773	0.080336474
171	0x3da550b1	0.08072031
172	0xbdab1455	-0.083534874
173	0x3d84c7c6	0.06483416
174	0x3da92a23	0.0825999
175	0x3d206baf	0.039165195
176	0xbd935050	-0.07193053
177	0x3d5f19dd	0.054468025
178	0xbd346de1	-0.0440501
179	0x3d27f765	0.04100742
180	0x3d9b6af7	0.07588761
181	0xbc1c57f3	-0.009542453
182	0xbd9ea197	-0.077456646
183	0x3b0a6596	0.002111768
184	0xbd9ffb06	-0.07811551
185	0x3d0e6ab3	0.034769725
186	0x3cb56aae	0.022145595
187	0x3d1fc9a9	0.039010677
188	0x3d98eea5	0.07467393
189	0x3dad811e	0.08471893
190	0x3cdd03b9	0.026979314
191	0xbc832668	-0.016009524
192	0x3d619273	0.055071305
193	0xbca80cc1	-0.020513894
194	0xbca259cb	-0.019818207
195	0x3d23d10b	0.03999428
196	0xbdb080a1	-0.08618284
197	0x3cffb844	0.031215794
198	0xbad17490	-0.0015980173
199	0xbaf2b94e	-0.001851836
200	0xbd1d8ca9	-0.038464222
201	0x3db0a432	0.08625068
202	0x3c206434	0.009789515
203	0xbd5978a2	-0.05309356
204	0xbda0fd62	-0.07860829
205	0x3bd221c0	0.0064127147
206	0x3cf9c145	0.030487666
207	0xbdaf1651	-0.085491784
208	0xbd3df441	-0.046375517
209	0x3da36608	0.07978445
210	0x3d4d81a1	0.050172452
211	0xbd2a4e7b	-0.04157875
212	0xbd1524cc	-0.036412045
213	0x3d8d063a	0.06885953
214	0x3d538e09	0.051649127
215	0x3ceadddb	0.028670242
216	0xbd9615d6	-0.073283836
217	0x3d8f583a	0.0699925
218	0x3d73c1d4	0.05951102
219	0xbd476e30	-0.048689067
220	0xbd7682ba	-0.060183264
221	0xbd3fc697	-0.04682025
222	0xbc3187d4	-0.010835607
223	0xbd79858a	-0.06091837
224	0x3dac06e8	0.08399755
225	0x3c2eadd4	0.010661561
226	0xbd7e66d0	-0.06210977
227	0xbd8bd847	-0.06828361
228	0xbc504de6	-0.012713885
229	0xbd94777f	-0.072493546
230	0xbc71082b	-0.01471142
231	0x3d098f5a	0.033583976
232	0xbd0fe3a3	-0.0351292
233	0x3c8c5aad	0.017133081
234	0xbac09812	-0.0014693758
235	0xbccf9653	-0.025340235
236	0x3d9aa792	0.07551493
237	0xbce966a8	-0.028491333
238	0xbaac9057	-0.0013165575
239	0x3d83656b	0.06415828
240	0xbc8f5551	-0.017496737
241	0x3c8b1cdc	0.016981535
242	0x3d5d4dfb	0.054029446
243	0x3da5c894	0.08094898
244	0xbcd00264	-0.025391765
245	0xbbbd4c29	-0.0057769013
246	0xbdb230fa	-0.08700748
247	0x3daec2a1	0.08533216
248	0x3c1d9cd7	0.009619913
249	0xbda6e5f6	-0.0814933
250	0xbd976db2	-0.073939696
251	0x3d7ffcaf	0.062496837
252	0x3cdb316a	0.02675696
253	0x3d5b8565	0.05359401
254	0xbbf21e54	-0.0073888693
255	0x3d2e3b09	0.04253677

encoder.2.bias f4 [128]
0	0x3d24e38c	0.040256068
1	0xbcab8eba	-0.02094208
2	0x3d4b021b	0.049562555
3	0x3c1988fd	0.009371039
4	0x3d86cea1	0.0658238
5	0x3cf3af2e	0.029746618
6	0x3c49bd90	0.012313262
7	0xbc96d4d3	-0.01841203
8	0xbda8454d	-0.08216343
9	0x3d8d43e8	0.06897718
10	0xbc3836b8	-0.011243515
11	0x3cc21489	0.023691433
12	0xbd7f7157	-0.06236395
13	0x3d33a10d	0.043854762
14	0x3d072dcc	0.03300266
15	0xbda58141	-0.08081294
16	0xbb7d9094	-0.0038690912
17	0xbbba42e6	-0.0056842444
18	0xbd306274	-0.043062642
19	0x3b28b579	0.0025742932
20	0xbd9573a7	-0.072974496
21	0x3beccb2a	0.0072263675
22	0xbdb373b7	-0.08762305
23	0x3dab0fd7	0.083526306
24	0x3c9c2c20	0.01906401
25	0xbcc3edd6	-0.02391712
26	0xbcd60946	-0.026127469
27	0xbd9ec388	-0.077521384
28	0xbd631e54	-0.055448845
29	0xbd9704ff	-0.07374
30	0xbd3ae94d	-0.04563265
31	0xbd3b37fe	-0.045707695
32	0x3d0cb0d7	0.034348335
33	0xbd7a0da2	-0.061048158
34	0xbd0052b8	-0.031328887
35	0xbd9cc065	-0.07653884
36	0xbccdf198	-0.025139615
37	0xbd1203b5	-0.035648067
38	0xbd66b3e0	-0.056323886
39	0xbc0cf450	-0.0086031705
40	0xbbc229de	-0.005925401
41	0xbd88df7f	-0.066832535
42	0x3da79932	0.081835166
43	0x3d468871	0.048469964
44	0x3d1318af	0.035912212
45	0xbd32d1bf	-0.04365706
46	0x3cb02a69	0.021504598
47	0xbd95f6d2	-0.07322468
48	0x3bef831b	0.00730933
49	0xbd0433ff	-0.03227615
50	0xbcfca081	-0.030838253
51	0xbd916898	-0.07100028
52	0xbd5d49f9	-0.054025624
53	0x3d9d3c6e	0.07677542
54	0x3dab1efd	0.0835552
55	0x3d59dc84	0.053188816
56	0xbcfe7157	-0.031059904
57	0xbdbc9d33	-0.09209671
58	0x3d5d21f9	0.053987477
59	0x3d841011	0.06448377
60	0x3d5623db	0.05228029
61	0xbda9f8fb	-0.082994424
62	0x3d2a2a01	0.041543964
63	0x3cc56f6c	0.024100982
64	0x3d76a752	0.060218163
65	0x3cddfedb	0.027099064
66	0x3d4ae3eb	0.049533766
67	0xbcd7bd8b	-0.026335498
68	0x3d855a0c	0.06511316
69	0x3c2e585a	0.010641182
70	0x3cee057b	0.029055348
71	0x3cbb5265	0.022866437
72	0x3db1604f	0.086609475
73	0x3d0b0d5d	0.03394829
74	0x3d3794cd	0.04481964
75	0xbda7eff3	-0.082000636
76	0xbdab0ecd	-0.083524324
77	0xbceeab10	-0.029134303
78	0x3d3da67c	0.04630135
79	0x39886d6b	0.00026021464
80	0x3d759923	0.059960496
81	0x3d70626c	0.058687612
82	0xbbb02e30	-0.0053765997
83	0xbd2a1df7	-0.041532483
84	0xbd569ded	-0.052396704
85	0xbcc7898c	-0.02435758
86	0xbd99e352	-0.07514061
87	0xbcc9aa16	-0.024617236
88	0x3b165257	0.0022937262
89	0x3d28f327	0.041247513
90	0xbd59ee16	-0.053205572
91	0xbb90eaa2	-0.0044225017
92	0xbcf9f511	-0.030512365
93	0x3d38a1c7	0.045076158
94	0xbd7bbd3b	-0.06145976
95	0x3d8cec61	0.06881023
96	0xbcfc7992	-0.030819688
97	0xbd9ab7cc	-0.07554588
98	0x3d95aafc	0.07308003
99	0xbd2f5234	-0.042803004
100	0xbcd9c976	-0.026585322
101	0x3d7f00d3	0.062256645
102	0xbb8d791d	-0.0043174163
103	0x3cefc4ab	0.029268583
104	0xbd2c2a68	-0.04203263
105	0x3d51a42d	0.05118196
106	0x3d7fe918	0.062478155
107	0x3d9794fb	0.07401463
108	0x3d0f08e5	0.03492059
109	0xbbaeedf5	-0.0053384253
110	0x3cba5dfb	0.022749892
111	0xbda81e02	-0.082088485
112	0xbda19712	-0.078901425
113	0x3d941242	0.07230045
114	0x3d3e4054	0.046448067
115	0x3c57b593	0.013165849
116	0x3d1a04b7	0.037602153
117	0xbd3eeb3e	-0.046611063
118	0xbd0ea23b	-0.034822684
119	0xbc3f633a	-0.011681372
120	0xbb2b851a	-0.0026171864
121	0x3d8fb4c3	0.070168994
122	0x3d9fac70	0.07796562
123	0x3d754632	0.059881397
124	0xbc3cf652	-0.011533337
125	0x3d7c643c	0.06161903
126	0x3ccf26dd	0.025287086
127	0xbd928e58	-0.07156056

actor.weight f4 [4, 128]
0	0x3d36483e	0.04450249
1	0xbd81336f	-0.06308638
2	0xbd49fff2	-0.049316354
3	0xbbb61ad3	-0.005557397
4	0xbdb01e59	-0.08599538
5	0x3d7c6f4e	0.061629586
6	0x3c42d250	0.011890963
7	0x3cb4498b	0.022007724
8	0xbc30e12f	-0.010795875
9	0xbc414982	-0.011797311
10	0xbd9bb193	-0.07602229
11	0x3dd42749	0.103590555
12	0xbca33b8e	-0.019925859
13	0xbca47abc	-0.020078056
14	0xbd2d201f	-0.04226696
15	0xbcf4c2eb	-0.0298781
16	0xbd68acc3	-0.056805383
17	0xbd183f81	-0.037169937
18	0x3d13df0b	0.036101382
19	0x3da0bfcd	0.07849083
20	0xbb68d2d9	-0.0035526066
21	0xbd9cbe5e	-0.07653497
22	0x3d5ba162	0.053620704
23	0x3dcfd2f8	0.10147661
24	0x3d9fd43b	0.078041516
25	0x3d094c09	0.03351978
26	0x3d1955da	0.03743539
27	0x3d3a1d0d	0.04543786
28	0x3db305dd	0.08741353
29	0x3d788394	0.060672358
30	0xbd6e4c62	-0.058178313
31	0xbd58da5f	-0.05294263
32	0x3d9be0c9	0.07611234
33	0xbda8720d	-0.082248785
34	0xbd874769	-0.06605417
35	0xbc3c3385	-0.011486893
36	0xbd8c8400	-0.068611145
37	0xbd1092cd	-0.03529625
38	0x3d40ae6e	0.04704135
39	0x3d9ead33	0.07747879
40	0xbdb05f9c	-0.08611986
41	0x3d8aaa9f	0.06770825
42	0x3dc6c58d	0.097056486
43	0x3a1e30d1	0.0006034496
44	0x3db0c261	0.08630825
45	0x3c14fdde	0.00909373
46	0xbd7463ce	-0.059665494
47	0x3c1675d2	0.009183364
48	0x3bf6fc9a	0.0075374367
49	0xbbab5fe9	-0.0052299392
50	0x3d3ee4ef	0.046605047
51	0x3c4c973d	0.01248723
52	0xbd50be07	-0.050962474
53	0xbd6d7a65	-0.057978053
54	0xbad4f7b3	-0.0016248137
55	0x3daedab3	0.08537807
56	0x3d8ad68d	0.067792036
57	0x3d5677e1	0.05236042
58	0x3d6637bc	0.056205496
59	0x3dcab523	0.0989783
60	0xbd2ec82c	-0.042671368
61	0x3c9a82bf	0.018861173
62	0xbcd31976	-0.025768977
63	0xbc8fac3a	-0.017538179
64	0xbcea1343	-0.028573638
65	0xbd3a48b6	-0.0454795
66	0x3d634c11	0.055492464
67	0x3dc4ec09	0.09615333
68	0xbd837e99	-0.06420631
69	0xbab2c772	-0.0013639762
70	0x3d81e5e2	0.06342675
71	0x3dae5032	0.0851139
72	0xbc1c2d24	-0.009532247
73	0x3c7a64ec	0.015282851
74	0x3dd46b97	0.10372084
75	0x3d0a9ad7	0.033839073
76	0x3ca9d1b0	0.02072987
77	0xbd833ee5	-0.064084806
78	0xbc9b8797	-0.018985553
79	0x3cad4af3	0.021153903
80	0xbd0535c5	-0.03252198
81	0x3dc3b132	0.09555282
82	0x3dd67505	0.104715385
83	0x3c43a1cf	0.011940434
84	0xbcd8c6dc	-0.026462011
85	0x3c5d575b	0.013509597
86	0x3b7b98dc	0.0038390672
87	0xbd978c9a	-0.073998645
88	0xbd198055	-0.037475903
89	0x3d3e4fd2	0.04646284
90	0xbcf0946d	-0.02936765
91	0xbd089d1a	-0.03335295
92	0x3db3a402	0.087715164
93	0xbd4bc944	-0.04975249
94	0xbd11f511	-0.035634104
95	0x386cea2a	5.6484867e-05
96	0x3b2b7ab9	0.0026165678
97	0x3d68d7b9	0.056846354
98	0x3b3d158c	0.0028851954
99	0xbb2166f6	-0.002462802
100	0xbd2f224c	-0.042757317
101	0xbd3c7295	-0.04600771
102	0xbbe97ba6	-0.0071253357
103	0xbd57db7d	-0.052699555
104	0x3d9eef60	0.07760501
105	0xbd46137d	-0.04835843
106	0xbbfdad9a	-0.007741642
107	0xbc3ff501	-0.011716128
108	0x3d4c271d	0.04984199
109	0x3d8e335d	0.069433905
110	0xb8c1c917	-9.240413e-05
111	0x3be055e3	0.006846176
112	0xbc25ff4d	-0.010131669
113	0x3d8c3764	0.068465024
114	0x3af07f2a	0.0018348445
115	0xbc8edfac	-0.01744064
116	0xbd6e1216	-0.058122717
117	0xbd575323	-0.05256952
118	0xbd320e4d	-0.04347067
119	0x3cb98db0	0.02265057
120	0x3c8b7202	0.017022137
121	0xbdae7803	-0.08518984
122	0xbc0f4acd	-0.008745861
123	0xbc866b84	-0.01640869
124	0x3ce82787	0.02833916
125	0x3d29b214	0.041429594
126	0xbd45790d	-0.048211146
127	0xbd879b22	-0.06621386
128	0xbd8345f8	-0.0640983
129	0xbd15b58a	-0.036550082
130	0x3d9f869f	0.07789349
131	0x3dab264e	0.083569154
132	0x3d75181d	0.05983745
133	0xbc072b88	-0.008250125
134	0xbd95db89	-0.07317264
135	0xbd5d8ce7	-0.054089453
136	0xbdaf867d	-0.085705735
137	0xbd44ad33	-0.04801674
138	0xbd048997	-0.03235778
139	0xbdbc73ea	-0.09201796
140	0xbd4ac393	-0.04950292
141	0xbcab9add	-0.020947868
142	0x3cbc12a7	0.022958113
143	0x3c9576d8	0.018245146
144	0x3c2a2507	0.010384805
145	0xbcd25e87	-0.02567984
146	0x3c9e74c7	0.019342793
147	0xbd233437	-0.039844718
148	0xbc4aea36	-0.012384942
149	0x3c16cf25	0.009204661
150	0x3ca096b0	0.019603103
151	0x3c1c4b35	0.009539415
152	0x3cf735d6	0.030177038
153	0xbdb0ab64	-0.0862644
154	0x3c52554c	0.012837719
155	0x3d87b010	0.06625378
156	0x3ccad333	0.02475891
157	0x3b9a4828	0.0047083087
158	0x3d881736	0.06645052
159	0xbd43c304	-0.047793403
160	0xbd9f0964	-0.07765463
161	0xbc98eaf7	-0.018666727
162	0xbc62e7fa	-0.013849253
163	0x3d042d38	0.032269686
164	0x3d23b073	0.039963197
165	0x3d8676fb	0.065656625
166	0x3da011fe	0.07815932
167	0x3a9cf443	0.0011974651
168	0x3d5a6b17	0.053324785
169	0x3dae302d	0.085052826
170	0x3cff3975	0.031155327
171	0xbd3fdfc6	-0.046844266
172	0x3d0d1ca6	0.03445115
173	0xbd6239cf	-0.05523091
174	0xbd589953	-0.052880596
175	0xbd068551	-0.032841984
176	0x3cce5ae8	0.025189832
177	0x3b3042c8	0.0026895273
178	0x3d0eca84	0.034861103
179	0x3d220077	0.039551225
180	0x3d83038e	0.063971624
181	0xbd72d33d	-0.059283484
182	0x3d161662	0.03664244
183	0x3c77d555	0.015126546
184	0xba2eb5ab	-0.0006664644
185	0xbd07a69a	-0.033117868
186	0x3c05170e	0.008123172
187	0x3d143a11	0.03618819
188	0xbc0a4190	-0.008438483
189	0x3d5776f4	0.052603677
190	0x3d2923cf	0.041293915
191	0xbd8762d0	-0.06610644
192	0xbcc27b05	-0.0237403
193	0xbd3eb2ed	-0.046557356
194	0xbc907920	-0.017635882
195	0x3ba2d343	0.004969032
196	0x3cf79e52	0.03022686
197	0xbca3ed9a	-0.020010758
198	0xbc7a3516	-0.015271446
199	0x3da3f038	0.080048025
200	0x3cc8c1a6	0.024506401
201	0xbc143cfe	-0.009047745
202	0xbd1bb602	-0.038015373
203	0xbd377904	-0.044793144
204	0xbd14e60e	-0.03635221
205	0x3db25f00	0.08709526
206	0x3c29308e	0.010326518
207	0xbd217521	-0.039418343
208	0x3d7ce6ac	0.061743423
209	0x3da5557c	0.080729455
210	0xbdb3a650	-0.08771956
211	0x3d4e6932	0.05039329
212	0x3bd8d46d	0.00661712
213	0x3d359fad	0.04434173
214	0xbd3d828b	-0.046267074
215	0x3d9b8cae	0.07595192
216	0xbd49e628	-0.04929176
217	0x3d657a52	0.056024857
218	0xbcc9b502	-0.024622444
219	0x3b88cb3f	0.0041746194
220	0x3d7a4381	0.061099533
221	0xbd811582	-0.063029304
222	0x3d996c85	0.074914016
223	0x3db10b33	0.08644714
224	0xbbfef2c2	-0.007780404
225	0x3cd7b81f	0.026332913
226	0xbdb2a3d1	-0.08722652
227	0x3d8c0731	0.06837309
228	0xbd918d8f	-0.07107078
229	0x3dafda66	0.08586578
230	0x3d756cbf	0.05991816
231	0xbd85b78f	-0.06529152
232	0x3d6888fd	0.056771267
233	0x3d4d2214	0.050081328
234	0x3da5968d	0.08085356
235	0x3da56815	0.08076493
236	0xbc941fdc	-0.018081598
237	0x3dadbbef	0.08483111
238	0x3c4e4c86	0.012591487
239	0xbda2bb58	-0.07945889
240	0xbda46ed7	-0.080289535
241	0x3d7e845e	0.062137954
242	0x3d128e75	0.03578039
243	0x3c12081b	0.008913065
244	0xbd33fb80	-0.04394102
245	0x3b771e5e	0.003770731
246	0x3d268942	0.040658243
247	0x3bc35ff6	0.005962367
248	0x3d7169f9	0.058938954
249	0x3c73d02f	0.014881178
250	0x3a8c400e	0.0010700242
251	0xbc5a471e	-0.01332262
252	0x3d1ca3e2	0.03824223
253	0x3d1f34e0	0.038868785
254	0x3cca80b1	0.024719568
255	0xbd0cfb5d	-0.034419406

actor.bias f4 [4]
0	0x3da6abce	0.08138238
1	0x3d0225ff	0.031774517
2	0xbdd7e43b	-0.105415784
3	0xbd85eaac	-0.06538901

critic.weight f4 [1, 128]
0	0xbbe5fbd5	-0.007018546
1	0x3d47eddb	0.04881082
2	0xbcf7bd5b	-0.030241659
3	0xbd0cf487	-0.034412887
4	0x3d1adb63	0.03780688
5	0xbd3d4235	-0.046205718
6	0x3d2af8f5	0.04174133
7	0xbdaf7331	-0.08566893
8	0x3d96e5b8	0.07368034
9	0xbc8ed250	-0.01743427
10	0x3d3fcd6e	0.046826772
11	0x3c963ba4	0.018338986
12	0x3d252d54	0.04032643
13	0xbd8939b7	-0.06700461
14	0x3d8d3be0	0.06896186
15	0x3c4c6620	0.01247552
16	0x3d5ed601	0.05440331
17	0xbcc77c44	-0.024351247
18	0x3cdbfa76	0.026852828
19	0x3daf413a	0.08557363
20	0x3d3a107b	0.045425873
21	0x3d5ac00b	0.053405803
22	0xbca1a84d	-0.019733572
23	0xbd81a4ec	-0.063302845
24	0xbb39b927	-0.002833912
25	0x3da88acc	0.082295984
26	0xbd8e8e6c	-0.069607586
27	0xbd5e1d6a	-0.05422727
28	0x3d560ca2	0.05225814
29	0xbd0329aa	-0.032022156
30	0x39a9d9e9	0.00032396548
31	0x3d8106bc	0.063001126
32	0xbb846d4a	-0.0040413486
33	0x3c418f6d	0.0118139805
34	0x3d5f408d	0.05450492
35	0x3d2b7410	0.041858733
36	0x3c30bfa1	0.010787875
37	0x3d5de30b	0.054171603
38	0xbd944f07	-0.07241636
39	0x3cc3d69e	0.023906048
40	0xbd940a9d	-0.07228587
41	0xbd62a920	-0.05533707
42	0xbd2ead9e	-0.042646043
43	0x3c5a24fc	0.013314482
44	0xbc4c1e6e	-0.012458427
45	0xbc507093	-0.012722152
46	0x3b8637df	0.004096016
47	0x3c8267c9	0.01591863
48	0x3cf4b690	0.029872209
49	0xbd3a0e4b	-0.045423787
50	0x3da9a745	0.08283857
51	0x3daa05d5	0.083018936
52	0x3cdbcc9a	0.02683096
53	0xbd83b5d1	-0.06431163
54	0xbcee3176	-0.02907632
55	0x3d9b51eb	0.07583984
56	0xb8f60805	-0.00011731688
57	0xb8486606	-4.7778733e-05
58	0x3d81f842	0.063461795
59	0x3ccafdd6	0.024779242
60	0xbce9e8e6	-0.028553437
61	0x3d25d93a	0.040490367
62	0x3ce07105	0.027397642
63	0xbd1b1b40	-0.037867785
64	0xbdab4025	-0.08361844
65	0xbd8b45ad	-0.06800399
66	0xbd94bea1	-0.07262922
67	0xbda3bb9d	-0.07994769
68	0xbdac5bb5	-0.08415929
69	0xbd80c5fe	-0.06287764
70	0x3d74be86	0.05975201
71	0x3db2514a	0.08706911
72	0xbd96af08	-0.07357603
73	0x3d76b887	0.060234573
74	0x3d9c07cb	0.07618674
75	0x3cea6e0f	0.028616933
76	0xbd4c54d7	-0.049885597
77	0xbd7d9171	-0.06190628
78	0xbbfacace	-0.0076535707
79	0x3c33f37a	0.010983342
80	0x3cb7f396	0.022455018
81	0xbd17c2be	-0.037050955
82	0xbc859b4c	-0.016309403
83	0x3d5d3a25	0.05401053
84	0x3da0210a	0.07818802
85	0x3cefa818	0.029254958
86	0xbcd0c31a	-0.025483657
87	0x3c7ce3b1	0.015435145
88	0x3dad7139	0.08468861
89	0xbd3b58fb	-0.045739155
90	0x3d785a91	0.060633246
91	0x3c9eb004	0.01937104
92	0x3d4e5c9a	0.05038128
93	0x3d120793	0.035651755
94	0xbd342dbe	-0.043988936
95	0x3d358439	0.04431555
96	0x3d5a76a5	0.053335804
97	0xbdb006c2	-0.08595039
98	0xbd005927	-0.031335022
99	0xbbe6b19f	-0.007040217
100	0xbdb01f92	-0.085997716
101	0x3a8d94e1	0.0010801816
102	0x3dac91ea	0.084262684
103	0x3b8a4ced	0.004220596
104	0x3d80b81c	0.06285116
105	0xbd1f3161	-0.03886545
106	0xbda2cd8a	-0.0794936
107	0x3d2e0eda	0.042494632
108	0xbd86d323	-0.0658324
109	0x3d9a1747	0.07523971
110	0x3d69ef68	0.05711308
111	0xbd92183a	-0.07133527
112	0x3ae292c8	0.0017286176
113	0xbccf3d7f	-0.025297878
114	0x3d6eabb8	0.058269233
115	0xbdaf5aad	-0.08562217
116	0x3d27a8cf	0.040932473
117	0xbcbfedc7	-0.02342881
118	0x3c78f18b	0.015194307
119	0x3ce465eb	0.02788063
120	0xbc9f19e7	-0.01942153
121	0xbb8ea945	-0.0043536746
122	0xbb96fdd1	-0.004607894
123	0xbd55f825	-0.052238602
124	0x3d845f2e	0.064634666
125	0x3da23ae6	0.0792139
126	0x3d47aa32	0.048746295
127	0xbd9a7ad8	-0.07542962
