code/models/ppo_uncertainty_checkpoint_200.pt (torch, 75727 bytes, 7 tensors)

encoder.0.weight f4 [128, 5]
0	0x3e3ef357	0.18647514
1	0x3d850047	0.064941935
2	0xbeaab744	-0.33342946
3	0x3edce560	0.4314375
4	0xba8ef462	-0.0010906572
5	0x3e154b09	0.14579405
6	0xbdc2384f	-0.09483396
7	0x3ec2fbcf	0.3808274
8	0xbe21794c	-0.15768927
9	0xbdec494d	-0.115374185
10	0x3e809690	0.2511487
11	0x3caf1756	0.021373432
12	0x3e9d5d2b	0.30735144
13	0xbdf9196b	-0.12163051
14	0xbe547ab0	-0.20749927
15	0xbd9a8e0a	-0.07546623
16	0x3e737cdc	0.23778099
17	0x3de68501	0.11255837
18	0x3d9f7ffc	0.07788083
19	0xbda3f46c	-0.08005604
20	0xbebbd7ed	-0.36688176
21	0xbe707eaf	-0.23485826
22	0x3c6ebdea	0.014571646
23	0xbe9b05d3	-0.3027788
24	0xbe3fb2a6	-0.18720493
25	0xbe92f163	-0.28699788
26	0x3c899a7a	0.016797293
27	0xbe9a6d48	-0.301615
28	0xbe912787	-0.2835047
29	0x3e7bd230	0.24591899
30	0xbe870e03	-0.26377878
31	0xbdd21a0c	-0.10258874
32	0x3e9c600c	0.30542028
33	0xbe458e82	-0.19292644
34	0x3ed3516e	0.41273063
35	0xbd67ecb1	-0.05662221
36	0xbe8ccdf2	-0.27500874
37	0xbec18764	-0.37798607
38	0xbdcc8189	-0.09985644
39	0x3e71ea8b	0.23624627
40	0x3d302f2b	0.043013733
41	0xbe7b922e	-0.24567482
42	0xbedf449d	-0.43607035
43	0xbeae7d54	-0.34079993
44	0x3e6ac8bd	0.22928138
45	0x3e03a085	0.12854202
46	0x3e8f1043	0.27942094
47	0x3d7a56e4	0.06111802
48	0x3afa07cb	0.0019075809
49	0xbe93e0cb	-0.2888244
50	0x3edd3c8a	0.4321025
51	0xbd4c6214	-0.049898222
52	0x3edcb60b	0.43107638
53	0x3eb7e11b	0.3591393
54	0xbca7f8d1	-0.020504387
55	0xbe69c005	-0.22827156
56	0x3dceb64a	0.10093363
57	0x3e463297	0.19355236
58	0xbeb41873	-0.35174903
59	0xbe10e674	-0.14150411
60	0x3eca4814	0.39508116
61	0x3eb97b67	0.3622696
62	0x3e93475f	0.2876539
63	0xbeab1860	-0.33417034
64	0x3e8e8c3b	0.27841362
65	0x3eb80b0a	0.35945922
66	0xbe65e155	-0.22449239
67	0x3df06d36	0.1173958
68	0x3e6af3b9	0.22944535
69	0xbdb6a68f	-0.08918487
70	0xbd750bd8	-0.05982575
71	0x3e82cd8a	0.2554744
72	0x3e9713f4	0.2950741
73	0x3e85ab11	0.26107076
74	0xbdd72b70	-0.10506332
75	0xbedf8fe8	-0.4366448
76	0x3eafe1bc	0.3435191
77	0x3df07ec4	0.117429286
78	0xbe8d8530	-0.27640676
79	0xbe57accf	-0.21062015
80	0xbec7a111	-0.3899007
81	0x3e697fdd	0.22802682
82	0x3e21cdc0	0.15801144
83	0xbe28ca35	-0.16483386
84	0xbe87fa9a	-0.2655838
85	0x3deaa9f0	0.11458194
86	0xbedd6049	-0.43237522
87	0xbeb25e40	-0.34837532
88	0xbe4c670a	-0.19961181
89	0xbe81b734	-0.25335085
90	0xbd1e5df4	-0.03866382
91	0x3e47fc1b	0.19529764
92	0x3e53a272	0.20667437
93	0xbed68cb1	-0.41904214
94	0x3e6f8497	0.23390423
95	0xbe8b48ba	-0.27203923
96	0xbd9459e3	-0.07243707
97	0x3d8f7596	0.070048496
98	0xbe198a11	-0.14994074
99	0x3df03cc2	0.11730339
100	0x3cf65336	0.030068975
101	0xbe43bcbd	-0.19114967
102	0x3e54ca33	0.20780258
103	0x3e1ad5a3	0.15120558
104	0x3ec19994	0.37812483
105	0xbe0a88d2	-0.13528755
106	0x3e8beb0a	0.27327758
107	0x3eb2ba0a	0.34907562
108	0xbedd67e0	-0.43243313
109	0x3ed732c6	0.42030925
110	0x3ec470ae	0.38367218
111	0x3dd04b25	0.10170583
112	0x3dd9342f	0.10605656
113	0x3e8d9288	0.27650857
114	0xbe6325db	-0.2218241
115	0xbd1ce6cf	-0.038306054
116	0x3c3b0536	0.011414817
117	0x3ed04b66	0.40682524
118	0xbe8a8f9c	-0.2706269
119	0x3ebfdafd	0.37471762
120	0x3e9daee7	0.30797502
121	0xbee9d414	-0.45669615
122	0x3dd0c3bd	0.10193584
123	0x3ec83ff8	0.39111304
124	0xbd83a2e3	-0.064275526
125	0x3ec562f8	0.3855207
126	0xbe4f4098	-0.20239484
127	0x3e56f40f	0.20991538
128	0x3ea7d4ae	0.3277945
129	0xbe01cb49	-0.12675203
130	0xbe93b8b2	-0.2885185
131	0xbdbcd19e	-0.09219669
132	0xbebf0cb2	-0.37314373
133	0x3ebba639	0.36650255
134	0xbdd34989	-0.1031676
135	0x3e9c70de	0.3055486
136	0x3e8f2377	0.27956745
137	0x3d93ac55	0.07210604
138	0xbec748dd	-0.38922778
139	0xbd774a7e	-0.060373776
140	0xbe7737a4	-0.24142319
141	0xbe412115	-0.18860276
142	0xbe743269	-0.23847355
143	0xbd6d35f5	-0.057912786
144	0x3ed5daee	0.41768593
145	0xbe94f5ec	-0.29093874
146	0x3e44fb22	0.19236425
147	0x3ee5dde0	0.4489584
148	0xbd732e67	-0.059370425
149	0x3e9a2384	0.3010522
150	0x3ec93754	0.39300025
151	0xbd7cc870	-0.06171459
152	0x3e92982f	0.28631732
153	0x3dd0515c	0.10171768
154	0xbe9dffe2	-0.30859286
155	0x3ebd40f5	0.3696362
156	0x3eb7a36e	0.35866874
157	0xbd6ded6f	-0.058087762
158	0x3ee7a56c	0.45243394
159	0x3da890df	0.08230757
160	0x3ec4dd89	0.38450268
161	0x3ec73e65	0.3891479
162	0x3e12530a	0.1428949
163	0x3e60255f	0.21889256
164	0x3dce6987	0.100787215
165	0x3e44a36b	0.19202964
166	0xbe928116	-0.2861411
167	0xbdabac37	-0.08382457
168	0x3cfbce45	0.030738005
169	0xbe39cfa3	-0.18145613
170	0xbeb5b4d1	-0.35489514
171	0xbecc6f04	-0.39928448
172	0xbe608e5f	-0.2192931
173	0xbe857cd2	-0.26071793
174	0x3c2d29d3	0.010569054
175	0xbe167137	-0.14691626
176	0x3ee37ef8	0.44432807
177	0xbe25795c	-0.16159576
178	0x3cb662ae	0.022263851
179	0x3e772fd4	0.24139339
180	0x3ea51970	0.3224597
181	0x3e4538f3	0.19260006
182	0xbd54ca4a	-0.05195073
183	0x3d9aaf2b	0.07552942
184	0x3ec48a06	0.38386554
185	0x3dc9674c	0.098341554
186	0xbd465dae	-0.048429184
187	0x3e85df12	0.26146752
188	0xbea80441	-0.32815745
189	0x3eaa2c32	0.33236843
190	0xbdc72a00	-0.09724808
191	0xbe149cde	-0.14512965
192	0x3eae1f11	0.34008077
193	0x3d11edfa	0.035627343
194	0xbc8ebef1	-0.017425032
195	0xbe478840	-0.19485569
196	0x3d7309bd	0.05933546
197	0xbda721be	-0.08160733
198	0xbeda6252	-0.42653137
199	0x3e9ee973	0.31037483
200	0x3ec57d70	0.38572264
201	0xbdf4f16d	-0.11960111
202	0x3eb5c076	0.354984
203	0x3e68c74e	0.22732279
204	0xbe881631	-0.2657943
205	0x3e87a131	0.26490167
206	0x3e5e4b7e	0.21708485
207	0x3b4c1a59	0.0031143634
208	0x3d803ed9	0.06261987
209	0xbe87c273	-0.2651554
210	0x3e44ab99	0.19206084
211	0x3dfc7e42	0.12328769
212	0xbe2781aa	-0.16358057
213	0xbe8f222b	-0.27955756
214	0x3eddc9d1	0.43318036
215	0x3ebc4b20	0.36776066
216	0x3e14f04a	0.14544788
217	0x3e9129c3	0.28352174
218	0xbd39cbd6	-0.04536041
219	0xbec0743c	-0.3758868
220	0xbeadd1f0	-0.33949232
221	0xbec548f2	-0.38532215
222	0x3e509da1	0.2037263
223	0x3e202a05	0.15641029
224	0xbe85300c	-0.2601322
225	0x3ea629b5	0.32453695
226	0x3e2ab06c	0.16668862
227	0xbee6a7ff	-0.45050046
228	0x3c9ef622	0.019404475
229	0x3e98fc1e	0.2987985
230	0x3e5ae452	0.2137616
231	0xbe9e2dee	-0.30894417
232	0x3e8300fb	0.25586686
233	0xbebd5ca9	-0.36984757
234	0x3e9b9878	0.30389762
235	0xbe434be8	-0.19071925
236	0x3de28796	0.11061017
237	0x3e8b9339	0.2726076
238	0xbdd43cdd	-0.10363171
239	0xbd8a23eb	-0.06745132
240	0xbecef79e	-0.40423292
241	0xbe7c53b8	-0.24641311
242	0x3dff9ca3	0.12481048
243	0x3e443eb4	0.19164544
244	0xbe291790	-0.16512895
245	0x3ee243b3	0.44192275
246	0x3eb60141	0.35547832
247	0x3e5cc4c6	0.21559438
248	0x3eb660c8	0.35620713
249	0x3df395e6	0.11893825
250	0x3e4e3ead	0.20141096
251	0x3cdb8bb7	0.02680002
252	0x3eb3c501	0.3511124
253	0x3eb8cba7	0.36092874
254	0x3ed85ee7	0.42259905
255	0x3c0325aa	0.008004585

encoder.0.bias f4 [128]
0	0xbe846575	-0.25858656
1	0x3eaed7b6	0.3414895
2	0x3e2ea472	0.17054918
3	0x3d7d052f	0.06177252
4	0xbe999ea8	-0.30003858
5	0xbe3a6692	-0.1820319
6	0xbe75fb05	-0.24021538
7	0x3e9abe0e	0.30223125
8	0xbe96a58e	-0.29423183
9	0xbe5299c0	-0.20566463
10	0x3e0c71da	0.13715306
11	0xbcb1af1c	-0.021689944
12	0xbc852dbe	-0.016257163
13	0x3e188175	0.14893134
14	0xbe1654d2	-0.14680794
15	0xbe3726f7	-0.17885958
16	0x3ded8b21	0.11598802
17	0xbdbe1666	-0.09281616
18	0x3eadba57	0.3393123
19	0x3d910963	0.070818685
20	0xbe89567e	-0.268238
21	0x3e87326e	0.26405662
22	0x3ed7955d	0.42106143
23	0x3b79444a	0.0038035088
24	0x3ed9a019	0.42504957
25	0x3ed6facf	0.41988227
26	0xbd74de1f	-0.059782144
27	0xbe287d37	-0.16454016
28	0xbe350c4c	-0.17680472
29	0xbe53b03f	-0.20672701
30	0x3e2543de	0.1613917
31	0xbd94af99	-0.07260055
32	0x3ed2f455	0.41202036
33	0xbebc2691	-0.36748174
34	0xbdd231b1	-0.10263384
35	0x3cba7dbb	0.022765031
36	0xbe5df22b	-0.21674411
37	0x3d6d7c3f	0.05797982
38	0xbe720640	-0.23635197
39	0x3eaa3a48	0.3324759
40	0x3cd6a6fd	0.026202673
41	0xbd83b86e	-0.064316615
42	0x3e3f5cae	0.18687698
43	0x3ebe232e	0.37136215
44	0xbe2ef566	-0.170858
45	0xbea43529	-0.32071808
46	0x3e65de7e	0.22448155
47	0xbee34167	-0.44385836
48	0x3e487a09	0.19577803
49	0xbea2eb35	-0.31820074
50	0x3eacda23	0.33760175
51	0x3dc096ac	0.094037384
52	0x3eb382a3	0.35060605
53	0x3dccd0d5	0.10000769
54	0x3d9309d8	0.07179612
55	0x3df8ff5d	0.12158082
56	0x3ea06eda	0.31334573
57	0xbe1f8654	-0.15578586
58	0x3e8cdc36	0.27511758
59	0xbe34f4d1	-0.17671515
60	0x3e1eb78a	0.15499702
61	0xbe378120	-0.17920351
62	0xbdd92e62	-0.1060455
63	0x3ed4329e	0.41444868
64	0x3ec1bbc2	0.3783856
65	0xbe7ab5e2	-0.24483445
66	0xbe979b98	-0.29610896
67	0x3ea6eb53	0.32601413
68	0xbdd3efc9	-0.1034847
69	0x3dcb12e0	0.099157095
70	0x3e8b1509	0.27164486
71	0x3eb52de0	0.35386562
72	0x3e69c36a	0.22828451
73	0xbe73b452	-0.23799255
74	0x3eb3faf7	0.35152408
75	0xbebae05a	-0.36499292
76	0x3e692125	0.2276655
77	0x3eb84a0c	0.35993993
78	0x3e13a25c	0.14417404
79	0xbdfcb95c	-0.12340042
80	0x3e777a5c	0.2416777
81	0x3ed532de	0.4164037
82	0x3c434772	0.011918889
83	0x3e2fba48	0.17160904
84	0xbe6ae670	-0.22939467
85	0x3ea1435c	0.31496704
86	0xbd604ee2	-0.05476273
87	0xbc99a15c	-0.0187537
88	0xbebc0872	-0.36725193
89	0xbdff5ba8	-0.12468654
90	0x3e561dea	0.20909849
91	0x3ec20730	0.3789611
92	0xbec55a61	-0.38545516
93	0x3e3489ae	0.17630646
94	0x3e9dd23a	0.30824453
95	0x3ea40fe7	0.32043383
96	0x3e56cade	0.20975825
97	0xbea2f34c	-0.31826246
98	0xbd5a7817	-0.053337183
99	0xbed10bf0	-0.4082942
100	0xbd4c2638	-0.049841136
101	0x3c3fbc6b	0.011702637
102	0xbeaeec9a	-0.34164888
103	0x3ced14c1	0.02894056
104	0x399e7c38	0.0003022866
105	0xbe293301	-0.16523363
106	0x3eced402	0.40396124
107	0x3e8f74ec	0.28018892
108	0x3e68ede9	0.22747006
109	0x3edd67cb	0.4324325
110	0xbdb05b26	-0.08611135
111	0xbebe30e5	-0.3714668
112	0x3e914606	0.28373736
113	0xbe1f39ca	-0.15549389
114	0xbe8aec4d	-0.27133408
115	0x3e0d5046	0.13800153
116	0xbc812679	-0.015765416
117	0xbeb71c45	-0.35763755
118	0x3e8aa774	0.27080882
119	0x3ea28615	0.3174292
120	0x3df9bc7c	0.12194154
121	0xbed417d3	-0.41424426
122	0x3eaa5ed1	0.33275464
123	0x3eaf62cd	0.34255067
124	0x3db5e2b2	0.08881129
125	0x3dd97414	0.10617843
126	0x3cf62592	0.030047212
127	0xbec1c9de	-0.37849325

encoder.2.weight f4 [128, 128]
0	0x3d4875a8	0.04894033
1	0xbd330253	-0.04370339
2	0x3c38addd	0.011271921
3	0xbdaf0bcd	-0.08547173
4	0xbc1ef8e6	-0.009702897
5	0x3cfc8e35	0.030829528
6	0xbc165080	-0.009174466
7	0xbd7e4bee	-0.06208413
8	0xbd6b594f	-0.05745822
9	0xbcdae23a	-0.026719201
10	0xbda05be9	-0.078300305
11	0x3cd8e627	0.026476933
12	0x3d8aacd4	0.067712456
13	0xbd23a95c	-0.039956436
14	0xbd444dc0	-0.04792571
15	0x3d530702	0.051520355
16	0x3d782ce9	0.060589705
17	0x3d4cc4dd	0.04999243
18	0x3da1b653	0.07896104
19	0xbd807ffb	-0.0627441
20	0x3d6cbca7	0.0577971
21	0x3d27060e	0.04077726
22	0xbd5a067d	-0.053228844
23	0x3d85d0cd	0.06533966
24	0x3c9b74ad	0.018976534
25	0xbd312ce7	-0.043255713
26	0xbdacbbf8	-0.0843429
27	0x3d1d26f1	0.038367216
28	0xbda59c1e	-0.080864176
29	0x3d1e89ef	0.038705762
30	0xbd712713	-0.058875155
31	0xbc42f49c	-0.01189914
32	0x3d023cb1	0.03179616
33	0xbbf23dcb	-0.00739262
34	0xbda8aab6	-0.082356855
35	0x3db005cd	0.085948564
36	0xbcbe3fbd	-0.023223752
37	0xbd75d62d	-0.060018707
38	0xbd8559e0	-0.06511283
39	0xbd77c217	-0.060487833
40	0x3da1bc7d	0.078972794
41	0x3c391231	0.011295841
42	0xbda7660f	-0.08173763
43	0x3d9e1c52	0.077202454
44	0xbda6063e	-0.08106659
45	0x3d9469a4	0.07246712
46	0xbcc417ad	-0.02393707
47	0x3d00fb20	0.03148949
48	0x3d9247e4	0.07142618
49	0x3d291bc2	0.041286238
50	0xbd4f331e	-0.05058586
51	0xbda4eda9	-0.080531426
52	0xbd9cb9ad	-0.07652602
53	0xbcd23fb1	-0.025665136
54	0x3d6dc416	0.05804833
55	0x3d8127be	0.06306408
56	0xbbc635ea	-0.0060489075
57	0x3d13dba4	0.036098137
58	0xbd912887	-0.07087808
59	0xbd6ba44c	-0.057529733
60	0xbd813a1e	-0.06309913
61	0xbda63962	-0.08116414
62	0x3b73448f	0.0037119722
63	0xbd88a579	-0.066721864
64	0x3d97e7fd	0.07417295
65	0xbcaba981	-0.02095485
66	0xbcded26a	-0.027199943
67	0x3d3cc288	0.046083957
68	0x3d8bb3b4	0.06821385
69	0x3b6d0047	0.0036163495
70	0xbca2610a	-0.019821662
71	0xbbdc642c	-0.0067258086
72	0xbd335ea4	-0.04379143
73	0xbccccd3a	-0.025000203
74	0xbd9f698a	-0.07783802
75	0x3d998aa1	0.074971445
76	0xbd76f1b4	-0.0602891
77	0xbd98402f	-0.07434117
78	0x3d8827c0	0.06648207
79	0xbc9d9174	-0.019234397
80	0xbd42a9af	-0.047525104
81	0x3cfa3e25	0.030547211
82	0x3d8228f1	0.06355465
83	0x3d93e1ed	0.07220826
84	0x3d72518c	0.0591598
85	0xbd81cfc4	-0.06338456
86	0x3d82f7b0	0.06394899
87	0x3d1168f4	0.03550048
88	0x3da314eb	0.07962974
89	0x3d659c2e	0.056057148
90	0x3aaef523	0.0013348203
91	0x3b38dbd5	0.0028207202
92	0xbc8fdb04	-0.01756049
93	0x3cacf629	0.021113472
94	0x3d078e26	0.033094548
95	0xbc9f194e	-0.019421246
96	0xbd485bd6	-0.048915707
97	0x3d8d117a	0.06888099
98	0xbce3c004	-0.027801521
99	0x3d72facd	0.059321214
100	0x3d10c8a9	0.035347614
101	0xbbf00511	-0.0073248227
102	0x3d77cdbe	0.060498945
103	0x3d460dc9	0.04835299
104	0x3d14abb9	0.03629658
105	0xbdadd14e	-0.08487187
106	0xbd0dea88	-0.034647495
107	0xbd8e2755	-0.06941096
108	0xbd61b8ba	-0.05510781
109	0x3b667273	0.0035163432
110	0xbd0f8fa5	-0.0350491
111	0xbdae11d9	-0.08499498
112	0xbd228d11	-0.039685313
113	0x3c0b469a	0.008500719
114	0x3bd15183	0.006387891
115	0x3d8e1b31	0.0693878
116	0xbbc64eae	-0.00605186
117	0x3ce39c06	0.027784359
118	0xbd2c2cb2	-0.042034812
119	0xbd0eac52	-0.034832306
120	0x3b99d372	0.0046943957
121	0x3d2eaa8f	0.042643126
122	0x3d872321	0.06598497
123	0xbd8ce75b	-0.06880065
124	0x3d02038b	0.03174166
125	0xbd648e3c	-0.055799708
126	0xbd8f9355	-0.07010523
127	0x3d50c779	0.050971482
128	0x3c5fbef2	0.013656365
129	0x3c296411	0.010338799
130	0x3daa6658	0.08320302
131	0x3d8a6524	0.06757572
132	0xbd0027c2	-0.031287916
133	0x3c661065	0.014041995
134	0xbdac091b	-0.08400174
135	0x3d8ffaeb	0.07030281
136	0xbd763de2	-0.06011761
137	0x3d51aea6	0.05119195
138	0xbcc70d30	-0.02429828
139	0xbc9d17e6	-0.019176435
140	0x3d7c944d	0.06166487
141	0x3db1912c	0.086702675
142	0x3d5d116a	0.053971685
143	0xbd849f4f	-0.06475698
144	0x3c9091f2	0.017647717
145	0xbd43b28f	-0.04777771
146	0x3daff5ea	0.08591826
147	0x3d65fc85	0.056149025
148	0x3d9e4762	0.07728459
149	0xbd23d58f	-0.039998587
150	0x3d843718	0.06455821
151	0x3cf4434b	0.029817244
152	0xbdaf9b3e	-0.08574532
153	0x3d834e06	0.06411366
154	0xbd820490	-0.063485265
155	0x3d8b31bd	0.06796596
156	0x3d9e55f6	0.077312395
157	0xbd8789a3	-0.06618049
158	0x3d5ededc	0.054411754
159	0x3c0e85fb	0.008698936
160	0xbcaec89e	-0.021335896
161	0xbd446928	-0.047951847
162	0x3daa48f9	0.083147
163	0xbdacff24	-0.08447102
164	0xbd383ad3	-0.044977974
165	0xbdb138a3	-0.08653381
166	0x3dad4bf7	0.08461755
167	0xbdbd1b36	-0.09233706
168	0x3d96c19d	0.073611476
169	0xbd1a87fe	-0.03772735
170	0x3d8e6a39	0.06953854
171	0x3d156484	0.036472812
172	0xbd0d969c	-0.03456746
173	0x3cd6ce72	0.026221488
174	0x3da0931e	0.078405604
175	0xbac2c8f4	-0.0014860914
176	0x3d9a86e5	0.0754526
177	0x3bf3a4df	0.0074354257
178	0xbcd25847	-0.02567686
179	0x3d6ede7e	0.058317654
180	0xbd9d2bf7	-0.07674401
181	0xbbe13a3d	-0.0068733976
182	0x3d88d01a	0.06680317
183	0xbda2fbb6	-0.07958166
184	0x3d93f16f	0.07223784
185	0x3db3e0e3	0.08783128
186	0xbdb1c4b3	-0.086800955
187	0xbd45ad42	-0.048260935
188	0xba8b978a	-0.001065002
189	0x3cfffbf5	0.031248072
190	0xbc3bd926	-0.011465346
191	0x3c8a6363	0.016893094
192	0xbc566267	-0.013084984
193	0x3d74fce8	0.059811503
194	0x3d9ed456	0.077553436
195	0xbd7a871b	-0.061164003
196	0x3c0a78da	0.008451665
197	0x3d8c755c	0.06858322
198	0xbd499762	-0.049216636
199	0xbc801e94	-0.01563958
200	0x3c4e768d	0.012601507
201	0x3c8637b4	0.016383983
202	0xbd4fd348	-0.050738603
203	0xbc18bc08	-0.009322174
204	0x3d310cbe	0.043225043
205	0x3c70c403	0.01469517
206	0xbcdcc469	-0.026949124
207	0xbd7ec217	-0.062196817
208	0xbc13becf	-0.00901766
209	0xbd92365a	-0.07139273
210	0xbdaaed4f	-0.08346044
211	0xbad525e4	-0.0016261903
212	0x3bde1986	0.006777945
213	0x3d38a579	0.045079682
214	0xbc11792c	-0.008878987
215	0x3cb5ddfe	0.02220058
216	0xbd2b8ecb	-0.041884225
217	0xbcea5649	-0.028605597
218	0x3d099ea7	0.03359857
219	0x3d7f7444	0.06236674
220	0x3c5954bf	0.013264834
221	0xbd850d5a	-0.06496687
222	0xbd0648cd	-0.032784272
223	0xbd8864eb	-0.066598736
224	0x3cfa3b1a	0.03054576
225	0xbc52edae	-0.01287405
226	0xbd871f25	-0.06597737
227	0x3d9f372b	0.07774194
228	0xbda9ad18	-0.08284968
229	0xbce4dcb0	-0.027937263
230	0xbc14fbe2	-0.009093257
231	0x3daa2fe2	0.08309914
232	0x3d800579	0.06251044
233	0x3d7771e1	0.060411338
234	0x3da33705	0.079694785
235	0x3dae1065	0.08499221
236	0x3d7859eb	0.060632627
237	0xbd259546	-0.04042556
238	0xbcf4b0b9	-0.029869424
239	0xbd30110a	-0.042985
240	0xbc4c08bd	-0.012453255
241	0x3c51f307	0.01281429
242	0x3d5f89f1	0.05457491
243	0x3d6faa9c	0.058512315
244	0x3bb5c70b	0.0055474094
245	0xbd778166	-0.06042614
246	0xbbb5ef21	-0.005552188
247	0x3cef317b	0.029198399
248	0x3daea3f1	0.08527363
249	0x3cca1c34	0.024671651
250	0xbbc60962	-0.006043599
251	0xbdb4e82e	-0.08833347
252	0xbdaf19b7	-0.085498266
253	0x3db00920	0.085954905
254	0xbd4947b1	-0.049140636
255	0xbcc59ae6	-0.024121713

encoder.2.bias f4 [128]
0	0x3d9b395c	0.075793
1	0xbd999d08	-0.075006545
2	0x3d2691f2	0.040666528
3	0x3b9e70df	0.0048352326
4	0xbd9eab1a	-0.07747479
5	0xbd644a55	-0.05573495
6	0xbd859d91	-0.06524194
7	0x3d00c44a	0.031437196
8	0xbdad9d3b	-0.08477255
9	0xbcbd4a4c	-0.023106717
10	0x3da1ebfb	0.07906338
11	0x3ac63ae6	0.0015123754
12	0xbd9dc356	-0.07703273
13	0xbd28c28d	-0.041201163
14	0xbb87d239	-0.0041449335
15	0x3d66d999	0.05635986
16	0xbd229cfc	-0.039700493
17	0xbd1c9406	-0.038227104
18	0xbce8521c	-0.028359465
19	0x3ca27b8b	0.0198343
20	0xbc9fef71	-0.019523354
21	0xbdaba94f	-0.083819024
22	0x3d25eb1c	0.04050742
23	0xbbb0c499	-0.00539453
24	0x3d60b0c7	0.054856088
25	0xbd19575a	-0.03743682
26	0x3da0bfdb	0.078490935
27	0xbd545682	-0.051840313
28	0xbda52039	-0.080627866
29	0x3db3e962	0.087847486
30	0x3d9633ce	0.073341
31	0xbc855c3e	-0.016279336
32	0x3d3dd056	0.046341263
33	0x3db47ae7	0.08812504
34	0x3d0ec106	0.03485205
35	0x3d3c8371	0.04602379
36	0xbc94c580	-0.018160582
37	0xbd9994f8	-0.07499117
38	0x3da2e679	0.079541154
39	0x3d5d7c4b	0.054073613
40	0xbd433589	-0.047658477
41	0x3d76a26d	0.060213495
42	0x3d756c99	0.05991802
43	0x3d27b363	0.04094256
44	0xbc7934c7	-0.015210337
45	0x3d0fe5b3	0.035131168
46	0x3d922a77	0.07137006
47	0x3c110fec	0.008853894
48	0xbb8092e3	-0.0039237603
49	0x3d179594	0.037007883
50	0xbccc0a98	-0.024907395
51	0x3d8bedde	0.06832479
52	0x3d78698f	0.060647544
53	0x3d25951a	0.040425397
54	0xbd68cc79	-0.056835625
55	0x3d1a8098	0.037720293
56	0x3d01aeb1	0.03166074
57	0x3db271b0	0.087130904
58	0x3d537e8a	0.05163435
59	0xbd1030c1	-0.035202745
60	0x3d40e485	0.047092933
61	0x3ceb4626	0.028719973
62	0xbd231c29	-0.039821777
63	0xbdbe2481	-0.09284306
64	0x3d14f874	0.036369756
65	0xbbcf34c3	-0.0063234284
66	0x3d4f65de	0.050634257
67	0xbc90ed85	-0.017691383
68	0xbcadcd74	-0.021216132
69	0x3d05f814	0.03270729
70	0xbc2dd346	-0.010609454
71	0x3a0b2464	0.0005307852
72	0x3bb86eae	0.0056284284
73	0xbcc9cf50	-0.024634987
74	0xbd660f3a	-0.056166865
75	0xbc834e3e	-0.01602852
76	0x3c8eb1bb	0.017418733
77	0x3d49228c	0.049105212
78	0x3b775c26	0.0037744134
79	0x3d1840b7	0.037171092
80	0x3b02496f	0.0019880196
81	0x3da07795	0.078353085
82	0x3bf13950	0.0073615685
83	0x3da5431d	0.080694415
84	0x3d841cba	0.06450792
85	0xbd8bbe28	-0.06823379
86	0x3da2a9d1	0.07942546
87	0x3cf1d9ad	0.029522741
88	0x3d7a0edf	0.06104934
89	0xbdc37cc5	-0.09545282
90	0x3d1f73ec	0.03892891
91	0x3d4bc900	0.049752235
92	0xbd55b4dc	-0.052174434
93	0xbbf0c830	-0.007348083
94	0xbd5718f4	-0.05251403
95	0x3d7b74cb	0.06139068
96	0x3b6adc3a	0.0035836832
97	0xbda342bc	-0.07971713
98	0x3ce56b5a	0.02800529
99	0xbd947154	-0.07248178
100	0xbd0a3968	-0.033746153
101	0xbd15c79c	-0.036567315
102	0xbd7f5092	-0.062332697
103	0x3ccef1c2	0.025261763
104	0xbd4c83f3	-0.049930524
105	0xbd418a68	-0.047251135
106	0xbc18812b	-0.00930814
107	0xbb4d63c6	-0.0031339987
108	0xbd8af679	-0.06785292
109	0xbc90c6cc	-0.017672919
110	0x3d9977a2	0.07493521
111	0xbd8dd1f4	-0.06924811
112	0x3dc2176d	0.09477124
113	0xbd956881	-0.07295323
114	0xbc77b432	-0.0151186455
115	0x3d920723	0.071302675
116	0x3b8d2b6d	0.0043081553
117	0xbb4ebd87	-0.0031546073
118	0x3da00779	0.07813925
119	0x3d8a990b	0.06767472
120	0xbdc53fcc	-0.09631309
121	0x3cc1cc32	0.023656938
122	0xbd136ead	-0.03599422
123	0xbd0e80b9	-0.03479073
124	0x3d0787c6	0.033088468
125	0xbdac58a4	-0.08415344
126	0x3d8b5d87	0.06804948
127	0x3d9d2128	0.0767234

actor.weight f4 [4, 128]
0	0xbcf424ec	-0.029802762
1	0x3db590a1	0.088654764
2	0x3db49e9b	0.08819314
3	0x3ba73b34	0.005103493
4	0x3c4ff35f	0.0126923015
5	0xbd0ec969	-0.03486005
6	0x3da6e1df	0.0814855
7	0xbc5932aa	-0.013256708
8	0xbd391473	-0.045185518
9	0xbd244384	-0.04010345
10	0xbdb0a924	-0.08626011
11	0xbda3ab8b	-0.079917036
12	0x3c6c7ff1	0.0144348005
13	0xbd4d5157	-0.0501264
14	0xbb4ae227	-0.0030957551
15	0x3d343d2e	0.044003658
16	0x3cb1a1cf	0.021683602
17	0x3c7b09ec	0.01532219
18	0x3d2b6ada	0.04184995
19	0xbd811ad9	-0.06303949
20	0xbd58864d	-0.052862454
21	0x3c810b95	0.015752593
22	0x3cc7f260	0.024407566
23	0x3da409a7	0.080096535
24	0xbd5b901b	-0.053604227
25	0xbd015c65	-0.031582255
26	0x3c6ed82f	0.014577909
27	0x3d419206	0.0472584
28	0x3d8cf7ba	0.068831876
29	0x3d994f37	0.07485812
30	0xbc7851b5	-0.015156199
31	0x3dad5408	0.08463293
32	0x39784021	0.00023675013
33	0xbd7629a4	-0.060098305
34	0xbd2f6c45	-0.042827863
35	0xbc2f7361	-0.010708661
36	0xbd2e0db4	-0.042493537
37	0xbd6c68cb	-0.057717126
38	0xbb490cb6	-0.0030677742
39	0x3caef892	0.021358762
40	0x3d207fad	0.03918426
41	0x3d1b5baa	0.037929215
42	0x3daa36cc	0.08311233
43	0x3d616c00	0.055034637
44	0x3d14728a	0.036242045
45	0x3c853871	0.016262265
46	0x3d02c520	0.031926274
47	0x3d8b2415	0.067939915
48	0x3cfe5fa8	0.031051472
49	0xbc5a13ae	-0.013310356
50	0x3db5e686	0.088818595
51	0xbd8628f4	-0.0655078
52	0xbd244fe1	-0.04011524
53	0x3d94211d	0.07232878
54	0x3daad6c3	0.08341744
55	0x3cd3c252	0.025849495
56	0xbc4c89c6	-0.01248402
57	0xbbd04972	-0.0063564116
58	0xbd9d5874	-0.07682887
59	0x3ce39982	0.02778316
60	0xbbe62fd9	-0.007024747
61	0xbd952642	-0.07282688
62	0xbd868da1	-0.06569982
63	0x3c3f2a53	0.011667806
64	0x3d284bc0	0.041087866
65	0xbd97fd5d	-0.07421372
66	0x3bfa96f0	0.0076473877
67	0x3ce3a415	0.027788201
68	0xbcf1b71b	-0.029506257
69	0x3d994887	0.074845366
70	0x3d702460	0.05862844
71	0xbd087689	-0.03331617
72	0xbd088846	-0.033333085
73	0x3d7a0ec6	0.061049245
74	0x3db06060	0.08612132
75	0x3d9ef312	0.07761206
76	0xbd21ad38	-0.039471835
77	0xbda6f4fe	-0.08152197
78	0xbd1ea733	-0.038733672
79	0xbbd1e7d1	-0.0064058085
80	0xbce65450	-0.028116375
81	0x3d9a7d7d	0.07543466
82	0x3be2ba98	0.0069192164
83	0xba9956ae	-0.0011698806
84	0x3c3fff4c	0.011718582
85	0xbcd57bbb	-0.026059976
86	0x3d29d70d	0.041464854
87	0xbcf7b3a5	-0.030237028
88	0x3d921c7c	0.07134339
89	0x3d9d1c4f	0.07671415
90	0xbd60c546	-0.054875635
91	0xbd4631ba	-0.048387267
92	0xbd9a0491	-0.07520402
93	0x3d2c1ca3	0.042019498
94	0x3c96c0fa	0.018402565
95	0xbc5696bd	-0.013097462
96	0x3d789514	0.060689047
97	0x3d5cd7fe	0.053916924
98	0x3baaedc1	0.0052163308
99	0x3d8ed2b0	0.06973779
100	0xbd724319	-0.05914602
101	0xbd747b85	-0.05968811
102	0xbd38964f	-0.04506522
103	0xbc9c1209	-0.019051569
104	0xbd849b0e	-0.06474887
105	0x3d9d9625	0.076946534
106	0xbce69dd4	-0.02815143
107	0xbc4d7532	-0.012540149
108	0xbd911c48	-0.07085472
109	0xbda67312	-0.08127417
110	0xbdaf1c8b	-0.08550366
111	0xbcb82f05	-0.022483358
112	0xbc54081a	-0.012941385
113	0xbcd127b5	-0.02553163
114	0x3d40fb59	0.047114704
115	0x3da6dfcc	0.081481546
116	0xbd0bc2c2	-0.034121282
117	0xb990b6bd	-0.0002760197
118	0xbd040d65	-0.032239337
119	0x3d894125	0.067018785
120	0x3c88a014	0.016677894
121	0xbcb24283	-0.02176023
122	0xbccc8fc3	-0.024970895
123	0xbc9858ce	-0.018597033
124	0xbdae8067	-0.085205846
125	0x3d5d7e79	0.05407569
126	0x3d94eb76	0.07271473
127	0xbd173ca9	-0.036923084
128	0xbd09be85	-0.03362896
129	0x3d7e8a9d	0.06214391
130	0xbd0cf749	-0.034415517
131	0xbdb77e56	-0.089596435
132	0xbd8b7d68	-0.06811029
133	0x3c260a5e	0.010134308
134	0xbd2a85de	-0.041631572
135	0x3cd9bcfc	0.026579373
136	0x3d16b92d	0.03679769
137	0xbce672d0	-0.028130919
138	0xbd887487	-0.06662851
139	0xbd252404	-0.04031755
140	0x3dad88bb	0.08473345
141	0x3d03674e	0.03208094
142	0x3d1219f1	0.03566927
143	0x3d6c25f1	0.05765337
144	0x3d9260dc	0.07147381
145	0x3d4999f9	0.049219105
146	0x3c12e912	0.008966701
147	0xbda9eae7	-0.08296757
148	0x3d13d9df	0.03609645
149	0x3d2db4a9	0.04240862
150	0x3c4f14ae	0.012639208
151	0x3a237fc4	0.0006236995
152	0x3d83ec77	0.064415865
153	0x3c8ec66d	0.017428601
154	0xbc74e61e	-0.014947442
155	0x3cd61592	0.026133332
156	0xbd4e6571	-0.05038971
157	0xbd053361	-0.032519702
158	0xbc28add4	-0.01029535
159	0x3d435f73	0.04769845
160	0x3c933c10	0.017972976
161	0xbdaf71e0	-0.08566642
162	0xbd5ba0c3	-0.05362011
163	0xbc1ca6b9	-0.009561234
164	0x3d1daeb4	0.038496688
165	0x3d2896ac	0.041159317
166	0x3db4b676	0.08823864
167	0xbd70d011	-0.058792178
168	0xbdb97c46	-0.090569064
169	0xbd861079	-0.06546111
170	0x3cb5d98a	0.022198457
171	0xba8c68c4	-0.0010712375
172	0x3d2db67d	0.042410363
173	0x3d66146f	0.05617183
174	0xbcbda4e9	-0.023149924
175	0xbd325d11	-0.043545786
176	0xbda18205	-0.078861274
177	0xbd660dad	-0.056165386
178	0xbcd64215	-0.026154557
179	0x3d587fd7	0.052856293
180	0x3daf4b41	0.085592754
181	0x3a55e629	0.0008159602
182	0xbcb43e24	-0.022002287
183	0xbcd5ff31	-0.026122661
184	0x3d7e1d4b	0.062039655
185	0xbda9e704	-0.08296016
186	0x3d974e3c	0.07387969
187	0xbc4064bc	-0.011742767
188	0x3b2001b4	0.0024415078
189	0x3d8dbd42	0.06920864
190	0x3d845461	0.064614065
191	0xbdac14df	-0.08402418
192	0x3d9ec9a1	0.077533014
193	0xbc4598b3	-0.012060332
194	0x3d958814	0.073013455
195	0xbdad1eff	-0.08453178
196	0x3daa6644	0.08320287
197	0xbc6f3dc8	-0.014602132
198	0x3d95e54a	0.07319124
199	0xbd4bec2c	-0.049785778
200	0x3cec42fa	0.02884053
201	0x3c81e710	0.01585725
202	0xbadb19ee	-0.0016716102
203	0x3c35eda2	0.011104019
204	0xbd37decc	-0.04489021
205	0xbd2b05c7	-0.041753557
206	0x3d8c1097	0.06839102
207	0xbd8ffa12	-0.07030119
208	0xbdad1ba5	-0.084525384
209	0x3d3aa050	0.045563042
210	0xbcfdca0d	-0.030980134
211	0x3d44572c	0.047934696
212	0x3d1b3524	0.037892476
213	0x3d6ceb25	0.05784144
214	0x3bc731ca	0.0060789334
215	0xbd27fafb	-0.041010838
216	0x3d316eac	0.043318436
217	0x3d1a0604	0.037603393
218	0xbd4666ce	-0.048437886
219	0x3bf2910e	0.007402546
220	0xbdb21134	-0.086946875
221	0xbc8e4763	-0.017368024
222	0xbcf03c52	-0.029325638
223	0x3da13d00	0.07872963
224	0xbd1e0ad9	-0.038584564
225	0xbcaa2621	-0.020770134
226	0x3c95b3fe	0.018274304
227	0xbcf013d7	-0.029306335
228	0x3d8c1556	0.06840007
229	0xbc6066fc	-0.013696428
230	0x3db707f3	0.08937063
231	0x3d81e965	0.063433446
232	0xbc8ba5f3	-0.017046904
233	0x3d9fa04d	0.07794247
234	0xbd3bd370	-0.04585594
235	0xbd966090	-0.073426366
236	0x3d8042c3	0.06262734
237	0x3cc03038	0.023460492
238	0xbcfb649e	-0.030687626
239	0x3cac7593	0.021052158
240	0xbc92478b	-0.01785638
241	0xbd811afb	-0.06303974
242	0xbd416e1f	-0.04722416
243	0x3da668ad	0.08125434
244	0x3d0b02fc	0.033938393
245	0x3d220444	0.03955485
246	0xbbbf9d3c	-0.005847601
247	0x3b412dcf	0.0029476767
248	0x3d9394fc	0.07206151
249	0x3d9be5ce	0.07612191
250	0x3d8107f2	0.063003436
251	0x3d719b20	0.05898583
252	0x3cff934f	0.031198172
253	0xbc86e395	-0.016465941
254	0xbce077c0	-0.027400851
255	0x3bacf148	0.0052777864

actor.bias f4 [4]
0	0x3d387ba2	0.04503978
1	0xbc8a13fb	-0.01685523
2	0xbd70f8c7	-0.058831003
3	0xbce2a833	-0.027668094

critic.weight f4 [1, 128]
0	0x3d89932c	0.06717524
1	0xbd8f6ea1	-0.07003523
2	0x3d670682	0.05640269
3	0x3d8b558d	0.06803427
4	0xbcfd86f2	-0.030948136
5	0xbd925e55	-0.07146899
6	0xbd959873	-0.07304468
7	0xbd48e546	-0.049046777
8	0x3972734f	0.00023121874
9	0xbda6212a	-0.08111794
10	0xbd265672	-0.040609784
11	0xbd86084c	-0.06544551
12	0xbd9c7143	-0.076387905
13	0xbc9c3cfd	-0.01907205
14	0x3d9be644	0.07612279
15	0xbd27446b	-0.040836733
16	0x3d1f489f	0.038887616
17	0x3d2a6553	0.041600537
18	0xbd47cc07	-0.04877856
19	0x3d9150d6	0.07095496
20	0xbcd17b4c	-0.025571488
21	0x3d50b429	0.050953064
22	0x3d87a07d	0.066224076
23	0xbd2ffee5	-0.042967696
24	0xbd039686	-0.032125972
25	0xbdab5fd6	-0.08367889
26	0xbc3472c1	-0.011013688
27	0xbbfd2e0d	-0.007726437
28	0x3ca0a4ac	0.019609772
29	0x3d8c1f6a	0.06841929
30	0xbd1f8c57	-0.038952198
31	0x3c0396c1	0.008031548
32	0x3d47a187	0.04873803
33	0x3ce03423	0.02736861
34	0x3d371a44	0.044702783
35	0xbd2e03a3	-0.042483937
36	0x3c9eed82	0.019400362
37	0xbcbfa067	-0.023391915
38	0x3d9fa9f3	0.07796087
39	0x3b9ed552	0.004847207
40	0xbcc0da19	-0.023541497
41	0x3d96d2c1	0.07364417
42	0xbcda2d92	-0.026633058
43	0x3d7bc16e	0.061463766
44	0x3dac6646	0.084179446
45	0xb9718a40	-0.00023035053
46	0xbd23d466	-0.03999748
47	0x3da7f171	0.08200348
48	0x3d9cbbaf	0.07652985
49	0x3ca7e8ad	0.02049669
50	0xbd58fb5b	-0.052974086
51	0xbbb217c4	-0.005434962
52	0xbdaf755c	-0.085673064
53	0xbd66e65e	-0.05637204
54	0x3c377849	0.011198112
55	0xbbfe64ad	-0.0077634663
56	0x3ce766a1	0.02824718
57	0x3da64426	0.08118467
58	0x3d04132b	0.032244842
59	0x3d5de6b4	0.054175094
60	0x3d3ee72b	0.046607178
61	0x3d613e56	0.05499109
62	0xbc680341	-0.014160932
63	0xbdb49420	-0.08817315
64	0x3d50720f	0.050890025
65	0xbb8f46b3	-0.0043724417
66	0xbd49d23b	-0.049272757
67	0x3d21ef97	0.03953513
68	0x3d1fe986	0.039041065
69	0x3da502e7	0.08057194
70	0x3d841019	0.06448383
71	0x3d1fa0df	0.038971778
72	0xbad7b18f	-0.0016456115
73	0xbd913d08	-0.07091719
74	0xbd93e771	-0.07221878
75	0x3cc64858	0.024204418
76	0x3d6d654b	0.05795793
77	0xbd840a31	-0.06447256
78	0x3a9f1dff	0.0012139677
79	0xbc87824a	-0.016541619
80	0x3da495f2	0.08036412
81	0xbd3b0ba2	-0.04566539
82	0xbd4ef550	-0.050526917
83	0x3d6a41d3	0.05719168
84	0xbdb21fa1	-0.08697439
85	0xba4316f3	-0.00074420794
86	0xbd479bef	-0.048732694
87	0xbda72618	-0.08161563
88	0x3d8ec5f6	0.06971352
89	0xbba3c318	-0.004997622
90	0x3da601b3	0.08105793
91	0xbdacea71	-0.08443154
92	0x3cf79e77	0.03022693
93	0x3cfac0a5	0.030609438
94	0x3d8c454b	0.06849154
95	0xbd8d729f	-0.06906628
96	0xbd7a8e68	-0.061170965
97	0xbd8b3bd7	-0.06798523
98	0xbd584126	-0.052796505
99	0x3d1328e5	0.035927672
100	0x3c32c78a	0.010911832
101	0x3cf90804	0.03039933
102	0xba7ad107	-0.00095678907
103	0xbd5cd55d	-0.053914417
104	0x3bdeeb43	0.0068029477
105	0x3c9ae276	0.018906813
106	0x3cdaa679	0.026690708
107	0xbd1bb9fc	-0.038019165
108	0xbd45fe02	-0.048337944
109	0x3d9b216c	0.07574734
110	0xbd226bd4	-0.039653614
111	0xba15f992	-0.0005721088
112	0x3cf0db9e	0.029401597
113	0xbc944e8b	-0.018103858
114	0x3cd5a853	0.02608124
115	0x3c7d8b7f	0.015475153
116	0x3d2ffef2	0.042967744
117	0xbd1ed87c	-0.038780674
118	0xbdb27bfb	-0.08715054
119	0xbb4d7d63	-0.0031355254
120	0xbd782e01	-0.060590748
121	0x3ca0c088	0.019623056
122	0x3d34e025	0.044159073
123	0x3d5825a0	0.052770257
124	0xbcddaf21	-0.027061047
125	0x3c8b0356	0.016969364
126	0x3cdd39c6	0.027005088
127	0x3d943a43	0.07237675
