code/models/ppo_checkpoint_400.pt (torch, 75495 bytes, 7 tensors)

encoder.0.weight f4 [128, 5]
0.40206012 0.26772812 0.13627054 0.28931645 0.39663595 -0.028277138 0.072830915 0.41824904
-0.29176915 0.35410494 0.17296831 0.21415906 0.31646547 0.1417114 0.37387416 -0.18762685
-0.0067923004 -0.2801542 0.15159896 -0.33259603 -0.12336568 0.43954843 -0.24259351 -0.38552383
0.097362764 0.34870502 -0.13915564 0.30734524 0.26297453 0.18337886 -0.05277058 0.40920785
0.3525593 0.14171107 0.15058228 -0.35864273 0.031169465 0.4222277 0.41203022 0.003537
-0.085577324 0.027380414 0.20516653 -0.064198144 -0.29116157 -0.1260133 0.01631138 0.26609185
-0.42235434 0.011139662 -0.38220176 0.40914413 -0.3791975 0.09289848 -0.40261817 -0.2863204
0.112042375 0.36571676 -0.19142735 0.3718341 0.2928857 -0.23444347 0.43627635 -0.0836313
-0.1770562 -0.36755982 0.024278162 -0.35411304 -0.31429067 -0.14877844 -0.33480033 0.42087215
-0.35487983 -0.35409445 0.38932997 -0.18385191 -0.30627927 0.26058027 -0.38482663 -0.3424696
0.23297638 0.37619945 0.33031082 0.36448598 0.11565127 -0.33053657 0.047574162 -0.06093657
-0.14033861 0.025980977 0.01083451 0.19777422 -0.22211768 -0.14482802 0.24775024 -0.2761656
-0.31668723 -0.28213662 -0.40413845 -0.3964305 -0.4171194 -0.31131625 0.17652436 0.4408548
0.32419765 -0.19388558 0.31041384 0.39811814 -0.002663113 0.08033917 -0.30620977 0.2288296
-0.00859535 -0.058693495 -0.41376072 0.40050894 -0.16704397 0.42470092 0.15509452 -0.39356905
-0.08348539 0.40084568 -0.17609085 -0.20199448 0.058279693 -0.36723495 0.341961 -0.3587837
-0.17527115 -0.34921032 0.28301778 -0.13944282 -0.3989645 0.2144764 -0.053353775 0.04634792
-0.19818257 -0.14460889 -0.06734475 -0.05054027 0.42912406 -0.24528284 0.23319665 -0.34992126
0.3549872 0.26233718 0.13405892 -0.36654305 -0.40004194 0.31351396 -0.12562577 0.19841038
0.014740826 0.3420639 -0.07032689 0.15958498 -0.17789286 0.3520674 -0.40742508 -0.026394852
-0.16852817 0.11876062 0.0833087 -0.047062732 -0.03087089 -0.008590035 -0.007792131 0.31100318
-0.19507207 0.2192983 0.21673524 0.14891197 0.38739887 -0.26935837 0.071020216 -0.006979609
-0.25779754 -0.40184358 0.30397204 0.19793344 -0.061793264 -0.42755607 -0.0873624 -0.30372825
0.4100283 -0.22776546 -0.39427924 -0.06068949 -0.36737016 0.015540665 -0.10101912 -0.044342853
-0.44622093 0.057170313 0.0011992537 0.016833873 0.017652776 0.1340788 -0.24759449 0.11188096
-0.40185225 -0.16484207 -0.12308163 0.20384082 0.36941344 -0.38992742 0.22097024 0.09034601
-0.16498415 0.37418044 0.17429017 0.3241419 -0.2775647 -0.0887765 -0.23749693 -0.24994469
0.39852685 -0.43583736 -0.28478086 -0.3859987 -0.17087497 -0.33812276 -0.02028794 0.0078008273
-0.22203451 -0.34028453 0.09260229 -0.08207269 -0.14488177 -0.08035464 0.38272202 -0.33287555
0.32054573 -0.37596726 0.26299295 -0.3423861 0.007149141 -0.4122767 0.3317094 0.0974088
0.14476332 0.16522397 0.22071221 -0.42343828 -0.10126049 0.32748803 0.38019732 -0.31832054
-0.20223409 0.20041177 -0.105269425 0.018984802 -0.22893287 -0.28199422 0.2582029 -0.11067846
00000000: d3da cd3e a913 893e 818a 0b3e 4921 943e
00000010: de13 cb3e 75a5 e7bc 6028 953d bd24 d63e
00000020: c462 95be 3e4d b53e 9b1e 313e 834c 5b3e
00000030: c307 a23e cb1c 113e 6f6c bf3e 4121 40be
00000040: f291 debb 5f70 8fbe c23c 1b3e 074a aabe
00000050: 25a7 fcbd 7e0c e13e 6f6a 78be 6163 c5be
00000060: 2166 c73d 7789 b23e d17e 0ebe 5b5c 9d3e
00000070: 99a4 863e abc7 3b3e f725 58bd b183 d13e
00000080: a782 b43e b51c 113e 3e32 1a3e 05a0 b7be
00000090: 1b57 ff3c 3b2e d83e a0f5 d23e 03cd 673b
000000a0: 2a43 afbd e44c e03c 2d17 523e 517a 83bd
000000b0: 2113 95be a109 01be 719f 853c 313d 883e
000000c0: d43e d8be 2183 363c f3af c3be 577b d13e
000000d0: 2d26 c2be 8f41 be3d f823 cebe 9698 92be
000000e0: 7976 e53d 3a3f bb3e 8805 44be 0a61 be3e
000000f0: 1df5 953e f311 70be 9d5f df3e e346 abbd
00000100: 384e 35be cd30 bcbe ffe2 c63c 4e4e b5be
00000110: b5ea a0be 6059 18be f36a abbe 8e7c d73e
00000120: cfb2 b5be de4b b5be 4256 c73e ad43 3cbe
00000130: a3d0 9cbe c76a 853e ff07 c5be 2d58 afbe
00000140: 5c91 6e3e 379d c03e 801e a93e e89d ba3e
00000150: 93da ec3d 173c a9be 20dd 423d a098 79bd
00000160: edb4 0fbe 0fd6 d43c 3b83 313c 5385 4a3e
00000170: d172 63be cc4d 14be 3db2 7d3e 9465 8dbe
00000180: d424 a2be 3674 90be 3ceb cebe f0f8 cabe
00000190: ad90 d5be d864 9fbe cdc2 343e b8b7 e13e
000001a0: 3cfd a53e f189 46be 90ee 9e3e 24d6 cb3e
000001b0: 9f87 2ebb dd88 a43d 87c7 9cbe 4f52 6a3e
000001c0: 83d3 0cbc 9768 70bd 72d8 d3be 820f cd3e
000001d0: 930d 2bbe 6672 d93e 19d1 1e3e e281 c9be
000001e0: 63fa aabd a53b cd3e 2951 34be a4d7 4ebe
000001f0: b0b6 6e3d 3806 bcbe 8315 af3e 7fb2 b7be
00000200: 487a 33be b2cb b2be b5e7 903e 19ca 0ebe
00000210: 1345 ccbe b49f 5b3e 7d89 5abd 51d7 3d3d
00000220: 5ff0 4abe 5a14 14be 0bec 89bd 5003 4fbd
00000230: 26b6 db3e 6d2b 7bbe 1acb 6e3e e128 b3be
00000240: e2c0 b53e 0f51 863e be46 093e 88ab bbbe
00000250: 4cd2 ccbe e784 a03e 0ba4 00be 172c 4b3e
00000260: 8183 713c 0023 af3e 8b07 90bd 3f6a 233e
00000270: 8c29 36be 2e42 b43e 059a d0be 043a d8bc
00000280: a692 2cbe c538 f33d c09d aa3d dac4 40bd
00000290: f3e4 fcbc 38bd 0cbc 2255 ffbb cf3b 9f3e
000002a0: f9c0 47be bc8f 603e d8ef 5d3e 617c 183e
000002b0: 2559 c63e 57e9 89be 0c73 913d 34b5 e4bb
000002c0: 0afe 83be 71be cdbe 39a2 9b3e 10af 4a3e
000002d0: ef1a 7dbd a1e8 dabe 0feb b2bd 4582 9bbe
000002e0: 3bef d13e 593b 69be f8de c9be 8b95 78bd
000002f0: f117 bcbe 469e 7e3c 1de3 cebd daa0 35bd
00000300: 1277 e4be 6b2b 6a3d 4730 9d3a 31e7 893c
00000310: 8e9c 903c f44b 093e 6989 7dbe d821 e53d
00000320: 94bf cdbe 5ccc 28be 3912 fcbd a6bb 503e
00000330: c223 bd3e 91a4 c7be 0646 623e 5407 b93d
00000340: 9bf1 28be 9494 bf3e 1f79 323e edf5 a53e
00000350: f61c 8ebe 74d0 b5bd 6532 73be 80f1 7fbe
00000360: b60b cc3e 1326 dfbe ccce 91be 9fa1 c5be
00000370: d9f9 2ebe 6d1e adbe e532 a6bc 159e ff3b
00000380: 045d 63be c639 aebe 45a6 bd3d ba15 a8bd
00000390: e35b 14be f990 a4bd 24f4 c33e aa6e aabe
000003a0: 921e a43e c87e c0be 03a7 863e 3b4d afbe
000003b0: 5743 ea3b ee15 d3be d1d5 a93e 447e c73d
000003c0: d63c 143e 7930 293e 6202 623e e7cc d8be
000003d0: a961 cfbd 83ac a73e 39a9 c23e e9fa a2be
000003e0: 7416 4fbe be38 4d3e 7f97 d7bd 0486 9b3c
000003f0: 616d 6abe 8c61 90be 2c33 843e 63ab e2bd

encoder.0.bias f4 [128]
0.07333016 -0.22054037 -0.23884189 -0.21492684 -0.2850056 0.013108006 -0.16245238 0.3531186
0.23478897 -0.393263 0.28226176 0.34045535 0.07200139 -0.13309036 0.0945907 -0.25880674
0.26653975 -0.3434598 -0.19455324 0.018020421 0.28686997 -0.26588884 0.030315135 -0.2688304
-0.28856388 0.390862 -0.12091493 0.018183501 -0.31076458 0.3719951 0.4014764 0.14613351
0.28225073 0.35676014 0.29911593 -0.35193622 0.3339979 0.14782761 -0.4235032 0.28266606
-0.20467238 0.03757794 -0.07356901 0.29828033 0.4293078 0.327229 0.14425941 -0.043558523
0.050043523 0.16175309 -0.37126902 -0.07574609 0.22752199 0.38887465 0.42255875 -0.13496251
-0.40557468 0.1452947 0.19585352 -0.4654023 -0.42877215 -0.08321584 -0.41483423 0.012633948
0.41192055 -0.28256735 -0.43814185 -0.2258636 -0.16994657 -0.24345194 0.18702702 -0.359321
-0.08427933 0.010680835 -0.013993124 0.26276472 0.26364818 -0.30235237 -0.11112984 -0.2590082
0.23407568 0.34537414 0.14509934 -0.097233064 -0.4392032 0.1993579 0.31350812 -0.20164508
-0.39971498 0.40521705 -0.16883947 0.19883525 -0.14833313 0.3937171 0.17588691 -0.20719838
0.3375942 0.17521495 -0.15625307 -0.05042642 0.032501023 0.3708493 -0.07453014 -0.34808677
0.28539565 0.2704001 -0.2572935 0.18333276 0.12534204 -0.15231547 -0.08396796 -0.38563946
-0.43144372 0.4234292 -0.17988807 -0.23947224 0.25006804 0.14398721 -0.10995138 0.17621733
0.10187441 -0.09359574 0.31676173 -0.26660082 0.34447867 -0.23571992 -0.27197197 0.37232235
00000000: 1f2e 963d 56d5 61be f892 74be c815 5cbe
00000010: 41ec 91be f6c2 563c eb59 26be f6cb b43e
00000020: 856c 703e c559 c9be 9d84 903e 2a50 ae3e
00000030: 7775 933d d748 08be c5b8 c13d 5182 84be
00000040: e677 883e f7d9 afbe f738 47be 909f 933c
00000050: 9fe0 923e 9522 88be 7257 f83c 23a4 89be
00000060: a5be 93be 101f c83e 3fa2 f7bd 91f5 943c
00000070: 891c 9fbe 2476 be3e 518e cd3e 06a4 153e
00000080: 2b83 903e 44a9 b63e b925 993e fc30 b4be
00000090: c601 ab3e 1f60 173e 69d5 d8be 9bb9 903e
000000a0: a395 51be 53eb 193d 59ab 96bd 33b8 983e
000000b0: 3bce db3e 8f8a a73e bdb8 133e 6c6a 32bd
000000c0: 70fa 4c3d 9aa2 253e f916 bebe c420 9bbd
000000d0: 86fb 683e 941a c73e 9f59 d83e 9d33 0abe
000000e0: 7ca7 cfbe 22c8 143e d38d 483e 3649 eebe
000000f0: 0688 dbbe 116d aabd 2765 d4be 9efe 4e3c
00000100: 40e7 d23e abac 90be 2154 e0be ca48 67be
00000110: 7906 2ebe 774b 79be 0384 3f3e ecf8 b7be
00000120: a49a acbd abfe 2e3c 6a43 65bc 1989 863e
00000130: e5fc 863e eecd 9abe 0b98 e3bd b99c 84be
00000140: 89b1 6f3e e1d4 b03e ec94 143e 2122 c7bd
00000150: 3edf e0be 7a24 4c3e 2384 a03e 0c7c 4ebe
00000160: 71a7 ccbe 9c78 cf3e 41e4 2cbe 789b 4b3e
00000170: a4e4 17be 4a95 c93e b31b 343e d02b 54be
00000180: 26d9 ac3e 8c6b 333e ce00 20be ef8b 4ebd
00000190: cb1f 053d f6df bd3e 42a3 98bd 6e38 b2be
000001a0: 611f 923e e271 8a3e f9bb 83be 95bb 3b3e
000001b0: aa59 003e 96f8 1bbe 65f7 abbd 8972 c5be
000001c0: 31e6 dcbe b6cb d83e 9434 38be 3638 75be
000001d0: eb08 803e 6271 133e 302e e1bd 5172 343e
000001e0: 88a3 d03d 20af bfbd 982e a23e e77f 88be
000001f0: 825f b03e 9060 71be e93f 8bbe 09a1 be3e

encoder.2.weight f4 [128, 128]
-0.0039527947 0.029834932 -0.007547847 -0.0437041 -0.01998669 0.05753658 -0.025161859 0.01500118
-0.062520996 -0.08644848 0.01075832 -0.0045032855 -0.06271522 -0.07243002 0.069164105 0.011787114
-0.06623671 0.07374587 -0.050572984 0.071610875 -0.025666345 -0.08088119 0.048523 -0.08051537
0.07065843 0.022684636 0.023552386 0.05006465 -0.07613332 -0.009168752 -0.084554605 -0.0044922745
-0.010235647 -0.029506186 0.063724324 0.03803341 0.07721805 -0.05586923 0.040236603 0.068146124
0.05373918 0.010447814 0.08447094 -0.06334965 0.06752728 -0.041779835 -0.0122638475 0.03846277
-0.036469698 -0.055765 0.07655312 0.0054582274 -0.015199692 0.052051 -0.05070937 -0.06650524
-0.020886293 0.05156864 0.07851629 -0.0684468 -0.08253051 -0.07762861 0.004990429 0.026414242
-0.059213415 -0.071355805 0.0077493195 0.049009155 -0.06811972 0.06694638 0.0014637705 0.07804116
0.015259203 -0.010442788 0.034228984 -0.037957147 -0.009865365 -0.0656976 0.06606294 -0.019361492
-0.06594888 -0.03351612 0.042952083 -0.028783 -0.014754484 -0.058048915 0.061690815 -0.060410783
0.07514444 0.010398733 -0.08201392 -0.08409332 -0.00079741835 0.018478695 -0.060670123 0.009853027
-0.021974493 -0.013095647 -0.066089325 0.050762244 0.024692385 -0.0138303405 -0.053822685 0.029760426
-0.02927007 0.08131382 -0.08828145 -0.07788078 -0.07008762 -0.03195441 -0.07106777 -0.040551707
0.014905591 0.081037536 0.05613097 0.07661806 -0.045898475 0.031863384 0.036862466 0.065146275
-0.031860605 0.025492089 -0.07624972 -0.024988603 0.007425948 0.018835658 -0.0734761 0.041376624
0.06392497 -0.08304302 0.08320367 -0.028340654 -0.024541156 0.079838 0.041660532 0.046718907
-0.0036271415 0.055814624 0.030428763 0.005669263 0.05103852 -0.017036393 0.034668908 -0.027320692
-0.050155826 -0.03706 -0.020022182 0.07128642 0.019260222 0.059026252 -0.08235611 0.03498155
0.07586816 -0.043943167 0.0897307 0.06954555 0.043895133 0.05509323 0.07004981 -0.023060393
-0.039058257 -0.07436312 -0.08415398 0.042090457 0.018244885 -0.044046745 -0.018731808 -0.016382506
0.04719011 -0.030979365 0.08076992 0.08129914 -0.083534874 0.06584622 0.08285178 0.043818966
-0.07144998 0.054933213 -0.039193057 0.04093837 0.07126355 -0.009246094 -0.07713297 0.002111768
-0.08393753 0.03437141 0.0221414 0.038895037 0.07467393 0.08471893 0.027298618 -0.016072078
0.05969823 -0.01802236 -0.019818207 0.03999428 -0.08670055 0.030818375 -0.0017444079 -0.0021817393
-0.04539665 0.08656382 0.009736433 -0.053782135 -0.07860829 0.0076274322 0.031088585 -0.085491784
-0.046874717 0.080030814 0.04933803 -0.04157875 -0.042157106 0.07302821 0.051472794 0.029419927
-0.073283836 0.07074508 0.05951102 -0.048711672 -0.06073009 -0.04682025 -0.0108728595 -0.060954813
0.08490173 0.010661561 -0.061970934 -0.068402715 -0.011993881 -0.072493546 -0.01471142 0.033583976
-0.03453379 0.016850203 -0.0014820932 -0.024944203 0.07551493 -0.02993767 -0.0005420398 0.06489302
-0.016663287 0.016981535 0.054029446 0.08122599 -0.028779114 -0.0048038787 -0.08700748 0.08616768
0.009619913 -0.0856699 -0.073939696 0.06197168 0.026857091 0.057145678 -0.007256154 0.04253677
00000000: 7286 81bb 6368 f43c ee53 f7bb 1203 33bd
00000010: 20bb a3bc 7aab 6b3d 3e20 cebc 82c7 753c
00000020: 020b 80bd e70b b1bd aa43 303c 4c90 93bb
00000030: d670 80bd 3156 94bd e9a5 8d3d bd1e 413c
00000040: 1da7 87bd 1308 973d 9e25 4fbd b9a8 923d
00000050: 3a42 d2bc 0aa5 a5bd 0ec0 463d 3ee5 a4bd
00000060: 5eb5 903d 21d5 b93c eff0 c03c 9710 4d3d
00000070: c9eb 9bbd 8838 16bc f72a adbd ee33 93bb
00000080: 6ab3 27bc f5b6 f1bc e681 823d ecc8 1b3d
00000090: 7f24 9e3d 22d7 64bd 23cf 243d 3290 8b3d
000000a0: 9d1d 5c3d 4f2d 2b3c 1aff ac3d 76bd 81bd
000000b0: be4b 8a3d 5521 2bbd 4eee 48bc 238b 1d3d
000000c0: 4061 15bd d769 64bd e2c7 9c3d eeda b23b
000000d0: 2108 79bc 6e33 553d a1b4 4fbd e633 88bd
000000e0: bb19 abbc a339 533d 26cd a03d d62d 8cbd
000000f0: c205 a9bd c0fb 9ebd c186 a33b ae62 d83c
00000100: c489 72bd fe22 92bd 01ee fd3b d3bd 483d
00000110: 5a82 8bbd 2f1b 893d fddb bf3a 0bd4 9f3d
00000120: bc01 7a3c 3a18 2bbc b133 0c3d f478 1bbd
00000130: 57a2 21bc 778c 86bd 024c 873d fe9b 9ebc
00000140: 3510 87bd 3348 09bd 86ee 2f3d 53ca ebbc
00000150: cbbc 71bc b3c4 6dbd 82af 7c3d 4c71 77bd
00000160: 54e5 993d 735f 2a3c eaf6 a7bd 1e39 acbd
00000170: d709 51ba a260 973c 3c81 78bd 976e 213c
00000180: da03 b4bc 208f 56bc d759 87bd 12ec 4f3d
00000190: af47 ca3c a798 62bc 2d75 5cbd 23cc f33c
000001a0: c9c7 efbc dc87 a63d e8cc b4bd f57f 9fbd
000001b0: 198a 8fbd a1e2 02bd fb8b 91bd 8c19 26bd
000001c0: 9436 743c 02f7 a53d 97e9 653d eee9 9c3d
000001d0: 0a00 3cbd 2e83 023d 19fd 163d 696b 853d
000001e0: 4480 02bd c9d4 d03c d028 9cbd e6b4 ccbc
000001f0: 5e55 f33b 3d4d 9a3c a37a 96bd 897a 293d
00000200: 18eb 823d 7512 aabd b066 aa3d a92a e8bc
00000210: 890a c9bc 1b82 a33d 3ca4 2a3d 535c 3f3d
00000220: 56b5 6dbb e09d 643d be45 f93c 3ac5 b93b
00000230: c40d 513d e88f 8bbc fc00 0e3d a5cf dfbc
00000240: 3270 4dbd 3acc 17bd 8f05 a4bc 9dfe 913d
00000250: 9dc7 9d3c 83c5 713d 52aa a8bd d048 0f3d
00000260: c460 9b3d c0fd 33bd bbc4 b73d e66d 8e3d
00000270: 62cb 333d 70a9 613d 4676 8f3d 26e9 bcbc
00000280: 8dfb 1fbd b14b 98bd ec58 acbd 0b67 2c3d
00000290: 4c76 953c 5c6a 34bd 7373 99bc 9b34 86bc
000002a0: 6b4a 413d 70c8 fdbc b36a a53d 2a80 a63d
000002b0: 5514 abbd 62da 863d 32ae a93d 847b 333d
000002c0: 5e54 92bd a601 613d e688 20bd feae 273d
000002d0: a0f2 913d ee7c 17bc e4f7 9dbd 9665 0a3b
000002e0: 71e7 abbd 09c9 0c3d e261 b53c 6750 1f3d
000002f0: a5ee 983d 1e81 ad3d 5aa1 df3c 97a9 83bc
00000300: 2286 743d a1a3 93bc cb59 a2bc 0bd1 233d
00000310: 0f90 b1bd d176 fc3c 9ea4 e4ba 83fb 0ebb
00000320: d6f1 39bd 5f48 b13d 8f85 1f3c a84a 5cbd
00000330: 62fd a0bd 8aef f93b 7dad fe3c 5116 afbd
00000340: b4ff 3fbd 32e7 a33d ad16 4a3d 7b4e 2abd
00000350: eeac 2cbd d08f 953d 23d5 523d 0f02 f13c
00000360: d615 96bd cce2 903d d4c1 733d e485 47bd
00000370: 1dc0 78bd 97c6 3fbd 1424 32bc c1ab 79bd
00000380: f5e0 ad3d d4ad 2e3c 3cd5 7dbd b916 8cbd
00000390: fc81 44bc 7f77 94bd 2b08 71bc 5a8f 093d
000003a0: 4e73 0dbd 7009 8a3c cc42 c2ba c957 ccbc
000003b0: 92a7 9a3d d83f f5bc ad17 0eba a2e6 843d
000003c0: 7281 88bc dc1c 8b3c fb4d 5d3d d059 a63d
000003d0: 2dc2 ebbc db69 9dbb fa30 b2bd ae78 b03d
000003e0: d79c 1d3c b373 afbd b26d 97bd 04d6 7d3d
000003f0: 6703 dc3c 9611 6a3d 08c5 edbb 093b 2e3d

encoder.2.bias f4 [128]
0.040256068 -0.0083291 0.049562555 0.008175494 0.0658238 0.017953802 0.012483607 -0.01841203
-0.074536525 0.06004981 -0.011243515 0.035922807 -0.04970702 0.043854762 0.032989454 -0.06887091
-0.0038690912 -0.009485473 -0.030720478 0.0026324175 -0.062717125 0.0072263675 -0.10006252 0.07103083
0.01906401 -0.011516935 -0.026127469 -0.090140924 -0.04292976 -0.07374 -0.045859974 -0.03304061
0.022973582 -0.06000888 -0.022506354 -0.0641075 -0.025139615 -0.035648067 -0.056323886 0.0009558332
-0.02003869 -0.07935774 0.069985576 0.06051463 0.034265004 -0.056389097 0.032931674 -0.07322468
0.00730933 -0.03227615 -0.030838253 -0.07100028 -0.041578103 0.06838176 0.0835552 0.053188816
-0.036696527 -0.09998337 0.053987477 0.0761605 0.04086087 -0.07201464 0.041492674 0.01204441
0.048579786 0.015887188 0.036881533 -0.038973495 0.06370148 -0.001780708 0.04167379 0.035517577
0.086609475 0.03394829 0.05709212 -0.06972744 -0.0962184 -0.029134303 0.036146283 0.00026021464
0.07074072 0.04620796 -0.016576596 -0.041532483 -0.040259067 -0.014258313 -0.08789847 -0.024617236
0.0022937262 0.041247513 -0.040850393 0.007610179 -0.018989751 0.045076158 -0.07257522 0.081316136
-0.019583363 -0.08607837 0.06579026 -0.045175176 -0.026974035 0.062256645 -0.0043174163 0.029268583
-0.047854647 0.05118196 0.05229557 0.07401463 0.03492059 -0.0053384253 0.022749892 -0.09677969
-0.07947502 0.062355205 0.046448067 0.0021958079 0.050038338 -0.046611063 -0.034822684 -0.011681372
-0.0028900527 0.070168994 0.07796562 0.04722362 -0.009752888 0.070013925 0.025287086 -0.08220945
00000000: 8ce3 243d c776 08bc 1b02 4b3d 82f2 053c
00000010: a1ce 863d da13 933c 0b88 4c3c d3d4 96bc
00000020: 9ba6 98bd caf6 753d b836 38bc cb23 133d
00000030: 9799 4bbd 0da1 333d f31f 073d 310c 8dbd
00000040: 9490 7dbb f568 1bbc 83a9 fbbc a384 2c3b
00000050: d671 80bd 2acb ec3b 94ed ccbd 9d78 913d
00000060: 202c 9c3c 87b1 3cbc 4609 d6bc ce9b b8bd
00000070: 1ed7 2fbd ff04 97bd abd7 3bbd 9755 07bd
00000080: 1833 bc3c dfcb 75bd 3f5f b8bc cb4a 83bd
00000090: 98f1 cdbc b503 12bd e0b3 66bd e190 7a3a
000000a0: 2e28 a4bc 5086 a2bd 9954 8f3d 30de 773d
000000b0: 7659 0c3d 41f8 66bd 5de3 063d d2f6 95bd
000000c0: 1b83 ef3b ff33 04bd 81a0 fcbc 9868 91bd
000000d0: cd4d 2abd bc0b 8c3d fd1e ab3d 84dc 593d
000000e0: 194f 16bd 15c4 ccbd f921 5d3d 09fa 9b3d
000000f0: ba5d 273d 697c 93bd 39f4 293d eb55 453c
00000100: 99fb 463d d925 823c 1711 173d aca2 1fbd
00000110: ec75 823d a566 e9ba 23b2 2a3d e17a 113d
00000120: 4f60 b13d 5d0d 0b3d 6dd9 693d 43cd 8ebd
00000130: 270e c5bd 10ab eebc 200e 143d 6b6d 8839
00000140: 83e0 903d 8f44 3d3d a4cb 87bc f71d 2abd
00000150: b1e6 24bd b39b 69bc 1d04 b4bd 16aa c9bc
00000160: 5752 163b 27f3 283d be52 27bd cf5e f93b
00000170: 6590 9bbc c7a1 383d 51a2 94bd 1389 a63d
00000180: 4a6d a0bc db49 b0bd 0bbd 863d 9b09 39bd
00000190: a7f8 dcbc d300 7f3d 1d79 8dbb abc4 ef3c
000001a0: 3c03 44bd 2da4 513d e133 563d fb94 973d
000001b0: e508 0f3d f5ed aebb fb5d ba3c 6e34 c6bd
000001c0: cdc3 a2bd 2c68 7f3d 5440 3e3d 8be7 0f3b
000001d0: 00f5 4c3d 3eeb 3ebd 3ba2 0ebd 3a63 3fbc
000001e0: 0a67 3dbb c3b4 8f3d 70ac 9f3d 8e6d 413d
000001f0: 94ca 1fbc 7663 8f3d dd26 cf3c 6e5d a8bd

actor.weight f4 [4, 128]
0.04450249 -0.063088566 -0.049316354 -0.005557397 -0.08599538 0.061626952 0.011890963 0.022007724
-0.010795875 -0.011797311 -0.07602229 0.10359044 -0.019925859 -0.020078056 -0.04226696 -0.02987907
-0.056805383 -0.037180584 0.03609997 0.07849083 -0.0035526066 -0.07653497 0.053620704 0.10147552
0.078041516 0.033518277 0.03743539 0.045437682 0.08741247 0.060672358 -0.058180127 -0.0529433
0.07611166 -0.082248785 -0.066057496 -0.011490218 -0.068611145 -0.03529625 0.04704135 0.07747879
-0.086174645 0.06770734 0.09705241 0.0006022035 0.08630825 0.009091946 -0.059665523 0.009183364
0.0075374367 -0.0052299392 0.046605047 0.01248723 -0.050963778 -0.057978053 -0.0016248137 0.08537807
0.067791924 0.05236042 0.056205496 0.09897652 -0.042673845 0.018858261 -0.025768977 -0.017539391
-0.028577395 -0.04548182 0.05549189 0.096151546 -0.06420631 -0.0013653785 0.06342546 0.08511126
-0.009532247 0.015282851 0.10371806 0.03383765 0.020728245 -0.064084806 -0.018989434 0.021153903
-0.0325247 0.09555164 0.10471389 0.011940434 -0.026463816 0.013507961 0.0038381193 -0.073998645
-0.037475903 0.04646284 -0.02937016 -0.033353634 0.087713994 -0.04975249 -0.035636593 5.379308e-05
0.0026132576 0.056835778 0.0028851954 -0.002462802 -0.042757317 -0.04600771 -0.0071253357 -0.052699555
0.07760495 -0.04835843 -0.007748231 -0.011716128 0.04984199 0.069433905 -9.240413e-05 -0.017454743
-0.010131672 0.068460606 0.0018348445 -0.017443033 -0.05812438 -0.05256952 -0.04347067 0.02265057
0.017022137 -0.08518984 -0.008745861 -0.016409665 0.02833916 0.041429594 -0.048211146 -0.066215456
-0.0640983 -0.03654619 0.07789349 0.083569154 0.05983745 -0.0082467515 -0.07317264 -0.054089453
-0.085705735 -0.04801671 -0.03235778 -0.09201575 -0.049501456 -0.020947868 0.022958113 0.018248608
0.010384805 -0.025673684 0.01934796 -0.039844718 -0.012384822 0.009204661 0.019603314 0.009542593
0.030177038 -0.08626046 0.012837719 0.06625564 0.024762508 0.0047083087 0.06645376 -0.04779057
-0.07765193 -0.018666727 -0.013845722 0.032273818 0.039963197 0.065656625 0.07815932 0.0011975376
0.05332801 0.08505591 0.031160695 -0.046840757 0.03445115 -0.05522725 -0.052880183 -0.032841984
0.025189832 0.0026895273 0.034861103 0.039551225 0.06397519 -0.059283484 0.03664244 0.015126546
-0.00066588743 -0.033117868 0.008123172 0.036192194 -0.008434715 0.05260767 0.041293915 -0.06610382
-0.023736153 -0.04655375 -0.017632913 0.004972555 0.03022686 -0.020007515 -0.015267784 0.08005202
0.024506401 -0.009047745 -0.038010966 -0.04478941 -0.03634853 0.08709526 0.0103307 -0.039418343
0.06174734 0.080732755 -0.08771628 0.05039329 0.0066207983 0.04434528 -0.046263833 0.07595192
-0.04929176 0.056024857 -0.024618307 0.0041784164 0.06110401 -0.063029304 0.074917875 0.08645106
-0.0077762827 0.026337432 -0.08722652 0.06837309 -0.07107078 0.08586578 0.05991816 -0.06529152
0.056771267 0.050081328 0.08085764 0.08076493 -0.018081598 0.08483111 0.012591487 -0.079358764
-0.08028936 0.062141158 0.03578039 0.008916809 -0.04393713 0.003770731 0.040658243 0.005962367
0.058938954 0.014881178 0.0010700242 -0.013319361 0.03824223 0.038868785 0.024719568 -0.03441527
00000000: 3e48 363d 9434 81bd f2ff 49bd d31a b6bb
00000010: 591e b0bd 8b6c 7c3d 50d2 423c 8b49 b43c
00000020: 2fe1 30bc 8249 41bc 93b1 9bbd 3927 d43d
00000030: 8e3b a3bc bc7a a4bc 1f20 2dbd f4c4 f4bc
00000040: c3ac 68bd ab4a 18bd 90dd 133d cdbf a03d
00000050: d9d2 68bb 5ebe 9cbd 62a1 5b3d 66d2 cf3d
00000060: 3bd4 9f3d 764a 093d da55 193d dd1c 3a3d
00000070: 4f05 b33d 9483 783d 494e 6ebd 13db 58bd
00000080: 6ee0 9b3d 0d72 a8bd 2749 87bd 7841 3cbc
00000090: 0084 8cbd cd92 10bd 6eae 403d 33ad 9e3d
000000a0: 557c b0bd 25aa 8a3d 6ac3 c63d 31dd 1d3a
000000b0: 61c2 b03d 63f6 143c d663 74bd d275 163c
000000c0: 9afc f63b e95f abbb efe4 3e3d 3d97 4c3c
000000d0: 65bf 50bd 657a 6dbd b3f7 d4ba b3da ae3d
000000e0: 7ed6 8a3d e177 563d bc37 663d 34b4 ca3d
000000f0: c5ca 2ebd a47c 9a3c 7619 d3bc c5ae 8fbc
00000100: 241b eabc 254b 3abd 774b 633d 1aeb c43d
00000110: 997e 83bd 80f6 b2ba 35e5 813d d04e ae3d
00000120: 242d 1cbc ec64 7a3c 226a d43d 5999 0a3d
00000130: 48ce a93c e53e 83bd bb8f 9bbc f34a ad3c
00000140: 9f38 05bd 94b0 c33d 3c74 d63d cfa1 433c
00000150: a5ca d8bc 7f50 5d3c f588 7b3b 9a8c 97bd
00000160: 5580 19bd d24f 3e3d b199 f0bc d29d 08bd
00000170: 65a3 b33d 44c9 4bbd adf7 11bd e19f 6138
00000180: 3043 2b3b a2cc 683d 8c15 3d3b f666 21bb
00000190: 4c22 2fbd 9572 3cbd a67b e9bb 7ddb 57bd
000001a0: 58ef 9e3d 7d13 46bd dfe4 fdbb 01f5 3fbc
000001b0: 1d27 4c3d 5d33 8e3d 17c9 c1b8 40fd 8ebc
000001c0: 50ff 25bc 1335 8c3d 2a7f f03a b1e4 8ebc
000001d0: d413 6ebd 2353 57bd 4d0e 32bd b08d b93c
000001e0: 0272 8b3c 0378 aebd cd4a 0fbc 906d 86bc
000001f0: 8727 e83c 14b2 293d 0d79 45bd f89b 87bd
00000200: f845 83bd 75b1 15bd 9f86 9f3d 4e26 ab3d
00000210: 1d18 753d 621d 07bc 89db 95bd e78c 5dbd
00000220: 7d86 afbd 2bad 44bd 9789 04bd c172 bcbd
00000230: 0ac2 4abd dd9a abbc a712 bc3c 1b7e 953c
00000240: 0725 2a3c 9e51 d2bc 9d7f 9e3c 3734 23bd
00000250: b5e9 4abc 25cf 163c 2197 a03c 8958 1c3c
00000260: d635 f73c 53a9 b0bd 4c55 523c 09b1 873d
00000270: beda ca3c 2848 9a3b e918 883d 0bc0 43bd
00000280: fa07 9fbd f7ea 98bc 2bd9 62bc 8d31 043d
00000290: 73b0 233d fb76 863d fe11 a03d b2f6 9c3a
000002a0: 796e 5a3d cb31 ae3d b744 ff3c 18dc 3fbd
000002b0: a61c 0d3d f835 62bd e498 58bd 5185 06bd
000002c0: e85a ce3c c842 303b 84ca 0e3d 7700 223d
000002d0: 6d05 833d 3dd3 72bd 6216 163d 55d5 773c
000002e0: f38e 2eba 9aa6 07bd 0e17 053c 443e 143d
000002f0: c231 0abc 247b 573d cf23 293d 7161 87bd
00000300: 5272 c2bc 25af 3ebd e672 90bc d1f0 a23b
00000310: 529e f73c cde6 a3bc ba25 7abc 50f2 a33d
00000320: a6c1 c83c fe3c 14bc 63b1 1bbd 1a75 37bd
00000330: 32e2 14bd 005f b23d 1942 293c 2175 21bd
00000340: c7ea 7c3d 3757 a53d 98a4 b3bd 3269 4e3d
00000350: 48f3 d83b 65a3 353d 257f 3dbd ae8c 9b3d
00000360: 28e6 49bd 527a 653d 55ac c9bc 19eb 883b
00000370: 3348 7a3d 8215 81bd 8b6e 993d 410d b13d
00000380: 30d0 febb 99c1 d73c d1a3 b2bd 3107 8c3d
00000390: 8f8d 91bd 66da af3d bf6c 753d 8fb7 85bd
000003a0: fd88 683d 1422 4d3d b198 a53d 1568 a53d
000003b0: dc1f 94bc efbb ad3d 864c 4e3c d986 a2bd
000003c0: bf6e a4bd ba87 7e3d 758e 123d cf17 123c
000003d0: 6cf7 33bd 5e1e 773b 4289 263d f65f c33b
000003e0: f969 713d 2fd0 733c 0e40 8c3a 7339 5abc
000003f0: e2a3 1c3d e034 1f3d b180 ca3c 07f7 0cbd

actor.bias f4 [4]
0.08138118 0.031776108 -0.105414584 -0.06538901
00000000: 2dab a63d aa27 023d 9ae3 d7bd acea 85bd

critic.weight f4 [1, 128]
-0.007018546 0.048919015 -0.030241659 -0.034303475 0.03780688 -0.04324711 0.041747425 -0.08566893
0.072816186 -0.014851718 0.046826772 0.017505653 0.03997503 -0.06700461 0.068959095 0.011956495
0.05440331 -0.024356589 0.023139149 0.085575394 0.04392055 0.053405803 -0.018475665 -0.06168378
-0.002833912 0.08046312 -0.069607586 -0.05337976 0.05172995 -0.032022156 0.000108453256 0.063074246
-0.0031901244 0.0115044825 0.05471068 0.041396797 0.010787875 0.054171603 -0.07241636 0.021794887
-0.067844406 -0.05416657 -0.040842257 0.012915561 -0.011684587 -0.012282759 0.0037953856 0.01591863
0.029872209 -0.045423787 0.08283857 0.083018936 0.026599878 -0.062464073 -0.02907632 0.07583984
-8.73146e-05 -7.576297e-05 0.063461795 0.022929369 -0.027287917 0.040100366 0.027354127 -0.035000853
-0.08278147 -0.067084834 -0.07197983 -0.07895214 -0.08392726 -0.06095957 0.059747305 0.087161705
-0.07357603 0.060234573 0.07403778 0.027868832 -0.04947775 -0.06190628 -0.0064624418 0.010983342
0.02142919 -0.03579156 -0.015452215 0.05401053 0.077435896 0.026797613 -0.025100756 0.015435145
0.08468861 -0.045739155 0.05934372 0.018667435 0.0461615 0.035651755 -0.04298236 0.04394007
0.053209227 -0.082239695 -0.03034545 -0.0069944467 -0.085976675 0.0010801816 0.084262684 0.004220596
0.057029102 -0.03886545 -0.078400806 0.042494632 -0.0658324 0.07523971 0.05711308 -0.06541506
0.0013665794 -0.022093786 0.058269233 -0.08400363 0.040332016 -0.02342881 0.015194307 0.02788063
-0.019328997 -0.0043536746 -0.004607894 -0.05158002 0.064842515 0.07804331 0.048746295 -0.07281319
00000000: d5fb e5bb 4e5f 483d 5bbd f7bc cd81 0cbd
00000010: 63db 1a3d e223 31bd 59ff 2a3d 3173 afbd
00000020: a720 953d 9f54 73bc 6ecd 3f3d 0468 8f3c
00000030: dbbc 233d b739 89bd 6d3a 8d3d 2de5 433c
00000040: 01d6 5e3d 7887 c7bc 508e bd3c 2742 af3d
00000050: 09e6 333d 0bc0 5a3d 475a 97bc 22a8 7cbd
00000060: 27b9 39bb d9c9 a43d 6c8e 8ebd bca4 5abd
00000070: c9e2 533d aa29 03bd 6671 e338 122d 813d
00000080: 6811 51bb 4c7d 3c3c 4e18 603d b08f 293d
00000090: a1bf 303c 0be3 5d3d 074f 94bd 318b b23c
000000a0: 02f2 8abd c4dd 5dbd 364a 27bd ca9b 533c
000000b0: b670 3fbc a03d 49bc 01bc 783b c967 823c
000000c0: 90b6 f43c 4b0e 3abd 45a7 a93d d505 aa3d
000000d0: fde7 d93c 54da 7fbd 7631 eebc eb51 9b3d
000000e0: ab1c b7b8 efe2 9eb8 42f8 813d 5fd6 bb3c
000000f0: e98a dfbc 4840 243d c315 e03c 0e5d 0fbd
00000100: 5589 a9bd c663 89bd 296a 93bd a9b1 a1bd
00000110: 0ee2 abbd beb0 79bd 97b9 743d d681 b23d
00000120: 08af 96bd 87b8 763d 1fa1 973d 2d4d e43c
00000130: 2ea9 4abd 7191 7dbd e4c2 d3bb 7af3 333c
00000140: 458c af3c 2c9a 12bd 4a2b 7dbc 253a 5d3d
00000150: b696 9e3d ab86 db3c 1aa0 cdbc b1e3 7c3c
00000160: 3971 ad3d fb58 3bbd 6712 733d 73ec 983c
00000170: d713 3d3d 9307 123d 450e 30bd 81fa 333d
00000180: ebf1 593d 496d a8bd 0597 f8bc ac31 e5bb
00000190: 8a14 b0bd e194 8d3a ea91 ac3d ed4c 8a3b
000001a0: 5997 693d 6131 1fbd 9a90 a0bd da0e 2e3d
000001b0: 23d3 86bd 4717 9a3d 68ef 693d 55f8 85bd
000001c0: cc1e b33a 07fe b4bc b8ab 6e3d 180a acbd
000001d0: 2f33 253d c7ed bfbc 8bf1 783c eb65 e43c
000001e0: d857 9ebc 45a9 8ebb d1fd 96bb 9245 53bd
000001f0: 27cc 843d 2cd5 9f3d 32aa 473d 151f 95bd
