code/models/ppo_trained_500ep_uncertainty.pt (torch, 75713 bytes, 7 tensors)

encoder.0.weight f4 [128, 5]
0	0xbd120003	-0.035644542
1	0x3d8026e3	0.06257417
2	0xbdd1d19d	-0.10245059
3	0xbe670ba1	-0.2256303
4	0x3e7685a9	0.24074425
5	0xbe8895d7	-0.2667682
6	0x3df99054	0.121857315
7	0x3e735bac	0.23765439
8	0xbbe5d281	-0.0070136194
9	0xbdd0ebb4	-0.10201207
10	0x3d671a2f	0.056421455
11	0x3d443bd0	0.047908604
12	0x3eb7bcf6	0.35886353
13	0xbe94b190	-0.2904172
14	0xbe1d7a00	-0.1537857
15	0x3da8ad36	0.08236162
16	0xbe92fdc8	-0.28709245
17	0xbe53f8b4	-0.20700341
18	0xbe747105	-0.23871239
19	0xbb9c6bf4	-0.004773611
20	0xbdb402f5	-0.087896265
21	0xbe70f9df	-0.23532818
22	0xbe9ee3df	-0.31033227
23	0xbd8c8913	-0.06862082
24	0x3e1f3e71	0.15551163
25	0x3dc91f72	0.09820451
26	0xbea80241	-0.3281422
27	0xbd8a1294	-0.06741825
28	0x3ded59ca	0.115893915
29	0x3e98046b	0.2969087
30	0xbea5b4c8	-0.32364488
31	0x3e55457e	0.2082729
32	0x3d81a354	0.063299805
33	0xbedfb2ff	-0.4369125
34	0x3e9de3a1	0.3083773
35	0xbeb0cff6	-0.34533662
36	0xbed96652	-0.42460877
37	0x3e551cb5	0.20811732
38	0x3e304ccd	0.17216797
39	0x3e43a2e2	0.19105104
40	0xbcc74518	-0.024324939
41	0xbe4c9292	-0.19977787
42	0xbc936c22	-0.017995898
43	0xbee3b51e	-0.4447412
44	0xbe977199	-0.29578856
45	0x3e5cb487	0.2155324
46	0xbebea026	-0.3723156
47	0xbee913e3	-0.45522985
48	0x3e635b73	0.22202854
49	0xbe94cf91	-0.2906461
50	0xbde333a6	-0.110938355
51	0xbe35d888	-0.17758381
52	0x3e438e15	0.19097169
53	0xbe3b4fd9	-0.18292178
54	0xbd382c38	-0.044964045
55	0xbcdc9322	-0.026925627
56	0x3de367df	0.11103796
57	0xbe0b4843	-0.13601784
58	0x3def204d	0.11676083
59	0xbe44cd90	-0.19219041
60	0x3ea982d0	0.33107615
61	0x3dba122e	0.09085499
62	0xbd671b9c	-0.056422815
63	0xbe59ced1	-0.212703
64	0xbdb58c6c	-0.08864674
65	0xbe85b651	-0.2611566
66	0xbe8ef7d5	-0.27923456
67	0xbd073446	-0.033008836
68	0x3c6ee3fb	0.014580722
69	0xbd390ed8	-0.04518017
70	0xbe5da187	-0.21643649
71	0xbe567451	-0.20942809
72	0xbe8a907e	-0.27063364
73	0xbed1966a	-0.4093507
74	0xbd88b745	-0.06675581
75	0x3e8775fa	0.26457196
76	0xbe92a84e	-0.2864403
77	0x3e970f57	0.2950389
78	0xbe7837a7	-0.2423998
79	0x3e7948d7	0.24344192
80	0x3ebed68d	0.37273064
81	0xbe1e1bd5	-0.15440305
82	0x3e56cb46	0.2097598
83	0x3d13add3	0.036054444
84	0xbcb17c4f	-0.02166572
85	0x3ea64056	0.3247096
86	0x3e580e4a	0.21099201
87	0x3d8692ba	0.065709546
88	0xbd0d8156	-0.034547172
89	0xbe7edb14	-0.24888259
90	0xbe4e755f	-0.20161961
91	0x3eddc4fb	0.43314347
92	0x3ed02d2d	0.40659466
93	0x3ed793bd	0.42104903
94	0xbedaef2f	-0.42760608
95	0xbed0f829	-0.4081433
96	0x3cac28f0	0.021015614
97	0xbed62057	-0.41821548
98	0x3da692e1	0.08133484
99	0x3eb7d302	0.35903174
100	0xbdf3bae2	-0.119008794
101	0x3e89e978	0.26935935
102	0xbd52c486	-0.05145695
103	0x3ec6c151	0.38819364
104	0x3e230280	0.15918922
105	0xbe25750d	-0.16157933
106	0x3e0a23d9	0.13490237
107	0x3e8c5fb7	0.27416775
108	0xbe5e6719	-0.21719016
109	0xbecbb615	-0.39787355
110	0xbcb453d4	-0.022012629
111	0x3e839aef	0.25704142
112	0xbd0e63cd	-0.034763146
113	0xbe13b398	-0.14423978
114	0xbe89a5e2	-0.2688437
115	0xbece3893	-0.40277538
116	0xbeba8679	-0.3643072
117	0x3e9c001c	0.30468833
118	0x3ee2c6a7	0.44292185
119	0x3e9879f3	0.2978054
120	0xbede97e1	-0.4347525
121	0xbe942b55	-0.2893931
122	0xbe9ea69b	-0.30986485
123	0x3ebd77fb	0.370056
124	0x3e873cb7	0.2641351
125	0x3ed24a4a	0.41072303
126	0x3e9be206	0.3044588
127	0xbd63507a	-0.05549667
128	0x3ebd42de	0.36965078
129	0x3def1491	0.116738446
130	0x3ea1ac20	0.31576633
131	0xbebf82c6	-0.3740446
132	0x3dd62d1b	0.10457822
133	0x3e462164	0.19348675
134	0xbd9a9ed0	-0.07549822
135	0xbedbaeb3	-0.42906722
136	0x3e2a5b7a	0.16636458
137	0xbe71c70d	-0.23611088
138	0xbe1bfa73	-0.15232258
139	0x3e5e56e6	0.21712837
140	0x3e35c5ef	0.17751287
141	0x3d84c348	0.064825594
142	0x3cb4b9f4	0.022061326
143	0xbe878df0	-0.26475477
144	0xbdf11def	-0.117732875
145	0x3e892af1	0.26790574
146	0x3d628b37	0.055308547
147	0xbe54f1da	-0.20795384
148	0x3ed71237	0.42006084
149	0x3eba91e5	0.36439434
150	0xbe7cf5ae	-0.24703094
151	0x3e3f0c4a	0.18657032
152	0x3e416baf	0.18888734
153	0xbe513708	-0.20431149
154	0x3e16f365	0.14741285
155	0xbe67409f	-0.22583245
156	0xbdaba29c	-0.08380625
157	0xbe2b12df	-0.16706418
158	0xbe8ead9e	-0.27866834
159	0x3c7b9e29	0.015357533
160	0x3eb46ad6	0.3523776
161	0xbe982981	-0.29719165
162	0x3d9e9662	0.07743527
163	0xbeb678d7	-0.35639068
164	0x3e45ebf0	0.19328284
165	0xbddae693	-0.1068851
166	0xbe8213be	-0.25405687
167	0x3e2d3b19	0.16917075
168	0x3da9cdbf	0.08291196
169	0xbd33818b	-0.043824714
170	0x3ec0d791	0.37664464
171	0xbe47e16e	-0.19519588
172	0x3e813820	0.25238132
173	0xbe350e26	-0.17681178
174	0x3e8cd31c	0.27504814
175	0x3e888e9a	0.26671296
176	0xbe2af45d	-0.1669478
177	0xbe28caa8	-0.16483557
178	0x3e64ca20	0.2234273
179	0xbe7b57b6	-0.24545178
180	0x3dc3ac1f	0.09554314
181	0x3de56616	0.11201112
182	0x3e736297	0.23768078
183	0x3e95a4f2	0.29227406
184	0xbe541e8c	-0.20714778
185	0xbd2ec1d5	-0.04266532
186	0x3d96a369	0.07355387
187	0xbd7a3b4b	-0.061091702
188	0x3e54c796	0.20779261
189	0x3ecb153a	0.39664632
190	0x3d9d7244	0.0768781
191	0xbcb1556a	-0.021647174
192	0xbcf78ba3	-0.030217951
193	0x3d989c25	0.07451657
194	0xbec7240a	-0.38894683
195	0xbe77a156	-0.24182639
196	0xbe89ff26	-0.26952475
197	0xbc21f4ba	-0.0098850075
198	0xbe67c96b	-0.22635429
199	0x3eb0bb12	0.34517723
200	0xbe7ba4dd	-0.24574609
201	0x3e6934eb	0.22774093
202	0xbee11731	-0.43963006
203	0x3e9751c0	0.29554558
204	0xbdc954b3	-0.09830608
205	0x3d73ec47	0.059551504
206	0x3e174068	0.14770663
207	0x3ca1b971	0.019741746
208	0xbcd1b0ff	-0.025597094
209	0x3e9ed1cb	0.31019434
210	0x3e38f90a	0.18063751
211	0xbe137e75	-0.14403708
212	0xbd63c113	-0.05560405
213	0x3ea4cf42	0.32189375
214	0xbeb6325c	-0.35585296
215	0xbdc1e757	-0.09467953
216	0xbe876003	-0.2644044
217	0x3e39be84	0.18139082
218	0x3d6c2296	0.05765017
219	0xbea1f173	-0.31629524
220	0xbd9ce88b	-0.076615416
221	0x3ec89e04	0.39183056
222	0xbe554389	-0.20826544
223	0xbe3adc00	-0.18247986
224	0xbe62273c	-0.22085279
225	0x3dc91df8	0.09820169
226	0xbe53de71	-0.20690323
227	0x3ea86661	0.3289061
228	0x3e337f10	0.17528939
229	0x3e6c2896	0.23062357
230	0x3ecbe075	0.39819685
231	0xbe85365d	-0.26018038
232	0x3e4c4c8c	0.19951075
233	0x3eb1af42	0.34704024
234	0xbedfeed1	-0.4373689
235	0xbe87ec7c	-0.2654761
236	0x3ec57c3c	0.38571346
237	0x3e342f0c	0.17596072
238	0xbeac1eed	-0.33617344
239	0x3e9deefe	0.308464
240	0x3e9f6d87	0.3113825
241	0x3e27e53d	0.16396041
242	0xbd8ff303	-0.07028773
243	0xbd10bf9a	-0.035338975
244	0x3d69c90d	0.057076503
245	0x3e4b511a	0.19855157
246	0xbecbd677	-0.3981206
247	0xbeca4a45	-0.39509788
248	0x3e5923f8	0.21205127
249	0xbdc76beb	-0.097373806
250	0xbed96ee9	-0.4246743
251	0xbdfe3ebc	-0.124143094
252	0xbdd45309	-0.103674
253	0x3e4d5792	0.20052937
254	0xbea6445c	-0.3247403
255	0xbee0dfc4	-0.4392072

encoder.0.bias f4 [128]
0	0xbe066210	-0.13123345
1	0xbe94c850	-0.29059076
2	0x3e77ec50	0.2421124
3	0xbe74ec4c	-0.23918265
4	0x3ec73022	0.3890391
5	0xbe990016	-0.29882878
6	0x3ebd1a48	0.36934114
7	0x3e73152f	0.2373855
8	0x3e85bc9b	0.26120457
9	0x3ebb7e97	0.36620018
10	0x3e9bb510	0.30411577
11	0x3e42645e	0.189836
12	0xbee520cb	-0.44751582
13	0x3ed5eb43	0.41781053
14	0x3ea947ea	0.3306268
15	0x3edd88fd	0.43268576
16	0x3cccb078	0.02498649
17	0xbe6f2562	-0.23354104
18	0xbe03239e	-0.12806556
19	0xbedb7f3c	-0.4287051
20	0x3ecea98a	0.40363723
21	0x3ed8e7a5	0.4236423
22	0xbd34bbff	-0.0441246
23	0x3e80748d	0.2508892
24	0xbed76a32	-0.42073208
25	0xbeb05d3c	-0.34446132
26	0xbeca917a	-0.39564115
27	0xbee0ca87	-0.43904516
28	0xbed944b8	-0.4243524
29	0x3e9f8c53	0.31161746
30	0x3dae584d	0.08512936
31	0xbeac056f	-0.33597896
32	0x3e32bb4c	0.1745426
33	0x3cd8cadf	0.026463924
34	0x3d5eb5dc	0.054372653
35	0xbe840bdf	-0.25790307
36	0xbdbf7b4f	-0.09349691
37	0x3e5d3880	0.21603584
38	0x3ebc21b5	0.36744466
39	0x3cb2bdc7	0.021819009
40	0x3ead7a13	0.33882198
41	0xbe8a61ec	-0.27027833
42	0x3e69fa49	0.22849382
43	0xbed9b17e	-0.42518228
44	0xbe1e2edc	-0.15447563
45	0x3ce5b519	0.028040456
46	0x3e58a9ae	0.21158478
47	0x3d5ae020	0.0534364
48	0x3ec130a2	0.37732416
49	0x3ea726f5	0.3264691
50	0x3ee978e6	0.4560005
51	0xbeb955f8	-0.361984
52	0x3ec76d01	0.3895035
53	0xbe3c59da	-0.1839365
54	0x3e118435	0.14210589
55	0x3c95cde6	0.018286657
56	0xbe744a2e	-0.23856422
57	0xbe2c51e6	-0.16828117
58	0xbee0314f	-0.4378762
59	0xbdbd5a75	-0.09245769
60	0xbe42df7e	-0.19030568
61	0x3e5ac59f	0.21364449
62	0x3e93704e	0.2879662
63	0xbe815762	-0.2526198
64	0x3bea91ab	0.0071584783
65	0xbeaa6f58	-0.33288074
66	0x3d4f15b5	0.05055781
67	0x3ed6005e	0.41797155
68	0x3ec24a39	0.37947252
69	0xbe10deda	-0.14147511
70	0x3e85fd0a	0.26169616
71	0x3eab8236	0.3349778
72	0xbca256dc	-0.019816808
73	0x3eacd15c	0.3375348
74	0xbdc9c223	-0.09851482
75	0x3e73bbd6	0.23802122
76	0xbcafa2c8	-0.021439925
77	0xbe0efd10	-0.13963723
78	0x3e8e1441	0.27749828
79	0xbd0959df	-0.033532973
80	0x3bdbc8d9	0.0067072925
81	0xbea18569	-0.31547096
82	0x3e70a187	0.23499118
83	0xbea45439	-0.32095507
84	0xbed05e4d	-0.40696946
85	0x3ec3fbb1	0.38277963
86	0x3de36e5f	0.11105036
87	0xbe538ed0	-0.20659947
88	0xbe04ca1e	-0.12967727
89	0xbede9392	-0.43471962
90	0xbee84b24	-0.45369828
91	0x3d936c8d	0.07198439
92	0x3e645aa3	0.223002
93	0x3ecf5604	0.40495312
94	0xbe96832a	-0.29396945
95	0x3eb26cd8	0.34848666
96	0x3eae3cce	0.34030765
97	0x3c40b0ef	0.011760934
98	0x3ec25ff2	0.37963825
99	0x3e23ee82	0.16008952
100	0x3ecdb260	0.40175152
101	0x3d0ae25e	0.033907287
102	0x3e40ccd7	0.1882814
103	0xbe5930ae	-0.21209976
104	0x3e91837d	0.2842063
105	0x3e5f0065	0.21777494
106	0x3e880db2	0.2657295
107	0xbd0aa496	-0.033848368
108	0x3e7af422	0.24507192
109	0xbd227a65	-0.039667506
110	0xbde70372	-0.11279954
111	0x3e351dd8	0.17687166
112	0xbd5d6a16	-0.05405625
113	0xbeb3563d	-0.35026732
114	0xbe6fee87	-0.23430835
115	0x3ea758ab	0.32684836
116	0xbe9fcdab	-0.312116
117	0xbeabd0bb	-0.33557686
118	0xbe140a5f	-0.14457081
119	0xbe670359	-0.22559871
120	0xbecd2684	-0.40068448
121	0xbe985ee8	-0.29759908
122	0xbe838780	-0.25689316
123	0x3ee3c72b	0.4448789
124	0x3ec33c4b	0.38131937
125	0xbedc21bd	-0.4299449
126	0x3eb983c6	0.36233348
127	0x3e2934ad	0.16524

encoder.2.weight f4 [128, 128]
0	0x3d63d09e	0.055618875
1	0xbd91177f	-0.0708456
2	0x3b4fd97f	0.003171533
3	0x3cf73526	0.03017671
4	0x3b6f47f4	0.0036511393
5	0x3d8ac2ed	0.067754604
6	0x3d969d84	0.073542625
7	0x3c0f0d8c	0.008731257
8	0xbdb1011d	-0.086427905
9	0xbcae0ec6	-0.021247279
10	0xbda33326	-0.0796874
11	0xbd8370fc	-0.064180344
12	0xbcc3fde2	-0.023924772
13	0xbd55830b	-0.052126925
14	0xbd21b3a5	-0.039477963
15	0x3d0246e4	0.031805888
16	0xbd890eee	-0.06692301
17	0x3c8f5877	0.017498238
18	0xbdb1021e	-0.08642982
19	0xbc8ce902	-0.01720095
20	0x3d28bd21	0.041195992
21	0x3dae1256	0.08499591
22	0x3d55e570	0.05222076
23	0xbbc8eca0	-0.0061317235
24	0xba54753d	-0.0008104628
25	0xbd77b520	-0.06047547
26	0x3d4368d2	0.047707386
27	0x3c71e1e5	0.01476333
28	0xbd2fed9d	-0.042951215
29	0x3dac7bc3	0.08422043
30	0xbdb46ac3	-0.08809426
31	0xbc131c76	-0.008978954
32	0xbc1a3c18	-0.0094137415
33	0x3d7b8774	0.061408475
34	0x3d1c1ef4	0.038115457
35	0xbc809637	-0.015696628
36	0x3aa41de0	0.001252111
37	0x3d81f109	0.06344802
38	0xbd95cf86	-0.073149726
39	0xbd73bc7b	-0.05950592
40	0xbd0ab361	-0.033862475
41	0xbbf443ac	-0.007454356
42	0xbd7c97c4	-0.061668172
43	0x3d46b66c	0.048513815
44	0x3d5037a6	0.05083432
45	0x3bbe4f0d	0.0058077634
46	0x3d8e0a8d	0.06935606
47	0xbd84fa03	-0.064929985
48	0x3cd86b20	0.026418269
49	0xbba22ae2	-0.0049489597
50	0xbd4ceee4	-0.05003251
51	0x3d35abdf	0.044353362
52	0x3d41b6f1	0.047293607
53	0x3d981f9f	0.07427906
54	0x3cf01d80	0.029310942
55	0xbc7c049b	-0.015381957
56	0x3d37bc09	0.04485706
57	0xbdc22943	-0.09480526
58	0x3db362da	0.08759089
59	0xbc44ac65	-0.012003993
60	0xbd89ca86	-0.067280814
61	0xbb99e923	-0.0046969815
62	0xbd9098ee	-0.07060419
63	0xbc5546f2	-0.013017403
64	0xbda2c8dd	-0.07948468
65	0x39ba2282	0.00035502395
66	0xbd05ae0e	-0.032636695
67	0xbc9bce33	-0.019019222
68	0xbd85b271	-0.065281756
69	0xbd833996	-0.06407468
70	0x3c60cb7d	0.01372039
71	0xbca9750b	-0.020685693
72	0x3c842293	0.016129768
73	0x3ce6f757	0.028194113
74	0x3d876299	0.06610603
75	0xbda6b665	-0.08140258
76	0xbd0cacc5	-0.034344453
77	0xbd439b93	-0.04775579
78	0x3d633850	0.055473626
79	0x3d8adab4	0.067799956
80	0x3d890f95	0.06692425
81	0x3d6e008a	0.058105983
82	0xbcdd8498	-0.027040765
83	0x3da1749d	0.0788357
84	0xbd735bc0	-0.05941367
85	0xbdb045c8	-0.0860706
86	0x3d77a53b	0.06046031
87	0xbd94f998	-0.07274169
88	0x3db404f0	0.08790004
89	0xbdb8dd3c	-0.09026572
90	0xbd2d5c0a	-0.042324103
91	0xbb32e762	-0.002729856
92	0xbdb2ab1c	-0.08724043
93	0x3d0fa9a1	0.03507388
94	0x3d92001c	0.07128927
95	0xbd4db2c7	-0.050219323
96	0x3d7677d6	0.06017288
97	0xbd769bfd	-0.060207356
98	0xbda656de	-0.08122037
99	0x3c47713f	0.012172996
100	0x3d2e6a4e	0.04258185
101	0x3d97731a	0.07395001
102	0x3dab3a1e	0.08360694
103	0x3cb138e6	0.021633577
104	0xbd270a56	-0.04078134
105	0x3c28e880	0.010309339
106	0xbcf797cc	-0.03022375
107	0x3d9985f2	0.07496251
108	0x3cde7026	0.027153086
109	0x3d8d8946	0.069109485
110	0x3c9dbae5	0.019254157
111	0x3ce7fa8a	0.028317709
112	0xbc7c63cb	-0.015404652
113	0xbc8e4d5e	-0.017370876
114	0xbcaa5b57	-0.020795507
115	0xbd83cae0	-0.0643518
116	0xbb846639	-0.004040506
117	0x3c484e2d	0.01222567
118	0x3d69ccd5	0.05708011
119	0x3d0a2b9d	0.033733
120	0xbd1c9645	-0.038229246
121	0xbd5c955a	-0.05385337
122	0x3ccc5724	0.024943896
123	0x3d9b80ab	0.07592901
124	0x3bf4a482	0.0074659
125	0x3d3a4e0d	0.04548459
126	0x3d9345a2	0.07191016
127	0x3cddcd03	0.027075296
128	0xbd1b4c8a	-0.03791479
129	0x3d32c069	0.043640528
130	0xbd956166	-0.07293968
131	0x3bc71d35	0.00607648
132	0x3d8292cc	0.063756555
133	0x3b974345	0.0046161734
134	0x3d4e32ef	0.050341543
135	0x3d0a0bf1	0.033702794
136	0xbd94ebd2	-0.07271542
137	0x3d933228	0.07187301
138	0x3b20e8ae	0.002455275
139	0xbcfef362	-0.031121913
140	0xbd235635	-0.039877135
141	0xbc7cf20e	-0.01543857
142	0xbca11f92	-0.019668374
143	0x3d5ba437	0.053623404
144	0xbd9f9942	-0.077929035
145	0xbca9eb29	-0.020742016
146	0xbcb8c8fe	-0.022556778
147	0x3d5667e3	0.052345168
148	0x3d863173	0.065524004
149	0xbc08bfd9	-0.008346521
150	0xbcec7a79	-0.028866993
151	0x3d9c9077	0.07644742
152	0xbd3e219f	-0.046418782
153	0x3d43e847	0.04782894
154	0x3bc86f13	0.0061167567
155	0xbd1cd765	-0.038291354
156	0x3d9e34da	0.077249244
157	0xbcf8e598	-0.030382916
158	0x3d9f266a	0.07770999
159	0x3d7cda68	0.061731726
160	0x3c4e73a5	0.012600814
161	0xbd8825d3	-0.066478394
162	0xbcdc5666	-0.026896667
163	0x3caf882d	0.021427238
164	0xbb8a91d1	-0.0042288085
165	0x3d7e0de4	0.062024966
166	0x3d214164	0.039369002
167	0xbc3be7db	-0.011468853
168	0x3d829402	0.063758865
169	0xbc2f9aa2	-0.01071802
170	0xbc2ff264	-0.010738943
171	0x3d9add5f	0.075617544
172	0xb9836493	-0.000250612
173	0xbdc4ffb9	-0.09619088
174	0xbd9a3b0a	-0.07530792
175	0xbd49c5bc	-0.04926084
176	0x3cba777e	0.022762056
177	0x3db5f338	0.08884281
178	0x3d8be15c	0.06830093
179	0xbd73e4d1	-0.05954439
180	0xbd9b416a	-0.07580836
181	0x3da3c7b5	0.079970755
182	0xbd48a88e	-0.04898887
183	0xbcefee07	-0.029288305
184	0x3d6a6b6c	0.05723135
185	0xbd0cf890	-0.034416735
186	0xbd8a6e2a	-0.067592934
187	0xbc74710b	-0.01491953
188	0x3d0bc2de	0.034121387
189	0xbd92a1f3	-0.071597956
190	0x3a9c1750	0.0011908803
191	0x3d8e8b72	0.06960191
192	0xbd2dcc1e	-0.04243099
193	0xbd67eef6	-0.056624375
194	0x3cd2bb68	0.025724128
195	0xba0f8bae	-0.0005475831
196	0xbda12c50	-0.0786978
197	0x3c64a2ec	0.013954859
198	0xbc857757	-0.016292257
199	0x3d723e90	0.059141695
200	0xbc08f16f	-0.0083583435
201	0x3da9b4c4	0.082864314
202	0xbb05e785	-0.0020432186
203	0xbc9d942a	-0.01923569
204	0x3dad2a8c	0.08455381
205	0xbcb7423b	-0.022370448
206	0x3cf5a98c	0.029988073
207	0xbdb397cf	-0.087691896
208	0x3d9259e5	0.07146052
209	0xbd24b20e	-0.04020887
210	0x3d18161f	0.03713047
211	0x3bd46f39	0.0064829853
212	0x3d430365	0.04761066
213	0xbcfe2c22	-0.031026904
214	0xbde41701	-0.111372
215	0x3a8536a7	0.0010163382
216	0xbcdaf13d	-0.02672636
217	0x3d3f1748	0.046653062
218	0x3c8eacb9	0.017416345
219	0xbdac497e	-0.08412455
220	0x3ca83983	0.020535236
221	0x3dba37c1	0.090926655
222	0xbd9ab52c	-0.07554087
223	0x3cd0c2bd	0.025483483
224	0x3da095e7	0.078410916
225	0xbd154b98	-0.036449045
226	0x3c8a5535	0.016886333
227	0x3d9ecef0	0.07754314
228	0x3d9987ff	0.07496642
229	0x3d35fd59	0.044431064
230	0x3d868407	0.06568151
231	0x3d49b6dc	0.049246654
232	0x3d1cb8a6	0.038262032
233	0x3d900bff	0.07033538
234	0x3cb7d08a	0.022438306
235	0xbbace5cf	-0.0052764188
236	0x3dba5eb8	0.091000974
237	0x3da820ac	0.08209357
238	0xbd3f53ce	-0.04671078
239	0x3b6cfa83	0.0036160059
240	0xbd0ce0f1	-0.03439421
241	0x3cee0176	0.029053431
242	0x3c93b98e	0.018032815
243	0x3d83e5ba	0.06440301
244	0x3d9a1601	0.07523728
245	0x3d3e7897	0.046501722
246	0x3ca25493	0.019815719
247	0xbc987fe0	-0.018615663
248	0x3da91ba1	0.08257223
249	0x3ce053ee	0.02738377
250	0xbdb0daf2	-0.086355105
251	0x3d1dbea8	0.038511902
252	0xbca4c349	-0.02011265
253	0x3da4ecd0	0.08052981
254	0xbc2599b0	-0.010107443
255	0x3d428952	0.04749424

encoder.2.bias f4 [128]
0	0x3d047a06	0.032342933
1	0x3b4d6b2c	0.0031344397
2	0x3be21ea4	0.0069006253
3	0xbd08eb37	-0.033427443
4	0x3d20bd4c	0.039243028
5	0xbd8719ee	-0.065967426
6	0x3cc5c0b9	0.024139749
7	0x3d8c3523	0.068460725
8	0x3c6c1fc7	0.014411873
9	0xbd652ccb	-0.05595092
10	0xbc9ea8e3	-0.01936764
11	0x3d62b265	0.05534591
12	0x3dd31021	0.10305811
13	0x3dd2fffe	0.10302733
14	0xbd880c20	-0.06642938
15	0x3d02abff	0.03190231
16	0x3d227ba9	0.039668713
17	0xbd92772b	-0.07151636
18	0xbd1fe936	-0.039040767
19	0xbc315d01	-0.0108253965
20	0x3d435821	0.04769147
21	0x3c343f66	0.0110014435
22	0xbb3ab827	-0.002849111
23	0x3da81178	0.08206457
24	0x3d0e3792	0.034720965
25	0x3d8bc3b3	0.06824436
26	0xbaa86414	-0.0012847208
27	0x3d82eab7	0.063924246
28	0xbd9f670e	-0.07783328
29	0xbd913765	-0.07090644
30	0xbd9c5962	-0.07634236
31	0xbdcf1969	-0.101122685
32	0x3d036dc7	0.032087114
33	0x3c871a41	0.016492011
34	0x3cd0cde7	0.025488807
35	0x3d850454	0.06494966
36	0x3d6bfe47	0.057615545
37	0xbc74d80a	-0.014944086
38	0x3b3b19e2	0.0028549363
39	0x3d4f1cc9	0.05056456
40	0xbbddf5fd	-0.006773709
41	0x3d5801d5	0.052736122
42	0xbcc5e09a	-0.02415495
43	0xbab91db3	-0.0014123231
44	0x3b339352	0.0027401042
45	0x3d27c23e	0.04095673
46	0x3d5afbc4	0.05346276
47	0x3a1232bc	0.0005577018
48	0xbbddb3c4	-0.0067658145
49	0x3d309654	0.043112114
50	0xbca6c3bd	-0.020357007
51	0xbcd849b0	-0.026402324
52	0xbd6fe1d0	-0.05856496
53	0x3d3750dd	0.04475485
54	0x3c920d04	0.017828472
55	0x3dad99b9	0.08476586
56	0x3d9b0032	0.07568397
57	0xbca0e188	-0.019638792
58	0xbb692872	-0.0035577086
59	0xbd80c2e3	-0.06287172
60	0xbcecd293	-0.028909003
61	0xbd6859e3	-0.056726348
62	0xba26fcfe	-0.0006370096
63	0x3d38786a	0.04503671
64	0xbdb84800	-0.08998108
65	0xbcefe72f	-0.029285042
66	0x3c1c51bb	0.00954097
67	0x3cf7461a	0.030184794
68	0xbab8fb09	-0.00141129
69	0xbaaeb0f8	-0.0013327887
70	0x3cdf60a1	0.027267756
71	0xbd306979	-0.043069337
72	0x3be77763	0.0070637926
73	0x3d8264eb	0.06366905
74	0xbd2c8db1	-0.042127315
75	0xbbeaaca3	-0.007161693
76	0xbda5c4ad	-0.080941536
77	0x3d53a84e	0.05167418
78	0x3b8f6040	0.0043754876
79	0xbda7f157	-0.08200329
80	0x3d21690c	0.03940682
81	0x3c516203	0.0127797155
82	0xbda0d1fa	-0.0785255
83	0x3d8f716d	0.07004056
84	0xbcb45c10	-0.022016555
85	0xbc33f72b	-0.010984222
86	0xbd26ab25	-0.04069056
87	0xbd9da52a	-0.07697518
88	0xbc8d8b9c	-0.017278485
89	0xbcada52c	-0.021196924
90	0xbb621a7d	-0.0034500652
91	0x3d029008	0.03187564
92	0xbd104c85	-0.035229225
93	0xbd4b3236	-0.04960843
94	0x3db137af	0.08653199
95	0xbda2967d	-0.079388596
96	0xbdb0f17c	-0.086398095
97	0xbdb09c6c	-0.08623585
98	0xbd8592b6	-0.065221235
99	0xb9bfefc7	-0.00036609007
100	0xbd57f4dd	-0.052723754
101	0x3d2c20d5	0.0420235
102	0x3dba042e	0.090828285
103	0x3daf0236	0.085453436
104	0x3d2df744	0.04247214
105	0xbc24b855	-0.010053714
106	0xbd806aa5	-0.06270341
107	0xbd6ab1d5	-0.0572985
108	0x3d344301	0.044009212
109	0xbd7d760a	-0.06188015
110	0xbd8218ee	-0.06352411
111	0x3c5842ca	0.0131995175
112	0x3ce6d3ad	0.028177107
113	0x3d63a7ce	0.055579953
114	0xbd8e5f5b	-0.06951781
115	0x3d8c241b	0.06842824
116	0xbdd29b19	-0.10283489
117	0x3d9631f7	0.07333749
118	0xbcae008e	-0.021240499
119	0x3d3e6999	0.046487425
120	0xbd8f0150	-0.06982672
121	0xbdd4f0f5	-0.103975214
122	0x3aa269f4	0.0012391196
123	0xbd9b449a	-0.07581444
124	0x3d46644c	0.048435494
125	0x3c060412	0.008179681
126	0x3d183940	0.037163973
127	0x3d3a1f3b	0.04543994

actor.weight f4 [4, 128]
0	0xbccb341a	-0.024805117
1	0x3d99c65e	0.07508539
2	0x3d88ad00	0.06673622
3	0x3c9d234e	0.019181874
4	0xbd4dfa19	-0.05028734
5	0xbd1138be	-0.035454504
6	0xbd81e30f	-0.06342136
7	0xbb417e16	-0.0029524616
8	0xbc96bd02	-0.018400673
9	0x3d663f09	0.05621246
10	0x3d8d953e	0.06913231
11	0x3cc10d47	0.023565901
12	0x3da5e8a3	0.081010126
13	0x3d91e45c	0.07123634
14	0x3d41a772	0.04727883
15	0x3d9fe11b	0.07806607
16	0x3dc39a41	0.09550906
17	0xbd3bcc9b	-0.045849424
18	0xbd983192	-0.0743133
19	0xbd95521a	-0.0729105
20	0x3d8522c3	0.06500771
21	0xbc130319	-0.0089729065
22	0xbc456d55	-0.012049993
23	0xbc9e5b51	-0.019330652
24	0x3d2776cd	0.04088478
25	0xbd53cedd	-0.051710952
26	0x3c02f4bc	0.00799292
27	0xbc4ed2df	-0.012623518
28	0x3d8e46bb	0.069470845
29	0xbcc282e3	-0.023744052
30	0x3d23b4f8	0.039967507
31	0x3d06e797	0.032935705
32	0x3d38d663	0.04512633
33	0x3db6dbb8	0.08928627
34	0x3d2eeb34	0.042704776
35	0xbd5e14a8	-0.054218918
36	0xbd88c5a9	-0.06678326
37	0x3d5f3417	0.054493036
38	0x3dacf433	0.08445015
39	0x3c8b81f5	0.017029742
40	0x3d774531	0.06036872
41	0x3d116089	0.035492454
42	0xbcfd140c	-0.030893348
43	0xbc7c3bdd	-0.015395132
44	0xbd06195f	-0.03273904
45	0x3da10ad1	0.07863391
46	0x3dab6eef	0.08370768
47	0xbda0f9c0	-0.07860136
48	0xbd4de70e	-0.05026918
49	0x3c808d01	0.015692236
50	0x3c69a008	0.014259346
51	0xbd02034b	-0.03174142
52	0xbd6516b2	-0.055929847
53	0xbd827f95	-0.063719906
54	0x3c3eec29	0.011652985
55	0xbd704d00	-0.058667183
56	0x3d58cac5	0.05292775
57	0xbd256ea0	-0.040388703
58	0x3cf4a663	0.029864496
59	0x3d961a61	0.0732925
60	0x3d1dcc23	0.038524758
61	0xbcb93ae7	-0.022611095
62	0xbd9c3568	-0.07627374
63	0x3d9cf575	0.07664005
64	0xbd709995	-0.058740217
65	0x3d6b13c9	0.057391915
66	0xbdab1542	-0.08353664
67	0xbd98559f	-0.07438206
68	0x3b6ad6b5	0.0035833542
69	0xbb3cfa56	-0.0028835735
70	0xbaefd671	-0.0018298161
71	0xbb4eb981	-0.0031543674
72	0xbd774e81	-0.0603776
73	0x3da69975	0.08134738
74	0xbd6a586c	-0.057213232
75	0x3cd5909d	0.026069934
76	0x3d429422	0.04750455
77	0xbc9247ac	-0.017856441
78	0x3dc4d678	0.09611219
79	0x3a40fc23	0.000736179
80	0xbce84185	-0.028351555
81	0xbda3f666	-0.08005981
82	0xbd724556	-0.059148155
83	0x3d31480b	0.043281596
84	0xbc9e998a	-0.019360323
85	0xbd60d707	-0.054892566
86	0x3da7af2c	0.08187708
87	0xbdab0959	-0.08351392
88	0x3dba0a40	0.09083986
89	0x3c8cd831	0.017192932
90	0x3da0abe5	0.07845286
91	0xbcf32b33	-0.029683685
92	0x3d121530	0.035664737
93	0xbd6d7ffe	-0.05798339
94	0xbd87be22	-0.06628062
95	0x3d911c83	0.07085516
96	0xbd3f9386	-0.04677155
97	0x3c9669e2	0.018361036
98	0xbc6b19ff	-0.01434946
99	0xbda99855	-0.08281008
100	0xbcad8660	-0.021182239
101	0xbd5b7103	-0.053574573
102	0x3d56b296	0.052416407
103	0xbd905e3e	-0.07049225
104	0xbcc678a0	-0.02422744
105	0x3cc0aba9	0.023519354
106	0xbd9b1940	-0.075731754
107	0xbd956a3e	-0.07295655
108	0xbd8f20d9	-0.06988687
109	0x3da09ada	0.078420356
110	0xbd01e3a2	-0.03171123
111	0xbced6ab4	-0.028981544
112	0xba7310b0	-0.0009272201
113	0x3c129f03	0.008949044
114	0x3d03186c	0.032005712
115	0xbd44c6b0	-0.048041046
116	0xbd5c11ae	-0.0537278
117	0x3db9d9c3	0.09074738
118	0xbd21c3a5	-0.03949322
119	0xbc017174	-0.0079005845
120	0xbd8e6a45	-0.06953863
121	0xbcd521f6	-0.02601717
122	0xbd6f367e	-0.058401577
123	0xbcdb3dcf	-0.026762871
124	0xbb75e029	-0.0037517643
125	0xbd0a1708	-0.03371337
126	0x3d9d6973	0.076861285
127	0x3dc2c075	0.095093645
128	0xbd9e7f18	-0.07739085
129	0x3d27d3c1	0.04097343
130	0x3cab7393	0.020929134
131	0x3d9d99cd	0.07695351
132	0x3dc4d208	0.09610373
133	0xbdab128b	-0.08353146
134	0x3d301b55	0.042994816
135	0x3d9cf5ae	0.07664047
136	0xbccbb38e	-0.024865892
137	0xbd14dfc5	-0.036346216
138	0x3d9cc311	0.076543935
139	0x3cb20821	0.021732392
140	0x3cf751e0	0.030190408
141	0x3b72e170	0.003706064
142	0x3d656f24	0.056014195
143	0xbc397a11	-0.011320607
144	0x3d0f8e4c	0.035047814
145	0xbc7c25bc	-0.015389856
146	0xbcb4e28f	-0.022080688
147	0x3d8f22e2	0.06989075
148	0x3d4b4214	0.049623564
149	0xbd7a356f	-0.061086114
150	0xbbe30ced	-0.006929031
151	0xbd8722ac	-0.0659841
152	0xbc476c36	-0.012171796
153	0xbd85d351	-0.06534446
154	0x3cdd7990	0.027035505
155	0x3c49c5f3	0.012315261
156	0xbd10775c	-0.03527008
157	0xbb977a2d	-0.004622719
158	0x3d9cc7ef	0.07655322
159	0xbd64269e	-0.05570089
160	0xbc464ee9	-0.012103775
161	0x3d4595b2	0.048238464
162	0x3db3955e	0.08768724
163	0xbb44865d	-0.0029987313
164	0xbd903245	-0.07040838
165	0xbcfe9cf5	-0.031080702
166	0x3dc0a686	0.09406762
167	0xbc34bdf3	-0.011031616
168	0xbd8bf4da	-0.06833811
169	0x3c78f2fd	0.015194652
170	0x3d8662f4	0.065618426
171	0x3d9ce197	0.07660215
172	0xbdaeec1f	-0.0854113
173	0xbd75c8d1	-0.060005967
174	0x3d9322fe	0.071844086
175	0xba6cfb36	-0.0009040119
176	0x3cf5b311	0.029992612
177	0xbd040e77	-0.032240357
178	0xbd59fff3	-0.053222608
179	0xbc3a6281	-0.011376024
180	0xbd3f5a9e	-0.04671728
181	0x3c75768f	0.01498188
182	0xbc8e6ed2	-0.017386828
183	0xbd911710	-0.07084477
184	0xbd6a2c61	-0.05717123
185	0x3d807888	0.062729895
186	0x3d201899	0.03908596
187	0xbd932cb2	-0.07186259
188	0xbd890120	-0.06689668
189	0xbcd6bb69	-0.026212411
190	0xbd36676e	-0.044532232
191	0xb83d8afd	-4.5190554e-05
192	0x3cb35bd2	0.02189437
193	0xbd565b56	-0.0523332
194	0x3d712388	0.058871776
195	0xbb215c7f	-0.0024621782
196	0x3d05ed3a	0.03269694
197	0xbd205a1c	-0.039148435
198	0x3d6e4871	0.058174554
199	0xbcc496c4	-0.023997672
200	0xbd2ad593	-0.041707586
201	0x3d8adb68	0.0678013
202	0xbb2abfb9	-0.0026054217
203	0x3d1d3466	0.03838005
204	0xbd96b0c3	-0.07357933
205	0xbca6e036	-0.020370584
206	0x3cd0614e	0.025437023
207	0x3d3337f6	0.04375454
208	0x3ce323d2	0.027727041
209	0x3ccc0414	0.024904288
210	0xbd7d05d5	-0.06177314
211	0xbd6132ee	-0.05498021
212	0x3d84a0cc	0.06475982
213	0xbd98b588	-0.07456499
214	0x3d62caea	0.055369295
215	0xbceb09c9	-0.02869119
216	0xbd0735b8	-0.033010215
217	0x3d90bb8d	0.070670225
218	0xbd07d4f7	-0.033162083
219	0x3d7137f5	0.058891255
220	0x3ca67ffd	0.020324701
221	0x3c421df2	0.01184796
222	0x3d2eb30d	0.042651225
223	0x3cf1306e	0.029442038
224	0x3d4930dd	0.049118865
225	0x3cfd3436	0.030908685
226	0x3cad8a93	0.021184241
227	0xbd694b67	-0.056956675
228	0xbc45c53d	-0.012070951
229	0xbdac8f5b	-0.084257804
230	0x3ca833af	0.020532457
231	0x3d79e474	0.061008886
232	0xbce5c494	-0.028047837
233	0xbd884fb6	-0.06655829
234	0xbd90cf4f	-0.07070791
235	0xbbdeff1c	-0.0068053138
236	0x3c901859	0.017589735
237	0x3d0a24c0	0.033726454
238	0x3cb3b4e3	0.02193684
239	0xbd970372	-0.07373704
240	0x3d805b91	0.06267465
241	0xbd93f4f7	-0.07224458
242	0x3d9b0c7f	0.07570743
243	0x3c8c7cbf	0.017149327
244	0x3cf8473a	0.030307401
245	0xbcc774e2	-0.024347726
246	0xbbf8805e	-0.007583662
247	0x3d8d3bc4	0.06896165
248	0x3cfb4861	0.030674161
249	0xbdb08bdc	-0.08620426
250	0xbd9c3761	-0.0762775
251	0xbd78268e	-0.060583644
252	0xbd4f1ca8	-0.050564438
253	0x3a477caa	0.0007609824
254	0x3d84f9cd	0.06492958
255	0x3d6db560	0.0580343

actor.bias f4 [4]
0	0x3dba3e22	0.09093882
1	0xbd3c66f0	-0.045996606
2	0x3c6b460e	0.014359964
3	0xbd995fb9	-0.07488961

critic.weight f4 [1, 128]
0	0xbd396447	-0.045261648
1	0x3d9de998	0.0771057
2	0x3d6ad784	0.057334438
3	0x3cebb9cc	0.028775118
4	0xbd6d901f	-0.057998773
5	0xbd98358f	-0.074320905
6	0xbd954e5d	-0.07290337
7	0x3d3b18d4	0.045677975
8	0x3cf5cbe9	0.030004459
9	0x3d29620d	0.041353274
10	0x3b8cdc8f	0.0042987536
11	0x3d80cd08	0.062891066
12	0x3d3f8b78	0.046763867
13	0x3d8bfe55	0.06835619
14	0x3d127f5d	0.035765994
15	0xbcc1e395	-0.02366809
16	0x3c5f2a1c	0.0136208795
17	0xbd35003b	-0.044189673
18	0x3adf7a14	0.0017049932
19	0xbc6da906	-0.01450563
20	0xbc443ff8	-0.011978142
21	0x3ca67a17	0.020321889
22	0xbcb594ed	-0.02216574
23	0x3d6095a0	0.054830194
24	0xbcf4b131	-0.029869648
25	0xbd5041db	-0.050844055
26	0x3c03a888	0.008035786
27	0x3d830a9b	0.06398507
28	0xbd7e52bf	-0.06209063
29	0xbca27fca	-0.019836325
30	0xb98f1169	-0.00027288057
31	0xbd2adbce	-0.04171353
32	0xbd0246d0	-0.031805813
33	0x3c4bcccd	0.012438965
34	0x3c5cf898	0.013487004
35	0x3da7a652	0.0818602
36	0x3d6b350c	0.057423636
37	0xbd8c82ad	-0.06860862
38	0xbd02c18a	-0.031922854
39	0x3cada598	0.021197125
40	0x3d59bd28	0.05315891
41	0xbd823bdd	-0.06359074
42	0x3d860ced	0.06545434
43	0x3cf11c63	0.029432481
44	0xbb721774	-0.0036940249
45	0x3d089c65	0.033352274
46	0x3d557ea6	0.052122734
47	0xbce8d552	-0.028422032
48	0x3a9ece3a	0.0012115904
49	0x3d78970a	0.060690917
50	0xbdc61a7c	-0.0967302
51	0x3d0fa7af	0.035072025
52	0x38834d5e	6.2609775e-05
53	0x3c1abadd	0.009443966
54	0xbb03ec5d	-0.0020129897
55	0x3d8b5c20	0.06804681
56	0x3d2dfd92	0.04247815
57	0x3d851a89	0.06499202
58	0xbbe54313	-0.0069965213
59	0x3d90cd5f	0.070704214
60	0x3c03f777	0.008054606
61	0x3b2c862a	0.0026325085
62	0xbcb2e2cf	-0.021836666
63	0xbadbccba	-0.0016769387
64	0xbc6d2517	-0.014474175
65	0x3c380ea6	0.011233961
66	0x3d4a2d45	0.04935958
67	0xbd21034c	-0.039309785
68	0x3c86e486	0.01646639
69	0x3d0e0e79	0.03468177
70	0xbd20e40b	-0.03927998
71	0xbcaa377d	-0.020778412
72	0xbbb8b87c	-0.0056372266
73	0xbbb069fb	-0.0053837276
74	0xbcb71ef1	-0.022353621
75	0xbcbb55e4	-0.022868104
76	0xbd1cafe8	-0.038253695
77	0x3caf9ae5	0.021436164
78	0xbd27ffba	-0.041015364
79	0x3da129b5	0.07869283
80	0x3cb25c43	0.02177251
81	0x3ce01940	0.02735579
82	0x3d84b048	0.064789355
83	0x3d7364bd	0.059422243
84	0xbc640695	-0.013917585
85	0xbd97a4b0	-0.074044585
86	0xbb9f3983	-0.004859151
87	0x3b2674b9	0.0025399162
88	0x3ca6c73b	0.020358672
89	0xbc94f991	-0.018185409
90	0x39c1de62	0.00036977517
91	0x3d0d2ec7	0.03446844
92	0xbd207da7	-0.03918233
93	0xbca0a8f4	-0.019611813
94	0x3d5c90dc	0.053849086
95	0xbdb10ae6	-0.08644657
96	0xbd6021ad	-0.054719616
97	0xbb3926f8	-0.0028251987
98	0x3cee0f1c	0.02905994
99	0xbccf5452	-0.025308762
100	0x3c865cf6	0.01640175
101	0xbcb33e49	-0.021880286
102	0x3d92f6d7	0.07175987
103	0xbd2e164c	-0.042501733
104	0xbc66962c	-0.01407389
105	0xbda47859	-0.08030767
106	0xbd9d89f2	-0.076923266
107	0x3d3d0e87	0.046156432
108	0x3cb90edf	0.022590099
109	0xbcec096f	-0.028813092
110	0xbd82f116	-0.0639364
111	0x3d678a1f	0.056528207
112	0x3cc183db	0.023622444
113	0x3d229365	0.039691348
114	0xbce4ca9e	-0.027928647
115	0x3d7c3681	0.061575416
116	0xbd0c3634	-0.03423138
117	0x3d6dae93	0.058027815
118	0x3cb7a6fc	0.022418492
119	0x3d6dc80f	0.05805212
120	0xbbba5386	-0.0056862263
121	0xbbb1351c	-0.0054079425
122	0xbb97efff	-0.004636764
123	0xbd94c41b	-0.07263967
124	0xbd74afce	-0.059737973
125	0xbd6380ce	-0.05554276
126	0xbd9711a1	-0.07376409
127	0x3d1fa408	0.03897479
