code/models/ppo_checkpoint_100.pt (torch, 75495 bytes, 7 tensors)

encoder.0.weight f4 [128, 5]
0.4049422 0.27023658 0.13506506 0.28779492 0.39663422 -0.025250297 0.07496346 0.42316404
-0.28410566 0.3541028 0.17556311 0.21791855 0.3242413 0.15206733 0.3738771 -0.19123721
-0.0026643365 -0.27931568 0.15243669 -0.3325924 -0.122652985 0.44146436 -0.23697118 -0.3771998
0.097365916 0.35191762 -0.13778667 0.30535388 0.25891745 0.1833807 -0.051244825 0.41018367
0.350693 0.13850833 0.15057984 -0.3650386 0.03204072 0.4164405 0.40587854 0.0035365338
-0.08037004 0.033172432 0.21154298 -0.05761128 -0.29113856 -0.12285895 0.019757709 0.27018937
-0.41707563 0.011140047 -0.37804484 0.4142002 -0.37384012 0.10083711 -0.40262172 -0.2904162
0.110920675 0.3605565 -0.20068352 0.37183213 0.29907882 -0.23038542 0.4379813 -0.08048034
-0.17705487 -0.3670173 0.024207603 -0.35104853 -0.31122062 -0.14877947 -0.3357291 0.42176712
-0.34936628 -0.34802267 0.3893336 -0.18385191 -0.30627927 0.26058027 -0.38482663 -0.3424696
0.23830144 0.38093293 0.33104837 0.36414152 0.11564845 -0.3287266 0.04967003 -0.06138076
-0.14094426 0.02598135 0.01306871 0.19779986 -0.22039445 -0.14208305 0.24775328 -0.2761656
-0.31668723 -0.28213662 -0.40413845 -0.3964305 -0.41729733 -0.31113833 0.17670241 0.4410327
0.32419765 -0.1913962 0.3118107 0.40253046 0.0053840647 0.080344185 -0.3049551 0.23096311
-0.013575279 -0.06458148 -0.41376302 0.4019971 -0.1648216 0.43286595 0.16450526 -0.3935665
-0.08314057 0.4022327 -0.16978876 -0.19273035 0.058281787 -0.3638088 0.34405217 -0.35889316
-0.17566837 -0.34921297 0.28259495 -0.14180937 -0.3926287 0.22154447 -0.05335528 0.04634792
-0.19818257 -0.14460889 -0.06734475 -0.05054027 0.4290677 -0.24676175 0.23732592 -0.3436437
0.3549888 0.26410782 0.1355312 -0.37056813 -0.40539852 0.3135134 -0.12039904 0.20162462
0.019503389 0.34959584 -0.07032876 0.1622656 -0.1769319 0.35498875 -0.40179434 -0.026395751
-0.16586806 0.11956237 0.09107069 -0.03798625 -0.030874018 -0.008641205 -0.005241194 0.3044114
-0.2027293 0.21929753 0.2187118 0.15045227 0.38479537 -0.27360845 0.07101913 -0.006979609
-0.25779754 -0.40184358 0.30397204 0.19793344 -0.061793264 -0.42755607 -0.0873624 -0.30372825
0.4100283 -0.22776546 -0.39427924 -0.06068949 -0.36737016 0.015540665 -0.10101912 -0.044342853
-0.44622093 0.057170313 0.0011992537 0.018588748 0.01872314 0.13264814 -0.25000587 0.1118797
-0.40198115 -0.16471353 -0.12292002 0.20400247 0.36941344 -0.39158595 0.22077513 0.08857716
-0.16902906 0.3741787 0.17463604 0.32464424 -0.271329 -0.08064759 -0.2374949 -0.25312808
0.39871478 -0.43408155 -0.2805264 -0.38600263 -0.17087497 -0.33812276 -0.02028794 0.0078008273
-0.22203451 -0.33917448 0.098355554 -0.073594354 -0.13590947 -0.080354564 0.3863951 -0.3291087
0.3211678 -0.37580216 0.26299322 -0.34415436 0.010706654 -0.40929922 0.33468735 0.09741048
0.14837123 0.169739 0.21771203 -0.42716718 -0.10125566 0.32906282 0.38250732 -0.3095504
-0.19255215 0.20041284 -0.10580915 0.018399412 -0.23350266 -0.28927097 0.25820237 -0.10901199
00000000: 9654 cf3e 735c 8a3e 7f4e 0a3e db59 933e
00000010: a413 cb3e b6d9 cebc 7186 993d f5a8 d83e
00000020: 4c76 91be f64c b53e d1c6 333e 0a26 5f3e
00000030: f502 a63e 8ab7 1b3e d26c bf3e b0d3 43be
00000040: 269c 2ebb 7702 8fbe 5d18 1c3e 8d49 aabe
00000050: 7d31 fbbd 9e07 e23e 93a8 72be 5520 c1be
00000060: c867 c73d 8c2e b43e f317 0dbe 5857 9c3e
00000070: d490 843e 26c8 3b3e 18e6 51bd 9803 d23e
00000080: 088e b33e 21d5 0d3e 9a31 1a3e 57e6 babe
00000090: 213d 033d b037 d53e 50cf cf3e 31c5 673b
000000a0: 0c99 a4bd d1df 073d b99e 583e cef9 6bbd
000000b0: 1d10 95be 799d fbbd ebda a13c 4356 8a3e
000000c0: f08a d5be be84 363c 188f c1be 0c12 d43e
000000d0: f967 bfbe b083 ce3d 6f24 cebe 6fb1 94be
000000e0: 612a e33d dd9a b83e fb7f 4dbe c860 be3e
000000f0: dc20 993e 28ea 6bbe 163f e03e e0d2 a4bd
00000100: df4d 35be b1e9 bbbe 064f c63c a2bc b3be
00000110: 4f58 9fbe a559 18be afe4 abbe dcf1 d73e
00000120: 23e0 b2be 0730 b2be bc56 c73e ad43 3cbe
00000130: a3d0 9cbe c76a 853e ff07 c5be 2d58 afbe
00000140: 4b05 743e a409 c33e 2c7f a93e c270 ba3e
00000150: 18d9 ec3d da4e a8be cd72 4b3d 646a 7bbd
00000160: b153 10be d7d6 d43c 251e 563c 0c8c 4a3e
00000170: 15af 61be 387e 11be 09b3 7d3e 9465 8dbe
00000180: d424 a2be 3674 90be 3ceb cebe f0f8 cabe
00000190: ffa7 d5be 864d 9fbe 7af1 343e 0acf e13e
000001a0: 3cfd a53e 5efd 43be a7a5 9f3e 7918 ce3e
000001b0: cf6c b03b 7e8b a43d 1323 9cbe 9881 6c3e
000001c0: d96a 5ebc 4c43 84bd bfd8 d3be 90d2 cd3e
000001d0: fec6 28be 9ba0 dd3e 1174 283e 8c81 c9be
000001e0: 9a45 aabd 72f1 cd3e 1bdd 2dbe 1b5b 45be
000001f0: e2b8 6e3d 2645 babe 9b27 b03e d8c0 b7be
00000200: 69e2 33be 0bcc b2be 49b0 903e 7a36 11be
00000210: a106 c9be 8edc 623e 118b 5abd 51d7 3d3d
00000220: 5ff0 4abe 5a14 14be 0bec 89bd 5003 4fbd
00000230: c3ae db3e 1daf 7cbe 9105 733e 11f2 afbe
00000240: 18c1 b53e 2439 873e b1c8 0a3e 1bbb bdbe
00000250: 6590 cfbe d484 a03e c693 f6bd af76 4e3e
00000260: 92c5 9f3c 3afe b23e 8608 90bd f428 263e
00000270: a32d 35be 16c1 b53e fdb7 cdbe e73b d8bc
00000280: 51d9 29be 1edd f43d 4583 ba3d 7897 1bbd
00000290: 82eb fcbc d793 0dbc 52be abbb d0db 9b3e
000002a0: 4598 4fbe 888f 603e fcf5 5f3e 2910 1a3e
000002b0: e603 c53e 6816 8cbe 7a72 913d 34b5 e4bb
000002c0: 0afe 83be 71be cdbe 39a2 9b3e 10af 4a3e
000002d0: ef1a 7dbd a1e8 dabe 0feb b2bd 4582 9bbe
000002e0: 3bef d13e 593b 69be f8de c9be 8b95 78bd
000002f0: f117 bcbe 469e 7e3c 1de3 cebd daa0 35bd
00000300: 1277 e4be 6b2b 6a3d 4730 9d3a 6e47 983c
00000310: 4561 993c ead4 073e c500 80be 2f21 e53d
00000320: 79d0 cdbe aaaa 28be 7ebd fbbd 06e6 503e
00000330: c223 bd3e f47d c8be e012 623e f167 b53d
00000340: f415 2dbe 5a94 bf3e cad3 323e c537 a63e
00000350: a2eb 8abe 902a a5bd dd31 73be 019a 81be
00000360: 5824 cc3e f03f debe 28a1 8fbe 23a2 c5be
00000370: d9f9 2ebe 6d1e adbe e532 a6bc 159e ff3b
00000380: 045d 63be 47a8 adbe a36e c93d a3b8 96bd
00000390: da2b 0bbe ef90 a4bd 94d5 c53e ef80 a8be
000003a0: 1b70 a43e 2469 c0be 0ca7 863e 0035 b0be
000003b0: f66a 2f3c ab8f d1be 245c ab3e 257f c73d
000003c0: a1ee 173e 0fd0 2d3e e7ef 5e3e a8b5 dabe
000003d0: 215f cfbd ec7a a83e 00d8 c33e 647d 9ebe
000003e0: 642c 45be 0639 4d3e 78b2 d8bd 5dba 963c
000003f0: 521b 6fbe 531b 94be 1a33 843e ae41 dfbd

encoder.0.bias f4 [128]
0.08403258 -0.22266679 -0.24904169 -0.20506343 -0.2991685 0.029012863 -0.14888105 0.36022463
0.23822284 -0.39618698 0.27784976 0.34253356 0.09079932 -0.1401274 0.07854696 -0.25880674
0.28565675 -0.34811485 -0.21006976 0.018020421 0.28704762 -0.2768098 0.04587003 -0.28097615
-0.30332968 0.4043594 -0.14184785 0.018183501 -0.32458445 0.39031547 0.39758974 0.13963014
0.28756562 0.37797695 0.31280804 -0.35193622 0.3339979 0.14782761 -0.4235032 0.29829073
-0.20454384 0.04860529 -0.09109438 0.28340513 0.4293078 0.33707267 0.15739667 -0.030963028
0.06995636 0.14090282 -0.36718425 -0.08982434 0.22872965 0.40153137 0.4235463 -0.13496251
-0.4113965 0.13213702 0.21370777 -0.4416276 -0.42890298 -0.08321584 -0.4033905 0.0025085623
0.42055288 -0.30372947 -0.43814185 -0.2258636 -0.15195967 -0.2291525 0.20529819 -0.35172054
-0.075264014 0.023135426 -0.028044453 0.27404356 0.26364818 -0.32097355 -0.11220728 -0.2590082
0.22297436 0.34287205 0.16442686 -0.097233064 -0.43554577 0.1938769 0.31309175 -0.18876986
-0.39971498 0.39306402 -0.16883947 0.18315868 -0.12933323 0.3937171 0.17409042 -0.21968494
0.34882006 0.17521495 -0.14347386 -0.04130683 0.023507437 0.3708493 -0.07453014 -0.34808677
0.30943382 0.29244873 -0.2735672 0.19447283 0.12534204 -0.16183692 -0.091052435 -0.37606463
-0.4254939 0.4234292 -0.17988807 -0.2534305 0.25604737 0.121070474 -0.10995103 0.19026016
0.10187441 -0.10024624 0.3167467 -0.2510149 0.35580617 -0.2609094 -0.2573751 0.37232235
00000000: 4619 ac3d c302 64be c904 7fbe 26fc 51be
00000010: 9d2c 99be 62ac ed3c 4674 18be 5d6f b83e
00000020: b0f0 733e 05d9 cabe 5342 8e3e 8f60 af3e
00000030: fef4 b93d 8f7d 0fbe 3bdd a03d 5182 84be
00000040: 9a41 923e 1c3c b2be 871c 57be 909f 933c
00000050: e8f7 923e 04ba 8dbe 36e2 3b3d 1bdc 8fbe
00000060: 074e 9bbe 3208 cf3e 9040 11be 91f5 943c
00000070: ef2f a6be 6ed7 c73e e290 cb3e 34fb 0e3e
00000080: cd3b 933e 3286 c13e 6028 a03e fc30 b4be
00000090: c601 ab3e 1f60 173e 69d5 d8be 90b9 983e
000000a0: f173 51be 5716 473d b18f babd 7a1a 913e
000000b0: 3bce db3e ca94 ac3e 982c 213e 2da6 fdbc
000000c0: 4845 8f3d d448 103e 93ff bbbe d3f5 b7bd
000000d0: 1b38 6a3e 8595 cd3e 10db d83e 9d33 0abe
000000e0: 90a2 d2be ed4e 073e 36d6 5a3e 031d e2be
000000f0: 2c99 dbbe 116d aabd 3389 cebe b166 243b
00000100: b552 d73e 6e82 9bbe 2154 e0be ca48 67be
00000110: 519b 1bbe f4a6 6abe b039 523e b714 b4be
00000120: 0524 9abd 8186 bd3c 7bbd e5bc 704f 8c3e
00000130: e5fc 863e a556 a4be eecc e5bd b99c 84be
00000140: 6453 643e ed8c af3e 845f 283e 2122 c7bd
00000150: dbff debe ab87 463e 904d a03e e34c 41be
00000160: 71a7 ccbe b03f c93e 41e4 2cbe f38d 3b3e
00000170: ee6f 04be 4a95 c93e c244 323e 17f5 60be
00000180: 8b98 b23e 8c6b 333e d0ea 12be 5a31 29bd
00000190: ab92 c03c f6df bd3e 42a3 98bd 6e38 b2be
000001a0: 1c6e 9e3e d7bb 953e 0011 8cbe e323 473e
000001b0: aa59 003e 94b8 25be b379 babd 8b8b c0be
000001c0: 56da d9be b6cb d83e 9434 38be a4c1 81be
000001d0: a418 833e ccf3 f73d 012e e1bd 8fd3 423e
000001e0: 88a3 d03d e74d cdbd a02c a23e 0685 80be
000001f0: 3a2c b63e eb95 85be abc6 83be 09a1 be3e

encoder.2.weight f4 [128, 128]
-0.0039527947 0.029834932 -0.007547847 -0.0437041 -0.01998669 0.05753658 -0.025161859 0.01500118
-0.062520996 -0.08644848 0.01075832 -0.0045032855 -0.06271522 -0.07243002 0.069164105 0.011787114
-0.06623671 0.07374587 -0.050572984 0.071610875 -0.025666345 -0.08088119 0.048523 -0.08051537
0.07065843 0.022684636 0.023552386 0.05006465 -0.07613332 -0.009168752 -0.084554605 -0.0044922745
-0.010235647 -0.029506186 0.063724324 0.03803341 0.07721805 -0.05586923 0.040236603 0.068146124
0.05373918 0.010447814 0.08447094 -0.06334965 0.06752728 -0.041779835 -0.0122638475 0.03846277
-0.036469698 -0.055765 0.07655312 0.0054582274 -0.015199692 0.052051 -0.05070937 -0.06650524
-0.020886293 0.05156864 0.07851629 -0.0684468 -0.08253051 -0.07762861 0.004990429 0.026414242
-0.059213415 -0.071355805 0.0077493195 0.049009155 -0.06811972 0.06694638 0.0014637705 0.07804116
0.015259203 -0.010442788 0.034228984 -0.037957147 -0.009865365 -0.0656976 0.06606294 -0.019361492
-0.06594888 -0.03351612 0.042952083 -0.028783 -0.014754484 -0.058048915 0.061690815 -0.060410783
0.07514444 0.010398733 -0.08201392 -0.08409332 -0.00079741835 0.018478695 -0.060670123 0.009853027
-0.021974493 -0.013095647 -0.066089325 0.050762244 0.024692385 -0.0138303405 -0.053822685 0.029760426
-0.02927007 0.08131382 -0.08828145 -0.07788078 -0.07008762 -0.03195441 -0.07106777 -0.040551707
0.014905591 0.081037536 0.05613097 0.07661806 -0.045898475 0.031863384 0.036862466 0.065146275
-0.031860605 0.025492089 -0.07624972 -0.024988603 0.007425948 0.018835658 -0.0734761 0.041376624
0.064199425 -0.082050756 0.083962955 -0.029091565 -0.025696944 0.08138098 0.042437263 0.047049694
-0.002093341 0.05708156 0.03075425 0.0047981297 0.05274518 -0.02067546 0.03433488 -0.027320692
-0.049505915 -0.035932694 -0.021504099 0.07128642 0.01908215 0.060464047 -0.08213652 0.03678186
0.07510102 -0.044352423 0.08769505 0.06954555 0.04308596 0.052387904 0.071836926 -0.020946942
-0.038297836 -0.07333121 -0.08420622 0.042090457 0.018244885 -0.044046745 -0.018731808 -0.019144813
0.047045946 -0.031230517 0.0799608 0.08037842 -0.083534874 0.06604729 0.08291728 0.041771747
-0.07232972 0.054068975 -0.04453678 0.04127612 0.082846165 -0.009704189 -0.07746359 0.002111768
-0.07811551 0.035389867 0.022315562 0.03926964 0.07450604 0.08471893 0.026777169 -0.015527934
0.057358585 -0.022961818 -0.019818207 0.03999428 -0.085402764 0.031867538 -0.0010816904 -0.0013384327
-0.034148388 0.08617189 0.009965664 -0.05222168 -0.07860829 0.0058561875 0.029973017 -0.085491784
-0.045343652 0.079625845 0.05161305 -0.04157875 -0.036289502 0.06967982 0.05233661 0.027996644
-0.073283836 0.070475765 0.05951102 -0.048490863 -0.059233535 -0.04682025 -0.010640819 -0.06073726
0.08528287 0.010661561 -0.062080294 -0.06805313 -0.013349055 -0.072493546 -0.01471142 0.033583976
-0.034440834 0.017639093 -0.0013477223 -0.025515381 0.07551493 -0.025398081 -0.0022025881 0.0634593
-0.01588591 0.016981535 0.054029446 0.0807386 -0.022482151 -0.0067246305 -0.087007195 0.08455168
0.009619913 -0.0779344 -0.073942736 0.06326106 0.026806848 0.049277775 -0.0070375833 0.04253677
00000000: 7286 81bb 6368 f43c ee53 f7bb 1203 33bd
00000010: 20bb a3bc 7aab 6b3d 3e20 cebc 82c7 753c
00000020: 020b 80bd e70b b1bd aa43 303c 4c90 93bb
00000030: d670 80bd 3156 94bd e9a5 8d3d bd1e 413c
00000040: 1da7 87bd 1308 973d 9e25 4fbd b9a8 923d
00000050: 3a42 d2bc 0aa5 a5bd 0ec0 463d 3ee5 a4bd
00000060: 5eb5 903d 21d5 b93c eff0 c03c 9710 4d3d
00000070: c9eb 9bbd 8838 16bc f72a adbd ee33 93bb
00000080: 6ab3 27bc f5b6 f1bc e681 823d ecc8 1b3d
00000090: 7f24 9e3d 22d7 64bd 23cf 243d 3290 8b3d
000000a0: 9d1d 5c3d 4f2d 2b3c 1aff ac3d 76bd 81bd
000000b0: be4b 8a3d 5521 2bbd 4eee 48bc 238b 1d3d
000000c0: 4061 15bd d769 64bd e2c7 9c3d eeda b23b
000000d0: 2108 79bc 6e33 553d a1b4 4fbd e633 88bd
000000e0: bb19 abbc a339 533d 26cd a03d d62d 8cbd
000000f0: c205 a9bd c0fb 9ebd c186 a33b ae62 d83c
00000100: c489 72bd fe22 92bd 01ee fd3b d3bd 483d
00000110: 5a82 8bbd 2f1b 893d fddb bf3a 0bd4 9f3d
00000120: bc01 7a3c 3a18 2bbc b133 0c3d f478 1bbd
00000130: 57a2 21bc 778c 86bd 024c 873d fe9b 9ebc
00000140: 3510 87bd 3348 09bd 86ee 2f3d 53ca ebbc
00000150: cbbc 71bc b3c4 6dbd 82af 7c3d 4c71 77bd
00000160: 54e5 993d 735f 2a3c eaf6 a7bd 1e39 acbd
00000170: d709 51ba a260 973c 3c81 78bd 976e 213c
00000180: da03 b4bc 208f 56bc d759 87bd 12ec 4f3d
00000190: af47 ca3c a798 62bc 2d75 5cbd 23cc f33c
000001a0: c9c7 efbc dc87 a63d e8cc b4bd f57f 9fbd
000001b0: 198a 8fbd a1e2 02bd fb8b 91bd 8c19 26bd
000001c0: 9436 743c 02f7 a53d 97e9 653d eee9 9c3d
000001d0: 0a00 3cbd 2e83 023d 19fd 163d 696b 853d
000001e0: 4480 02bd c9d4 d03c d028 9cbd e6b4 ccbc
000001f0: 5e55 f33b 3d4d 9a3c a37a 96bd 897a 293d
00000200: fd7a 833d 3a0a a8bd c5f4 ab3d 6f51 eebc
00000210: 6682 d2bc 12ab a63d b2d2 2d3d 2eb7 403d
00000220: 6f30 09bb 5bce 693d 56f0 fb3c a139 9d3b
00000230: 540b 583d 955f a9bc bba2 0c3d a5cf dfbc
00000240: b7c6 4abd 292e 13bd 5d29 b0bc 9dfe 913d
00000250: 2b52 9c3c 26a9 773d 3137 a8bd 93a8 163d
00000260: 90ce 993d e3aa 35bd 7699 b33d e66d 8e3d
00000270: e77a 303d b394 563d 3d1f 933d ec98 abbc
00000280: 31de 1cbd ac2e 96bd 5074 acbd 0b67 2c3d
00000290: 4c76 953c 5c6a 34bd 7373 99bc 95d5 9cbc
000002a0: 40b3 403d 24d7 ffbc 7dc2 a33d 719d a43d
000002b0: 5514 abbd cd43 873d 89d0 a93d da18 2b3d
000002c0: 9b21 94bd 6e77 5d3d 336c 36bd 2611 293d
000002d0: 40ab a93d 52fe 1ebc 3ba5 9ebd 9665 0a3b
000002e0: 06fb 9fbd f7f4 103d 20cf b63c 34d9 203d
000002f0: 9f96 983d 1e81 ad3d cb5b db3c e068 7ebc
00000300: d6f0 6a3d 6c1a bcbc cb59 a2bc 0bd1 233d
00000310: a5e7 aebd 8987 023d 82c7 8dba 596e afba
00000320: 2edf 0bbd e37a b03d 0647 233c 66e6 55bd
00000330: 62fd a0bd 43e5 bf3b f989 f53c 5116 afbd
00000340: 44ba 39bd e012 a33d 3568 533d 7b4e 2abd
00000350: 4da4 14bd 4bb4 8e3d ea5e 563d 3859 e53c
00000360: d615 96bd 9955 903d d4c1 733d 5b9e 46bd
00000370: dd9e 72bd 97c6 3fbd d456 2ebc a2c7 78bd
00000380: c9a8 ae3d d4ad 2e3c e847 7ebd 705f 8bbd
00000390: ffb5 5abc 7f77 94bd 2b08 71bc 5a8f 093d
000003a0: d511 0dbd dc7f 903c 0ea6 b0ba a205 d1bc
000003b0: 92a7 9a3d a30f d0bc 4c59 10bb f3f6 813d
000003c0: 2b23 82bc dc1c 8b3c fb4d 5d3d 475a a53d
000003d0: 7d2c b8bc 4a5a dcbb d430 b2bd 6e29 ad3d
000003e0: d79c 1d3c 129c 9fbd 4a6f 97bd 048f 813d
000003f0: 099a db3c 7ed7 493d 879b e6bb 093b 2e3d

encoder.2.bias f4 [128]
0.040256068 -0.02617672 0.049562555 0.009323675 0.0658238 0.03496494 0.012263686 -0.01841203
-0.086137705 0.07325598 -0.011243515 0.018432386 -0.067860685 0.043854762 0.034689404 -0.08581757
-0.0038690912 -0.005175561 -0.049244303 0.0037659823 -0.07768005 0.007239278 -0.08239179 0.08878151
0.01906401 -0.029110767 -0.026127111 -0.072244555 -0.060686644 -0.073736 -0.04533805 -0.050986066
0.03934275 -0.06012676 -0.03576955 -0.081672505 -0.025139615 -0.03559843 -0.056323886 -0.013211716
0.001958182 -0.061586216 0.084212 0.04343199 0.0385767 -0.038246553 0.016681276 -0.06935718
0.00730933 -0.03227615 -0.030838253 -0.070856415 -0.059222423 0.080630384 0.0835552 0.053188816
-0.028926866 -0.08957748 0.053987477 0.0595345 0.05718115 -0.08680329 0.04331469 0.029457096
0.06340133 0.031116452 0.05481879 -0.02104066 0.06509044 0.015875606 0.02379403 0.017607195
0.086609475 0.034034714 0.03969278 -0.08714713 -0.078208074 -0.029134303 0.049675666 0.00026021464
0.056270573 0.06394427 -0.0003095647 -0.041372135 -0.05789612 -0.02844632 -0.06981875 -0.024617236
0.0022937262 0.041318305 -0.058351897 -0.009502076 -0.03538226 0.045076158 -0.05710586 0.063646875
-0.034612145 -0.07321657 0.07763794 -0.04088453 -0.024457265 0.062256645 -0.0043174163 0.029268583
-0.04203263 0.05118196 0.06566023 0.07401463 0.03492059 -0.0053384253 0.022749892 -0.082088485
-0.07856021 0.07540397 0.046468288 0.016252248 0.032405652 -0.046611063 -0.034822684 -0.011681372
0.0002855713 0.070168994 0.07796562 0.0651803 -0.011186036 0.056846023 0.025287086 -0.068308316
00000000: 8ce3 243d 9070 d6bc 1b02 4b3d 54c2 183c
00000010: a1ce 863d 6637 0f3d a1ed 483c d3d4 96bc
00000020: f768 b0bd 3b07 963d b836 38bc 84ff 963c
00000030: 8bfa 8abd 0da1 333d 7a16 0e3d 1fc1 afbd
00000040: 9490 7dbb c197 a9bb 65b4 49bd b3ce 763b
00000050: b816 9fbd 7737 ed3b 07bd a8bd 15d3 b53d
00000060: 202c 9c3c b479 eebc 8608 d6bc f4f4 93bd
00000070: 8f92 78bd e602 97bd 64b4 39bd c4d6 50bd
00000080: dd25 213d 7a47 76bd 1783 12bd ea43 a7bd
00000090: 98f1 cdbc a9cf 11bd e0b3 66bd f475 58bc
000000a0: d854 003b d441 7cbd 5777 ac3d bee5 313d
000000b0: 9a02 1e3d 6ba8 1cbd 2ca7 883c 230b 8ebd
000000c0: 1b83 ef3b ff33 04bd 81a0 fcbc 2b1d 91bd
000000d0: 3693 72bd 8b21 a53d fd1e ab3d 84dc 593d
000000e0: 09f8 ecbc 6674 b7bd f921 5d3d 73da 733d
000000f0: c836 6a3d ecc5 b1bd bf6a 313d 0250 f13c
00000100: 8ed8 813d eee7 fe3c ab89 603d 765d acbc
00000110: 234e 853d 8f0d 823c b3eb c23c f73c 903c
00000120: 4f60 b13d fc67 0b3d e594 223d 327a b2bd
00000130: 8e2b a0bd 10ab eebc b678 4b3d 6b6d 8839
00000140: f97b 663d 37f5 823d 124d a2b9 d475 29bd
00000150: 7b24 6dbd 4208 e9bc 22fd 8ebd 16aa c9bc
00000160: 5752 163b 623d 293d 6602 6fbd 98ae 1bbc
00000170: fdec 10bd c7a1 383d d6e7 69bd 4b59 823d
00000180: 77c5 0dbd 92f2 95bd a400 9f3d 8976 27bd
00000190: 9a5a c8bc d300 7f3d 1d79 8dbb abc4 ef3c
000001a0: 682a 2cbd 2da4 513d df78 863d fb94 973d
000001b0: e508 0f3d f5ed aebb fb5d ba3c 021e a8bd
000001c0: 2de4 a0bd 666d 9a3d 8855 3e3d 6f23 853c
000001d0: cabb 043d 3eeb 3ebd 3ba2 0ebd 3a63 3fbc
000001e0: bbb8 9539 c3b4 8f3d 70ac 9f3d 407d 853d
000001f0: a345 37bc 60d7 683d dd26 cf3c 3be5 8bbd

actor.weight f4 [4, 128]
0.04450249 -0.0632634 -0.049316354 -0.0055655013 -0.08599538 0.06144683 0.011893648 0.022007724
-0.010829433 -0.011931125 -0.07602229 0.103508666 -0.020004055 -0.020078056 -0.042486317 -0.030019136
-0.056805383 -0.037160397 0.036004696 0.07844251 -0.0036126173 -0.07660373 0.0535211 0.101341695
0.078041516 0.0333599 0.03743539 0.045325525 0.08727497 0.060672358 -0.058397736 -0.05308647
0.0759902 -0.08224293 -0.066266395 -0.011691312 -0.068611145 -0.035179276 0.04704135 0.077421896
-0.08590041 0.067581184 0.096831694 0.0004641455 0.086156465 0.008923669 -0.059772357 0.009183366
0.0075374367 -0.0052299392 0.046605047 0.01248723 -0.051117256 -0.058013856 -0.0016248137 0.08537807
0.06765337 0.05226727 0.056205496 0.09883259 -0.042862546 0.018667635 -0.025988482 -0.017694248
-0.028776495 -0.045656774 0.05538069 0.095990136 -0.06419937 -0.001526921 0.06327204 0.084920146
-0.009532247 0.015063206 0.10353498 0.033692446 0.020569906 -0.064084806 -0.01921796 0.021153903
-0.032706797 0.09539393 0.10454755 0.011940434 -0.026628025 0.013354585 0.0037099672 -0.073998645
-0.037475903 0.04646284 -0.02955727 -0.033462886 0.08756779 -0.04975249 -0.035829004 -0.000111275935
0.0024334912 0.05678334 0.0028559992 -0.0024736754 -0.042754643 -0.04600771 -0.0071253357 -0.052699555
0.07760501 -0.04835843 -0.007960998 -0.011716128 0.04984199 0.069433905 -9.240413e-05 0.006846176
-0.0099204695 0.06824374 0.0017032151 -0.017627709 -0.058291804 -0.05256952 -0.04347067 0.02265057
0.017024817 -0.08518984 -0.008745861 -0.01655227 0.028341841 0.04137172 -0.048211146 -0.066367336
-0.0640983 -0.03277073 0.07789349 0.083569154 0.05983745 -0.00447991 -0.07317264 -0.054089453
-0.085705735 -0.04454537 -0.03235778 -0.088342585 -0.046388473 -0.020947868 0.022830067 0.022009468
0.010384805 -0.021935957 0.022811627 -0.039844718 -0.012386399 0.009204661 0.023188272 0.013319091
0.030177038 -0.08251753 0.012837719 0.070001416 0.028529925 0.0047083087 0.06637383 -0.044047914
-0.07387497 -0.018666727 -0.01007772 0.036046404 0.039963197 0.065656625 0.07815932 0.0011966142
0.057183072 0.08883344 0.03484151 -0.043071024 0.034358945 -0.051450156 -0.049185857 -0.032841984
0.025189832 0.0026895273 0.034861103 0.039551225 0.06775027 -0.059283484 0.03664244 0.015126546
0.003088105 -0.029901901 0.008123172 0.039953448 -0.004657716 0.05638131 0.04119193 -0.06233539
-0.019960325 -0.042778254 -0.013856787 0.008747815 0.03022686 -0.01623161 -0.011491289 0.0838277
0.024506401 -0.009111126 -0.034251973 -0.04102284 -0.032571234 0.08709526 0.014092497 -0.039418343
0.06551795 0.08450198 -0.083947785 0.05039329 0.010391542 0.04809853 -0.042490486 0.07595192
-0.04929176 0.056024857 -0.020859336 0.007934171 0.06462189 -0.063029304 0.07869345 0.09021871
-0.004005835 0.030162165 -0.08722652 0.06837762 -0.07107078 0.08586578 0.05991816 -0.06529152
0.056771267 0.050081328 0.08462494 0.08076493 -0.018081598 0.08483111 0.012591487 -0.07945889
-0.08029921 0.06589874 0.035679974 0.012693027 -0.040165603 0.003770731 0.040658243 0.005962367
0.058938954 0.014881178 0.0010700242 -0.00954415 0.03824223 0.038864266 0.024719568 -0.030763522
00000000: 3e48 363d 3e90 81bd f2ff 49bd cf5e b6bb
00000010: 591e b0bd acaf 7b3d 93dd 423c 8b49 b43c
00000020: ef6d 31bc c47a 43bc 93b1 9bbd 5afc d33d
00000030: 8bdf a3bc bc7a a4bc 2206 2ebd b1ea f5bc
00000040: c3ac 68bd 8035 18bd a979 133d 77a6 a03d
00000050: a9c1 6cbb 6be2 9cbd f138 5b3d 3c8c cf3d
00000060: 3bd4 9f3d 64a4 083d da55 193d 42a7 393d
00000070: 38bd b23d 9483 783d 7732 6fbd 3371 59bd
00000080: c0a0 9b3d fb6e a8bd adb6 87bd eb8c 3fbc
00000090: 0084 8cbd 2518 10bd 6eae 403d 5f8f 9e3d
000000a0: 8eec afbd 0168 8a3d b24f c63d 8e58 f339
000000b0: cd72 b03d 9534 123c dcd3 74bd d475 163c
000000c0: 9afc f63b e95f abbb efe4 3e3d 3d97 4c3c
000000d0: 5460 51bd f09f 6dbd b3f7 d4ba b3da ae3d
000000e0: da8d 8a3d 3416 563d bc37 663d be68 ca3d
000000f0: a390 2fbd deec 983c cce5 d4bc 87f3 90bc
00000100: afbc ebbc 9902 3bbd ddd6 623d 7a96 c43d
00000110: f67a 83bd f822 c8ba c594 813d 9dea ad3d
00000120: 242d 1cbc aacb 763c 260a d43d 1701 0a3d
00000130: 3882 a83c e53e 83bd fc6e 9dbc f34a ad3c
00000140: 90f7 05bd e55d c33d 071d d63d cfa1 433c
00000150: 0423 dabc 30cd 5a3c ec22 733b 9a8c 97bd
00000160: 5580 19bd d24f 3e3d 1722 f2bc 6110 09bd
00000170: be56 b33d 44c9 4bbd 6fc1 12bd d05c e9b8
00000180: 357b 1f3b a695 683d b72b 3b3b 631d 22bb
00000190: 7e1f 2fbd 9572 3cbd a67b e9bb 7ddb 57bd
000001a0: 60ef 9e3d 7d13 46bd d96e 02bc 01f5 3fbc
000001b0: 1d27 4c3d 5d33 8e3d 17c9 c1b8 e355 e03b
000001c0: 7789 22bc 60c3 8b3d 6a3e df3a fc67 90bc
000001d0: 63c3 6ebd 2353 57bd 4d0e 32bd b08d b93c
000001e0: a177 8b3c 0378 aebd cd4a 0fbc a098 87bc
000001f0: 262d e83c 6575 293d 0d79 45bd 99eb 87bd
00000200: f845 83bd 9a3a 06bd 9f86 9f3d 4e26 ab3d
00000210: 1d18 753d 35cc 92bb 89db 95bd e78c 5dbd
00000220: 7d86 afbd 3575 36bd 9789 04bd f5ec b4bd
00000230: d701 3ebd dd9a abbc 1f06 bb3c 334d b43c
00000240: 0725 2a3c 09b3 b3bc 73df ba3c 3734 23bd
00000250: 53f0 4abc 25cf 163c 55f5 bd3c 5138 5a3c
00000260: d635 f73c f3fe a8bd 4c55 523c e75c 8f3d
00000270: 97b7 e93c 2848 9a3b 01ef 873d 966b 34bd
00000280: c34b 97bd f7ea 98bc 051d 25bc 65a5 133d
00000290: 73b0 233d fb76 863d fe11 a03d b6d7 9c3a
000002a0: cc38 6a3d 4eee b53d f9b5 0e3d 3e6b 30bd
000002b0: f7bb 0c3d 66bd 52bd 1c77 49bd 5185 06bd
000002c0: e85a ce3c c842 303b 84ca 0e3d 7700 223d
000002d0: a7c0 8a3d 3dd3 72bd 6216 163d 55d5 773c
000002e0: ce61 4a3b d5f4 f4bc 0e17 053c 3aa6 233d
000002f0: c19f 98bb 17f0 663d dfb8 283d 6553 7fbd
00000300: d683 a3bc 4038 2fbd 9407 63bc ff52 0f3c
00000310: 529e f73c 27f8 84bc f645 3cbc dbad ab3d
00000320: a6c1 c83c d546 15bc cc4b 0cbd 9107 28bd
00000330: 6a69 05bd 005f b23d 37e4 663c 2175 21bd
00000340: 462e 863d 600f ad3d d1ec abbd 3269 4e3d
00000350: 4941 2a3c f702 453d 810a 2ebd ae8c 9b3d
00000360: 28e6 49bd 527a 653d 33e1 aabc 53fe 013c
00000370: 7b58 843d 8215 81bd 082a a13d 96c4 b83d
00000380: 6143 83bb a516 f73c d1a3 b2bd 9109 8c3d
00000390: 8f8d 91bd 66da af3d bf6c 753d 8fb7 85bd
000003a0: fd88 683d 1422 4d3d d74f ad3d 1568 a53d
000003b0: dc1f 94bc efbb ad3d 864c 4e3c 58bb a2bd
000003c0: ea73 a4bd ebf5 863d 2a25 123d 6af6 4f3c
000003d0: b084 24bd 5e1e 773b 4289 263d f65f c33b
000003e0: f969 713d 2fd0 733c 0e40 8c3a 115f 1cbc
000003f0: e2a3 1c3d 2330 1f3d b180 ca3c c803 fcbc

actor.bias f4 [4]
0.08124168 0.034349184 -0.105275095 -0.06538901
00000000: 0a62 a63d bbb1 0c3d 789a d7bd acea 85bd

critic.weight f4 [1, 128]
-0.007018546 0.048885394 -0.030241659 -0.034423977 0.03780688 -0.04719591 0.041738916 -0.08566893
0.07465989 -0.019087562 0.046826772 0.01926783 0.040661417 -0.06700461 0.070160024 0.012898544
0.05440331 -0.024404328 0.032339435 0.085789055 0.04642487 0.053410232 -0.020005634 -0.064236954
-0.002833912 0.08373525 -0.069607936 -0.054501694 0.05265722 -0.032029197 0.00057822687 0.062641144
-0.004582243 0.012386906 0.05385118 0.04238534 0.010787875 0.054190964 -0.07241636 0.025433965
-0.074665606 -0.0561909 -0.041806392 0.013856918 -0.013062232 -0.012766254 0.0043011764 0.019786216
0.029872209 -0.045423787 0.08283857 0.08317929 0.026975172 -0.06511989 -0.02907632 0.07583984
0.001033929 0.0009921318 0.063461795 0.026724333 -0.029157385 0.041079935 0.029019628 -0.03969061
-0.08357051 -0.067893215 -0.0729307 -0.08021381 -0.08418194 -0.0642928 0.059814394 0.08700731
-0.07357603 0.060305867 0.07837813 0.029213928 -0.050040204 -0.06190628 -0.0074856137 0.010983342
0.023678591 -0.03770864 -0.016356127 0.054170884 0.07872893 0.0314817 -0.02522219 0.015435145
0.08468861 -0.045840792 0.062035788 0.020325739 0.054826874 0.035651755 -0.04426072 0.04466316
0.053374615 -0.08700761 -0.032389693 -0.007869349 -0.08693591 0.0010801816 0.084262684 0.004220596
0.06285116 -0.03886545 -0.07865442 0.042494632 -0.0658324 0.07523971 0.05711308 -0.07133527
0.002228636 -0.025649782 0.05827932 -0.08630318 0.04131503 -0.02342881 0.015194307 0.02788063
-0.021380346 -0.0043536746 -0.004607894 -0.052462734 0.06685782 0.080472626 0.048746295 -0.07640058
00000000: d5fb e5bb 0d3c 483d 5bbd f7bc 2800 0dbd
00000010: 63db 1a3d 8050 41bd 6df6 2a3d 3173 afbd
00000020: 49e7 983d 855d 9cbc 6ecd 3f3d 91d7 9d3c
00000030: 968c 263d b739 89bd 0fb0 8f3d 6a54 533c
00000040: 01d6 5e3d 96eb c7bc 5b76 043d 2cb2 af3d
00000050: 0128 3e3d b0c4 5a3d dbe2 a3bc aa8e 83bd
00000060: 27b9 39bb 637d ab3d 9b8e 8ebd 2b3d 5fbd
00000070: 19af 573d 0c31 03bd 2694 173a 004a 803d
00000080: a426 96bb 73f2 4a3c 0e93 5c3d 409c 2d3d
00000090: a1bf 303c 58f7 5d3d 074f 94bd e45a d03c
000000a0: 48ea 98bd 6e28 66bd 2e3d 2bbd 2008 633c
000000b0: f902 56bc 8d29 51bc e2f0 8c3b b416 a23c
000000c0: 90b6 f43c 4b0e 3abd 45a7 a93d e759 aa3d
000000d0: 09fb dc3c 945d 85bd 7631 eebc eb51 9b3d
000000e0: e684 873a 6b0a 823a 42f8 813d fdec da3c
000000f0: 78db eebc 6f43 283d 92ba ed3c 9f92 22bd
00000100: 0427 abbd 990b 8bbd b15c 95bd 2347 a4bd
00000110: 9567 acbd f2ab 83bd f0ff 743d e330 b23d
00000120: 08af 96bd 4903 773d b784 a03d 0c52 ef3c
00000130: f5f6 4cbd 7191 7dbd e149 f5bb 7af3 333c
00000140: 9bf9 c13c 6074 1abd 49fd 85bc 4ae2 5d3d
00000150: a23c a13d f4f2 003d c49e cebc b1e3 7c3c
00000160: 3971 ad3d 8ec3 3bbd 3d19 7e3d 2a82 a63c
00000170: 2592 603d 9307 123d bb4a 35bd b8f0 363d
00000180: 579f 5a3d 0c31 b2bd 0eab 04bd 71ee 00bc
00000190: 740b b2bd e194 8d3a ea91 ac3d ed4c 8a3b
000001a0: 1cb8 803d 6131 1fbd 9215 a1bd da0e 2e3d
000001b0: 23d3 86bd 4717 9a3d 68ef 693d 3a18 92bd
000001c0: 4f0e 123b 7e1f d2bc 4cb6 6e3d b9bf b0bd
000001d0: f339 293d c7ed bfbc 8bf1 783c eb65 e43c
000001e0: d625 afbc 45a9 8ebb d1fd 96bb 2ae3 56bd
000001f0: c1ec 883d d5ce a43d 32aa 473d e877 9cbd
