code/models/ppo_seed_0.pt (torch, 74871 bytes, 7 tensors)

encoder.0.weight f4 [128, 4]
0.27832356 -0.4250447 -0.052685484 -0.21488023 -0.19898285 0.21115154 0.25300655 -0.32652563
0.029250372 0.3575238 0.17361763 0.4531569 -0.2052083 -0.21573877 -0.17227745 -0.13756943
0.4749853 0.48338687 0.29103166 -0.0145536065 -0.39627457 -0.2073198 -0.15960872 -0.14509696
0.38458934 -0.3480833 0.295275 0.050923347 0.2034421 0.094667025 0.378963 0.13819659
-0.21697152 -0.37800163 0.40042144 -0.40391177 -0.031447984 0.406321 -0.31698516 -0.37731874
0.05331443 -0.07162566 -0.14098327 -0.37814546 -0.4844501 -0.087694526 0.13087267 -0.32876927
-0.28845638 0.28707924 0.16710675 0.2921914 -0.22680685 0.038466815 0.48683953 0.33786613
0.3187085 0.0052806092 0.43391487 -0.07046646 0.3077448 -0.3269333 0.116995715 -0.4372847
-0.0963195 -0.08667207 0.3417377 0.39931643 -0.36205912 0.3529734 0.32933217 0.32930773
-0.00468591 0.33997428 -0.16278778 -0.29815167 -0.20139939 -0.47278076 -0.030968368 0.22282326
-0.50665605 0.4894902 0.44389948 -0.036171377 0.3847238 0.3742067 -0.39958015 -0.35676897
0.38082507 0.3826622 -0.4643127 -0.120488584 0.11666624 0.116438806 -0.254172 -0.26270592
-0.4688927 0.005800708 0.15788996 0.081730545 0.28467295 -0.107020825 0.40835306 -0.24946791
0.4110503 -0.32646188 0.3180082 0.022625804 -0.16816127 0.012131927 0.13984919 0.35980535
-0.13201548 0.405785 0.17266534 -0.08485186 -0.113202564 0.25845537 -0.36774832 -0.40500766
0.11168014 -0.008105532 -0.1898528 0.48241287 -0.47122458 0.20958677 -0.4729894 0.40011114
0.4435032 -0.49565607 -0.4602999 -0.49860525 -0.1331707 0.1414716 0.40035498 0.37010628
-0.004353444 0.37109256 0.10012029 -0.11159688 0.07643758 0.2740923 -0.1694803 -0.04501593
0.27646118 0.4127398 0.37905425 -0.21698898 -0.3451542 0.12814158 -0.38168553 -0.466448
-0.036610544 -0.33415025 0.19010621 -0.4579348 -0.08166387 0.19698772 0.42053756 0.00021588802
-0.019358099 -0.0015279651 -0.4540162 -0.4966185 -0.48768556 0.22163326 -0.38534024 0.14476609
-0.24425843 0.031517364 0.10453102 -0.3821863 0.4473103 -0.18918414 -0.32438168 0.20535713
-0.16632687 0.4386941 0.48555335 0.003030479 -0.20353778 0.47875556 -0.12343337 0.15247107
0.42951936 0.48969293 0.3805576 0.2511801 0.17115487 -0.045338016 0.19576313 0.13100606
-0.31954893 0.06839826 0.25598344 0.4372838 0.39844745 -0.4606822 -0.29999554 -0.43460566
-0.08927884 0.05188205 -0.15527554 -0.49620616 0.2103877 -0.25374928 -0.20775187 0.32452506
-0.27907512 0.28597447 -0.2339258 0.4327013 -0.20854974 -0.084708214 -0.17331702 -0.4122991
0.13044171 -0.19752266 -0.36118707 -0.16384059 0.0059803394 0.43843323 0.06763697 0.014017761
-0.04560691 -0.022594392 -0.08386099 0.32031375 -0.025828604 -0.010608344 0.33444604 0.24229789
-0.4043935 -0.1712423 0.025752723 -0.29660046 -0.45840672 0.44341794 -0.17825064 -0.2579229
0.43235895 0.10295249 -0.23080248 0.42414635 -0.14993507 -0.22220969 -0.34892523 0.35950178
0.31107634 0.3725172 -0.2429371 -0.3093117 -0.012579799 -0.39585048 -0.3213492 -0.37244004
00000000: 6d80 8e3e 759f d9be bccc 57bd 9009 5cbe
00000010: 29c2 4bbe 1c38 583e 138a 813e 5e2e a7be
00000020: 7a9e ef3c 5c0d b73e d2c8 313e 2e04 e83e
00000030: 2022 52be a0ea 5cbe 8069 30be 00df 0cbe
00000040: 4631 f33e 7c7e f73e 1a02 953e 4072 6ebc
00000050: 80e4 cabe a44b 54be 7870 23be 4c94 14be
00000060: e5e8 c43e f937 b2be 492e 973e 0095 503d
00000070: 2053 503e c9e0 c13d 7007 c23e 6883 0d3e
00000080: c82d 5ebe 6e89 c1be 0a04 cd3e 86cd cebe
00000090: 9acf 00bd 4e09 d03e e14b a2be ec2f c1be
000000a0: 3b60 5a3d 79b0 92bd eb5d 10be 489c c1be
000000b0: d809 f8be 3099 b3bd 7c03 063e 7254 a8be
000000c0: 8eb0 93be 0dfc 923e 081e 2b3e 1c9a 953e
000000d0: 0e40 68be 618f 1d3d 0843 f93e cafc ac3e
000000e0: c32d a33e f608 ad3b 172a de3e b850 90bd
000000f0: ba90 9d3e cd63 a7be 739b ef3d c8e3 dfbe
00000100: 2843 c5bd 2081 b1bd 3ef8 ae3e 3473 cc3e
00000110: d05f b9be eeb8 b43e 3a9e a83e 069b a83e
00000120: 438c 99bb 1c11 ae3e d7b1 26be 56a7 98be
00000130: a43b 4ebe 5210 f2be 60b1 fdbc c82b 643e
00000140: 36b4 01bf 769e fa3e cb46 e33e 7028 14bd
00000150: 85fa c43e 0598 bf3e c595 ccbe 6caa b6be
00000160: 81fb c23e 4dec c33e 65ba edbe b8c2 f6bd
00000170: b6ee ee3d 7877 ee3d d522 82be 6481 86be
00000180: b412 f0be de13 be3b e8ad 213e 5862 a73d
00000190: a7c0 913e bc2d dbbd a713 d13e 8474 7fbe
000001a0: 2f75 d23e 0326 a7be f9d1 a23e c059 b93c
000001b0: 7832 2cbe fdc4 463c a034 0f3e 6838 b83e
000001c0: 112f 07be 0dc3 cf3e 2fcf 303e d0c6 adbd
000001d0: bfd6 e7bd 4354 843e 8249 bcbe 2a5d cfbe
000001e0: 8fb8 e43d 11cd 04bc c668 42be d2fe f63e
000001f0: 5944 f1be ea9d 563e ab2b f2be 5edb cc3e
00000200: da12 e33e a2c6 fdbe 6eac ebbe 3049 ffbe
00000210: e65d 08be eedd 103e 54fb cc3e 927e bd3e
00000220: 56a7 8ebb d8ff bd3e de0b cd3d e88c e4bd
00000230: 4e8b 9c3d d355 8c3e 3e8c 2dbe a062 38bd
00000240: 528c 8d3e a252 d33e 6613 c23e 5c32 5ebe
00000250: 0db8 b0be 8c37 033e 496c c3be 46d2 eebe
00000260: f0f4 15bd be15 abbe 34ab 423e 6e76 eabe
00000270: 633f a7bd 26b7 493e b350 d73e 0060 6239
00000280: e094 9ebc 0046 c8ba d074 e8be c844 febe
00000290: ecb1 f9be d4f3 623e 514b c5be 903d 143e
000002a0: e21e 7abe 5a18 013d 5c14 d63d ecad c3be
000002b0: db05 e53e 7db9 41be 5b15 a6be 2449 523e
000002c0: 9751 2abe 839c e03e 739a f83e 009b 463b
000002d0: 356c 50be 731f f53e a2ca fcbd 6021 1c3e
000002e0: f6e9 db3e 08b9 fa3e 72d8 c23e ae9a 803e
000002f0: 3943 2f3e 5bb4 39bd 2176 483e 7426 063e
00000300: eb9b a3be 6314 8c3d 4310 833e aae3 df3e
00000310: 4e01 cc3e 8ade ebbe 0499 99be a284 debe
00000320: d3d7 b6bd 4682 543d 8d00 1fbe bc0e febe
00000330: e06f 573e 6deb 81be e8bc 54be 2628 a63e
00000340: efe2 8ebe 3f6b 923e 3f8a 6fbe 068b dd3e
00000350: 108e 55be 807b adbd 047a 31be de18 d3be
00000360: 8392 053e 6143 4abe 83ed b8be d4c5 27be
00000370: b9f6 c33b 527a e03e 4085 8a3d c0aa 653c
00000380: 50ce 3abd e017 b9bc 50bf abbd 2a00 a43e
00000390: 8296 d3bc 9fce 2dbc 833c ab3e f01c 783e
000003a0: aa0c cfbe 245a 2fbe 60f7 d23c 04dc 97be
000003b0: 49b4 eabe ad07 e33e 5687 36be 780e 84be
000003c0: 275e dd3e c1d8 d23d 7c57 6cbe b629 d93e
000003d0: 9488 19be f08a 63be 54a6 b2be 9e10 b83e
000003e0: 6645 9f3e 93ba be3e 81c4 78be 1a5e 9ebe
000003f0: 801b 4ebc eaac cabe e287 a4be 76b0 bebe

encoder.0.bias f4 [128]
-0.23735803 0.075894795 -0.44262835 0.14420086 0.17550528 -0.057618916 -0.1471636 -0.3929039
0.10162127 -0.46272165 0.46680552 0.423095 0.32588914 -0.23453213 0.22669853 -0.23485403
0.122306645 -0.26694983 0.28570357 -0.028748095 0.21132061 0.46690518 0.17949434 0.49319753
0.3289107 -0.38693765 -0.44636008 0.40007135 -0.05823185 -0.32214576 -0.16758241 -0.3404952
0.4083274 0.08446763 -0.49426103 0.061651465 0.26273462 -0.1273721 -0.3494023 -0.4212665
-0.45914382 -0.3864336 -0.01915039 -0.43619797 0.12690586 -0.08124181 -0.13208811 -0.36687997
0.42711157 -0.21125294 0.47886962 -0.04589867 0.25051612 -0.08598548 0.38750133 -0.2323185
0.41709203 0.39183155 0.054339528 -0.26703823 -0.39123333 -0.40706033 -0.23175961 0.2886272
-0.10361642 -0.06614006 0.10542801 0.25401875 -0.02799201 0.18362713 0.042220257 0.024785453
0.10953505 -0.07324261 0.4086991 0.3937447 -0.15005541 0.14650851 -0.3391281 0.37529474
-0.4494887 -0.3991953 -0.09232521 0.41447386 -0.37800515 0.013404727 0.3326848 -0.20673323
-0.47619396 -0.41989213 0.37532687 -0.36762407 0.126052 -0.005733878 -0.0027095675 -0.34517005
0.20952326 0.04674518 0.31481963 -0.104017906 0.11036627 -0.02510669 -0.11223608 0.22708291
0.19689016 0.122648336 -0.0051830397 -0.003780365 0.11009763 0.16747482 0.036337603 -0.050033804
-0.09083594 -0.19791102 0.34217125 -0.28308752 0.479137 -0.22947669 -0.3024525 -0.43399322
0.064526886 -0.15128103 -0.47695512 0.26308066 -0.39765757 -0.2502357 -0.07882975 0.31690726
00000000: fc0d 73be bb6e 9b3d 2fa0 e2be 64a9 133e
00000010: a8b7 333e d001 6cbd 0eb2 16be b32a c9be
00000020: d01e d03d dae9 ecbe 2201 ef3e e89f d83e
00000030: f1da a63e 3129 70be a923 683e 937d 70be
00000040: e87b fa3d a6ad 88be bd47 923e 2081 ebbc
00000050: 6e64 583e 320e ef3e 5dcd 373e 6384 fc3e
00000060: fc66 a83e b11c c6be 4f89 e4be 27d6 cc3e
00000070: 8584 6ebd 4af0 a4be b99a 2bbe 6355 aebe
00000080: 4a10 d13e 5dfd ac3d c80f fdbe 3f86 7c3d
00000090: 2785 863e d56d 02be dce4 b2be 3eb0 d7be
000000a0: e614 ebbe a0da c5be 47e1 9cbc 5755 dfbe
000000b0: 9cf3 013e 1b62 a6bd 1b42 07be b1d7 bbbe
000000c0: 5eae da3e b152 58be 662e f53e 3e00 3cbd
000000d0: a643 803e 2819 b0bd 9366 c63e e7e4 6dbe
000000e0: 168d d53e 259e c83e 2093 5e3d 3cb9 88be
000000f0: bc4f c8be 366a d0be 6452 6dbe f2c6 933e
00000100: d834 d4bd 7174 87bd a4ea d73d bf0e 823e
00000110: 804f e5bc c008 3c3e 26ef 2c3d dd0a cb3c
00000120: ea53 e03d 3900 96bd 0241 d13e e898 c93e
00000130: 20a8 19be 5406 163e 33a2 adbe a226 c03e
00000140: 6223 e6be 5463 ccbe 0015 bdbd eb35 d43e
00000150: e489 c1be 809f 5b3c a955 aa3e e0b1 53be
00000160: b2cf f3be 1afc d6be d82a c03e 3939 bcbe
00000170: c713 013e 41e3 bbbb 0093 31bb 21ba b0be
00000180: 448d 563e e077 3f3d 0a30 a13e 5707 d5bd
00000190: b607 e23d 8cac cdbc 08dc e5bd 6c88 683e
000001a0: 939d 493e 0d2f fb3d 7dd6 a9bb 00c0 77bb
000001b0: de7a e13d 857e 2b3e bdd6 143d 3ff0 4cbd
000001c0: 3108 babd 30a9 4abe 1231 af3e d9f0 90be
000001d0: 7251 f53e f0fb 6abe 0edb 9abe 5c34 debe
000001e0: ac26 843d 6ae9 1abe 7633 f4be 82b2 863e
000001f0: c699 cbbe e51e 80be 7e71 a1bd ab41 a23e

encoder.2.weight f4 [128, 128]
0.0014049716 -0.016792186 -0.080784656 -0.055990063 0.07690039 -0.0039005855 0.01990653 -0.060668655
-0.0289442 0.05263395 -0.05495031 -0.08748512 0.0571461 0.028649615 -0.07987021 0.038546186
0.024235701 -0.0070751808 0.009934038 0.017227545 -0.055114634 0.01315257 0.04904313 0.0009815136
-0.015633952 -0.0353591 -0.06735892 0.023828374 0.022145128 0.06656774 0.030037297 -0.030247096
-0.06827752 -0.03199433 -0.03625435 0.00016959304 0.000760894 0.023650736 0.060223464 -0.0586349
-0.08124811 -0.007623448 0.029880451 0.011107029 0.030532164 -0.08061077 0.049462102 0.043578442
0.03802281 -0.05536039 0.019617345 0.04700986 0.025330603 0.024634622 0.033905577 -0.050394677
-0.038036656 -0.028524589 -0.058190677 -0.0027401247 -0.018046558 -0.08330734 0.05994036 -0.026312836
0.011954173 0.00033203117 -0.0068604974 -0.010972235 -0.053112403 0.04506973 0.056078058 0.0076650847
0.049345545 -0.051919445 0.010215437 0.07832584 -0.0039051478 0.040349025 0.048288643 -0.05418575
-0.0681099 -0.06274762 -0.061532784 -0.07129152 -0.041695654 -0.061597124 0.023123248 -0.082906514
-0.087260894 0.038676225 -0.011317092 -0.038875207 -0.057300113 -0.08471082 0.08632348 0.009578219
-0.046697054 0.020686612 0.03367429 0.02513796 -0.024355393 0.010676111 -0.076251715 -0.04343863
0.021664707 -0.013835883 0.02119783 -0.022497967 -0.08738331 0.056980748 -0.0038954434 0.04507596
0.072523095 0.038255624 -0.037897646 -0.06294226 -0.06354946 -0.046745278 -0.0170252 -0.016593825
-0.0014531515 0.024867777 0.035437882 -0.040690802 -0.025828958 0.027019462 0.024280818 -0.075566754
0.06872332 -0.014176808 -0.029335396 0.048387215 0.02063435 0.032628898 -0.035619576 -0.012364884
0.019369217 -0.014374183 0.05440298 -0.08313789 0.06491283 -0.081653714 -0.05182016 0.055419534
-0.04682437 0.039022017 -0.08640416 0.027860247 -0.06151556 -0.017904013 -0.046416618 0.027683346
-0.036481667 -0.06812079 0.0759459 -0.04260843 0.051305473 0.063118115 0.08496266 0.076738745
-0.0091322 -0.007142036 -0.038541637 -0.020865504 -0.083244324 0.07395451 0.0032522404 -0.059533983
-0.048576277 0.07617654 -0.07322445 -0.027400235 0.03534848 -0.06660024 0.030822717 -0.0377285
-0.011749192 0.08083343 0.065552086 0.048281573 -0.007111701 -0.059802942 -0.046897274 -0.0029186693
0.036015503 -0.039657455 0.013238356 0.025583284 0.016587956 -0.054846928 -0.045152053 0.011240586
-0.011702536 -0.029264886 -0.037887644 0.07606926 -0.04112524 0.03241706 0.07636374 -0.05225439
0.013320259 -0.08166654 0.06479947 0.054345652 0.07528112 -0.011706129 0.08751613 -0.009440483
0.051269207 -0.06674451 0.03986093 0.017665861 -0.07609977 -0.0695475 0.043123517 -0.031195201
-0.066922754 0.03103345 -0.0031799797 0.05509498 0.02331139 -0.06100734 -0.08541054 -0.014012036
-0.058179412 0.006572601 0.009780545 0.0054024355 -0.0113285035 0.05733964 0.05448361 0.05198072
-0.046110474 -0.085477054 0.0570287 0.076333575 -0.0034214074 -0.07191659 -0.049896896 -0.0096855145
0.0136992745 0.06076509 -0.015895937 -0.046117947 -0.085692644 -0.00942335 -0.07352866 -0.08295087
0.08579478 0.05733716 -0.07530099 0.0700095 -0.02128146 -0.06565411 0.026670083 -0.038754575
00000000: 0627 b83a c48f 89bc 6d72 a5bd d655 65bd
00000010: f47d 9d3d f7a0 7fbb 0513 a33c b27f 78bd
00000020: 631c edbc b296 573d 9413 61bd 662b b3bd
00000030: 0712 6a3d 99b2 ea3c fe92 a3bd 9be2 1d3d
00000040: f389 c63c ebd6 e7bb 60c2 223c c820 8d3c
00000050: e2bf 61bd e17d 573c 73e1 483d 22a6 803a
00000060: c612 80bc b4d4 10bd 79f3 89bd b933 c33c
00000070: b369 b53c ab54 883d c710 f63c c2c8 f7bc
00000080: 16d5 8bbd 7d0c 03bd 717f 14bd c9d4 3139
00000090: bb76 473a 30bf c13c e1ac 763d 262b 70bd
000000a0: 6965 a6bd 1ece f9bb d9c7 f43c 42fa 353c
000000b0: 971e fa3c 4217 a5bd c698 4a3d 4f7f 323d
000000c0: cebd 1b3d 94c1 62bd 8eb4 a03c 698d 403d
000000d0: 2082 cf3c 8cce c93c 93e0 0a3d a66a 4ebd
000000e0: 53cc 1bbd 66ac e9bc 5959 6ebd aa93 33bb
000000f0: 60d6 93bc 0a9d aabd 0684 753d 048e d7bc
00000100: 70db 433c 7814 ae39 06ce e0bb e4c4 33bc
00000110: 648c 59bd 0a9b 383d 1bb2 653d 642b fb3b
00000120: 8e1e 4a3d 7ca9 54bd a65e 273c 4c69 a03d
00000130: 82ed 7fbb 0545 253d 50ca 453d e1f1 5dbd
00000140: 347d 8bbd d381 80bd cd09 7cbd 4a01 92bd
00000150: 10c9 2abd 444d 7cbd f76c bd3c e4ca a9bd
00000160: d7b5 b2bd f66a 1e3d 536b 39bc 9c3b 1fbd
00000170: 86b3 6abd de7c adbd 5dca b03d f6ed 1c3c
00000180: 6945 3fbd f876 a93c 0dee 093d 20ee cd3c
00000190: f684 c7bc dbea 2e3c dc29 9cbd b4ec 31bd
000001a0: 2f7a b13c e6af 62bc 12a7 ad3c a84d b8bc
000001b0: 05f6 b2bd a564 693d b24a 7fbb 92a1 383d
000001c0: fd86 943d eeb1 1c3d 903a 1bbd dfe7 80bd
000001d0: 3826 82bd fa77 3fbd 6f78 8bbc c6ef 87bc
000001e0: ac77 beba 82b7 cb3c 5027 113d 66ab 26bd
000001f0: 4097 d3bc eb57 dd3c 91e8 c63c bec2 9abd
00000200: d0be 8c3d d845 68bc c950 f0bc ac31 463d
00000210: 5e09 a93c e1a5 053d d5e5 11bd 1596 4abc
00000220: 31ac 9e3c b181 6bbc a9d5 5e3d 3344 aabd
00000230: 05f1 843d 103a a7bd 6041 54bd 98ff 623d
00000240: e9ca 3fbd 8dd5 1f3d aaf4 b0bd 2c3b e43c
00000250: bdf7 7bbd 70ab 92bc 5a1f 3ebd 2fc8 e23c
00000260: cd6d 15bd ea82 8bbd 8689 9b3d 2d86 2ebd
00000270: b025 523d 1244 813d e700 ae3d 3429 9d3d
00000280: 399f 15bc be07 eabb d6dd 1dbd 22ee aabc
00000290: 007c aabd 7675 973d 8a23 553b e8d9 73bd
000002a0: ebf7 46bd 7202 9c3d b3f6 95bd 7576 e0bc
000002b0: 91c9 103d b565 88bd ec7f fc3c 3389 1abd
000002c0: af7f 40bc ff8b a53d 2c40 863d e6c2 453d
000002d0: 4609 e9bb eef3 74bd 5b17 40bd 2547 3fbb
000002e0: fe84 133d db6f 22bd b1e5 583c 0994 d13c
000002f0: 77e3 873c 2ca7 60bd 5cf1 38bd 6f2a 383c
00000300: febb 3fbc eabc efbc 1330 1bbd 33ca 9b3d
00000310: f172 28bd c0c7 043d 9864 9c3d b308 56bd
00000320: 373d 5a3c c940 a7bd 96b5 843d 8c99 5e3d
00000330: fd2c 9a3d 10cb 3fbc a83b b33d 41ac 1abc
00000340: a9ff 513d 58b1 88bd 3745 233d ffb7 903c
00000350: 32da 9bbd eb6e 8ebd 49a2 303d 148d ffbc
00000360: cc0e 89bd dd39 fe3c 3567 50bb 46ab 613d
00000370: 87f7 be3c d5e2 79bd b9eb aebd bd92 65bc
00000380: 894d 6ebd f95e d73b 943e 203c ea06 b13b
00000390: 309b 39bc f8dc 6a3d 352a 5f3d bce9 543d
000003a0: 56de 3cbd 980e afbd ed96 693d c754 9c3d
000003b0: b139 60bb 0149 93bd b060 4cbd feaf 1ebc
000003c0: ec72 603c d1e4 783d 3238 82bc 2ce6 3cbd
000003d0: a07f afbd 6564 1abc 3296 96bd 25e2 a9bd
000003e0: 2cb5 af3d 5fda 6a3d 6837 9abd 2461 8f3d
000003f0: 7556 aebc a975 86bd 387b da3c 1ebd 1ebd

encoder.2.bias f4 [128]
0.08114762 0.07193231 -0.046935037 0.071967416 0.045457583 0.065336406 0.035857886 0.056664106
0.07620694 -0.06366785 0.08331915 -0.011714458 0.026684433 0.009449861 -0.009565182 -0.050855882
0.0049658893 0.085379645 0.055187695 -0.009495927 -0.02728365 -0.016322948 0.03360693 -0.04486078
-0.056509532 0.05613058 -0.06357573 0.00035759964 -0.065217346 0.045340076 -0.0071352716 0.055553183
-0.012641366 -0.03705061 0.02601316 0.033881612 -0.04766873 -0.07027982 0.048784737 -0.046627227
-0.030869268 -0.010137244 -0.011268735 0.07384302 0.09120615 0.07764031 -0.06434293 -0.019087063
0.020910358 0.028819224 0.016099632 0.009979243 0.051803213 -0.012008824 -0.050133068 0.08103273
0.050871294 0.08775316 -0.04290545 0.07570485 0.06354432 0.04083827 0.016305415 0.030355662
0.083285846 0.08024388 0.022640765 -0.043505326 -0.08283061 -0.011177574 -0.006026331 -0.049193528
0.0058596004 -0.021585647 0.06623047 0.06444162 -0.08012509 -0.01078076 0.0060137166 0.049859878
0.06932406 -0.011237449 0.0466324 0.09048669 -0.01778038 0.03555155 0.08614793 -0.033103075
0.07564354 0.05956164 -0.028835673 -0.071343 0.07403355 0.072514415 0.018081293 0.02802605
0.067233235 0.02286502 -0.05681077 -0.029266126 -0.050050236 0.014924246 0.08739964 -0.026070323
0.05381946 -0.07794541 0.056013882 0.038296238 -0.034986522 -0.058638643 0.07571659 0.022838082
-0.037531 0.063922375 0.03081278 0.07635697 -0.08812725 0.041805416 -0.003421376 -0.08548297
0.021759702 -0.007819088 0.00618019 -0.0523922 0.02989829 0.053916086 -0.045367163 -0.016143857
00000000: b930 a63d 3f51 933d f43e 40bd a763 933d
00000010: bb31 3a3d 18cf 853d b8df 123d 9f18 683d
00000020: 6212 9c3d 4a64 82bd 3ba3 aa3d 00ee 3fbc
00000030: 5099 da3c 97d3 1a3c 48b7 1cbc 424e 50bd
00000040: e6b8 a23b 86db ae3d 7e0c 623d ce94 1bbc
00000050: f681 dfbc b4b7 85bc 6ca7 093d f0bf 37bd
00000060: 8a76 67bd 2ee9 653d fe33 82bd 367c bb39
00000070: ac90 85bd 84b6 393d ffce e9bb bc8b 633d
00000080: bb1d 4fbc 61c2 17bd 8d19 d53c 72c7 0a3d
00000090: 4940 43bd deee 8fbd 81d2 473d 31fc 3ebd
000000a0: 8ce1 fcbc af16 26bc 80a0 38bc 023b 973d
000000b0: 4aca ba3d e201 9f3d 3ac6 83bd 795c 9cbc
000000c0: 334c ab3c 4b16 ec3c 60e3 833c fb7f 233c
000000d0: 9b2f 543d a9c0 44bc 5558 4dbd 7df4 a53d
000000e0: 6b5e 503d eeb7 b33d a0bd 2fbd 250b 9b3d
000000f0: 8623 823d 0846 273d ef92 853c 70ac f83c
00000100: c591 aa3d e756 a43d 2079 b93c a432 32bd
00000110: 18a3 a9bd 2522 37bc 8778 c5bb 277f 49bd
00000120: e401 c03b 62d4 b0bc d7a3 873d f8f9 833d
00000130: a018 a4bd c9a1 30bc b60e c53b df39 4c3d
00000140: c6f9 8d3d 471d 38bc 9e01 3f3d 1651 b93d
00000150: 29a8 91bc 819e 113d 536e b03d 1797 07bd
00000160: 00eb 9a3d e8f6 733d ca38 ecbc 471c 92bd
00000170: e79e 973d 7082 943d 381f 943c e396 e53c
00000180: 94b1 893d 6c4f bb3c 69b2 68bd 84bf efbc
00000190: 7a01 4dbd d384 743c 95fe b23d 6e91 d5bc
000001a0: cb71 5c3d d8a1 9fbd d06e 653d 84dc 1c3d
000001b0: 074e 0fbd 132f 70bd 4d11 9b3d ee16 bb3c
000001c0: 1bba 19bd bce9 823d 156b fc3c 0b61 9c3d
000001d0: 0f7c b4bd 283c 2b3d 2a39 60bb b211 afbd
000001e0: 6741 b23c a21b 00bc 3183 ca3b 3499 56bd
000001f0: 42ed f43c 1dd7 5c3d ebd2 39bd 1f40 84bc

actor.weight f4 [4, 128]
0.01567169 0.035476804 0.04274192 -0.024601098 -0.053708076 0.05194197 0.08783438 0.048027687
0.004032376 0.06271123 -0.056225147 0.024191767 -0.08528348 0.06658618 0.089632094 0.069157645
0.0021731337 0.03628632 0.041153155 0.017004568 0.06146279 0.04018039 0.06951086 0.05063794
0.01844632 -0.032611586 -0.04302112 0.0853915 0.07710216 -0.071524814 -0.0047093728 -0.08678604
-0.08246412 0.045735512 0.04588638 -0.057555612 -0.08449323 0.038801793 -0.03188252 -0.0059313755
0.04864053 0.049487524 0.073620774 0.05675678 -0.07482516 -0.04896932 0.0006896947 0.04060401
-0.06691615 0.02437614 0.048807345 0.08124185 0.008637885 0.07741763 0.00561375 -0.007782932
-0.07225525 0.02414376 0.06473295 -0.017731937 0.015147113 0.08251734 -0.036486663 -0.041291293
-0.014833778 0.04865391 0.016898546 0.01967575 -0.013435221 0.08571522 0.017946327 -0.05008157
-0.031087574 0.025959788 -0.026907904 0.05632901 0.08506822 0.010564031 0.054605775 0.053445056
-0.010939984 -0.03656802 0.034691356 0.037157968 0.010068171 -0.059504386 0.020461189 0.034531604
-0.033573966 -0.04648182 -0.06009148 0.056182377 -0.012159627 0.036891516 0.057399888 0.06999408
-0.04111539 0.025560623 -0.079971164 0.05887875 0.028357368 -0.04006204 -0.021271016 -0.043305054
0.03395389 0.04258485 0.07411917 -0.012190744 -0.08343307 -0.06486254 -0.044132788 -0.0787872
-0.047131844 -0.017902963 0.07407071 -0.059611402 -0.029807432 -0.088276066 -0.021398168 0.07574647
0.0065663736 -0.010856929 0.0428341 0.06126568 0.058065355 0.0461313 -0.08018242 -0.07484839
0.07054943 4.8184385e-05 -0.053464763 -0.04549912 0.03905687 -0.058221217 0.024274569 0.0032378975
0.027699735 -0.022059666 0.026573593 0.008427751 0.044416603 -0.004192863 -0.08210498 -0.022573786
0.05016159 0.0461163 0.040989015 0.08561297 0.06458105 0.02837897 -0.039975587 -0.06390395
0.0076848147 -0.011730564 0.058163445 -0.05650276 0.030346924 -0.027698206 0.04852553 -0.002858057
-0.043153096 -0.050248586 -0.016958522 -0.045839656 -0.07712667 -0.047532845 -0.02237943 -0.0757647
-0.033645462 -0.07173231 0.021508085 -0.025634987 -0.06330687 0.0705432 -0.05538678 -0.009143611
0.020442097 0.017149169 -0.049789283 0.079918 -0.014937398 0.07216148 0.023896512 0.027938746
0.062796675 0.016595796 0.019406341 0.01430169 0.004978038 -0.05240949 -0.064610146 0.0454989
0.016794046 -0.0017374511 0.062628396 0.032408535 0.07468039 0.019114258 0.052967295 0.004271973
0.03865414 -0.05179363 -0.012963058 -0.05895039 0.08493577 0.033223294 0.017708208 -0.010705204
-0.07577468 0.064440385 -0.08111533 0.055144694 -0.07162143 -0.0831247 0.053820975 -0.08804964
0.018970296 -0.05952502 0.071967766 0.0012100083 0.03364734 0.008968535 -0.02903275 0.073234
-0.00085897895 -0.019131567 0.05009688 -0.0018797496 -0.021531349 0.06940607 0.07084731 -0.08746712
0.083588175 -0.030886391 0.0151967695 -0.001180354 0.03961241 0.06357578 -0.0871543 0.04470439
0.074414775 0.083937906 0.07950165 -0.059223678 -0.0060893977 -0.082908906 -0.08610239 0.07369741
0.027299019 0.057284202 -0.008446753 0.044296622 -0.05553604 -0.05713179 0.027019354 0.00042601323
00000000: eb61 803c 2050 113d 2712 2f3d 3e88 c9bc
00000010: 00fd 5bbd 1ac1 543d 83e2 b33d aeb8 443d
00000020: 0622 843b bf6e 803d 574c 66bd d02d c63c
00000030: 1ba9 aebd 565e 883d 0891 b73d 86a2 8d3d
00000040: 226b 0e3b f7a0 143d 3690 283d 2a4d 8b3c
00000050: 68c0 7b3d 3194 243d b65b 8e3d bb69 4f3d
00000060: bd1c 973c ba93 05bd ea36 30bd bde1 ae3d
00000070: bde7 9d3d 9a7b 92bd 1551 9abb e1bc b1bd
00000080: f3e2 a8bd 2955 3b3d 5bf3 3b3d 6fbf 6bbd
00000090: c90a adbd a1ee 1e3d 3f97 02bd fc5b c2bb
000000a0: 4b3b 473d 6eb3 4a3d 7dc6 963d cc79 683d
000000b0: ef3d 99bd 0e94 48bd a1cc 343a 6450 263d
000000c0: 560b 89bd 79b0 c73c 36ea 473d 2162 a63d
000000d0: ea85 0d3c 228d 9e3d 8cf3 b73b f707 ffbb
000000e0: 8ffa 93bd 22c9 c53c b592 843d 9142 91bc
000000f0: 992b 783c dafe a83d 0a73 15bd 0f21 29bd
00000100: 6009 73bc 5349 473d d26e 8a3c 0a2f a13c
00000110: 671f 5cbc 768b af3d 2d04 933c 5522 4dbd
00000120: 5eab febc 9fa9 d43c f76d dcbc 3fb9 663d
00000130: 3f38 ae3d c214 2d3c 4eaa 5f3d 34e9 5a3d
00000140: 9e3d 33bc 59c8 15bd 8618 0e3d f432 183d
00000150: f8f4 243c dfba 73bd 399e a73c 0371 0d3d
00000160: db84 09bd b963 3ebd 7c22 76bd 7e1f 663d
00000170: 2c39 47bc 8f1b 173d 251c 6b3d 0e59 8f3d
00000180: 9c68 28bd 8364 d13c ecc7 a3bd d82a 713d
00000190: b64d e83c 1818 24bd 8e40 aebc a460 31bd
000001a0: 3c13 0b3d 746d 2e3d cbcb 973d b0bb 47bc
000001b0: f5de aabd a7d6 84bd 95c4 34bd 2f5b a1bd
000001c0: 520d 41bd 3ca9 92bc 62b2 973d 162b 74bd
000001d0: b72e f4bc 15ca b4bd 364b afbc f720 9b3d
000001e0: bc2a d73b 43e1 31bc cf72 2f3d b9f1 7a3d
000001f0: f0d5 6d3d 2df4 3c3d ae36 a4bd 1d4a 99bd
00000200: 387c 903d 9719 4a38 defd 5abd 495d 3abd
00000210: 19fa 1f3d 5f79 6ebd 76db c63c e832 543b
00000220: 8eea e23c 79b6 b4bc ddb0 d93c 8d14 0a3c
00000230: 2fee 353d 4964 89bb a826 a8bd a9ec b8bc
00000240: 3d76 4d3d 72e4 3c3d 19e4 273d da55 af3d
00000250: 1243 843d 047b e83c 71bd 23bd 13e0 82bd
00000260: e6d0 fb3b 8d31 40bc cb3c 6e3d 706f 67bd
00000270: 1d9a f83c 59e7 e2bc b5c2 463d 3d4e 3bbb
00000280: 4dc1 30bd 76d1 4dbd 99ec 8abc 5dc2 3bbd
00000290: 96f4 9dbd cdb1 42bd 1155 b7bc 862a 9bbd
000002a0: d3cf 09bd 64e8 92bd b931 b03c 7700 d2bc
000002b0: 08a7 81bd f478 903d 40dd 62bd 16cf 15bc
000002c0: 2f76 a73c 6a7c 8c3c d9ef 4bbd 0cac a33d
000002d0: fdbb 74bc 66c9 933d 9ec2 c33c ccdf e43c
000002e0: 8b9b 803d e8f3 873c 0cfa 9e3c a351 6a3c
000002f0: cf1e a33b 55ab 56bd 5352 84bd 0e5d 3a3d
00000300: ab93 893c 2fbb e3ba 5143 803d d0be 043d
00000310: 08f2 983d 8195 9c3c 3cf4 583d e8fb 8b3b
00000320: ce53 1e3d 8f25 54bd 0263 54bc f775 71bd
00000330: cef2 ad3d 2615 083d ce10 913c e164 2fbc
00000340: c12f 9bbd 52f9 833d cb1f a6bd 67df 613d
00000350: 42ae 92bd 483d aabd 6273 5c3d 5f53 b4bd
00000360: 9867 9b3c 82d0 73bd d663 933d 2499 9e3a
00000370: cbd1 093d c3f0 123c 17d6 edbc b5fb 953d
00000380: 1a2d 61ba ceb9 9cbc 6332 4d3d ee61 f6ba
00000390: 8362 b0bc c524 8e3d 6518 913d f621 b3bd
000003a0: 4730 ab3d 7505 fdbc dffb 783c 1cb6 9aba
000003b0: 9f40 223d 0534 823d f47d b2bd f31b 373d
000003c0: c666 983d a3e7 ab3d c3d1 a23d 8794 72bd
000003d0: 9289 c7bb 25cc a9bd 7356 b0bd abee 963d
000003e0: 31a2 df3c d7a2 6a3d 4064 0abc 6070 353d
000003f0: c279 63bd 0603 6abd b157 dd3c 875a df39

actor.bias f4 [4]
0.03544587 0.018360328 -0.0654112 -0.017859641
00000000: b02f 113d 6668 963c 4ff6 85bd 624e 92bc

critic.weight f4 [1, 128]
0.012855044 0.06527386 -0.0543668 0.050517574 -0.0040574367 0.0856161 0.02448044 -0.0030581043
-0.08029252 0.05935979 0.07528425 -0.0764621 -0.021718903 -0.048681665 0.016003193 0.01337465
0.005926047 -0.0653518 0.03514503 0.029237311 -0.074728414 -0.08740933 -0.07880216 -0.06371713
0.06903531 -0.07017592 -0.027533261 0.045689438 -0.075093366 -0.002777934 -0.03234425 -0.07213694
0.05915289 0.069066815 0.048640456 0.059060965 0.06923368 0.001903491 -0.07542966 -0.026825124
-0.027735451 0.06738702 0.009248242 -0.036695216 -0.07752367 0.08608952 0.025567418 -0.00020961734
-0.07865879 -0.058201186 -0.007625408 -0.06419038 0.025264902 -0.02719975 -8.542455e-05 0.026348196
-0.009136374 -0.04044616 0.0629205 -0.013959794 0.014606833 -0.03423932 -0.04937381 -0.02737677
-0.049728133 0.063898824 0.06106081 0.003597929 -0.009669755 -0.026551597 0.066750824 -0.025151763
0.004632715 -0.08048481 0.049339958 0.04431131 -0.053911608 0.036950618 0.038692225 -0.027974062
-0.056377236 0.084607005 -0.06591243 -0.020395236 -0.04863146 0.07131045 -0.027354367 0.03903362
0.06609541 0.064996935 -0.06301358 -0.023685224 -0.05389248 -0.011643887 0.04851767 0.03346705
-0.03107713 0.06708147 -0.078791626 -0.040188797 -0.03183815 -0.08021059 -0.048361674 0.027693272
0.016251508 -0.08276488 -0.013825011 0.029968474 -0.06558401 -0.01739078 -0.072552525 -0.082472675
0.08158986 0.06818115 -0.08151507 0.01853858 -0.0107025495 0.027014181 0.0044298028 0.023136057
-0.08261346 -0.066315286 0.024011994 -0.08484563 -0.051143326 0.020371137 -0.008499618 -0.038268127
00000000: f69d 523c 4dae 853d b9af 5ebd 84eb 4e3d
00000010: 3ff4 84bb 7e57 af3d 348b c83c 7a6a 48bb
00000020: 6870 a4bd 4023 733d a12e 9a3d 2998 9cbd
00000030: d7eb b1bc 6d66 47bd 2119 833c 5921 5b3c
00000040: 492f c23b 2ad7 85bd 3cf4 0f3d 1683 ef3c
00000050: 360b 99bd aa03 b3bd 0763 a1bd 207e 82bd
00000060: 6262 8d3d 65b8 8fbd 6f8d e1bc d924 3b3d
00000070: 8dca 99bd 000e 36bb 677b 04bd 88bc 93bd
00000080: 4d4a 723d e772 8d3d 373b 473d e9e9 713d
00000090: 63ca 8d3d 8f7e f93a de7a 9abd 5dc0 dbbc
000000a0: 7535 e3bc 3502 8a3d f085 173c b94d 16bd
000000b0: bbc4 9ebd b44f b03d c372 d13c bacc 5bb9
000000c0: dc17 a1bd 5e64 6ebd 8fde f9bb 3f76 83bd
000000d0: 57f8 ce3c 03d2 debc f525 b3b8 2cd8 d73c
000000e0: bbb0 15bc dfaa 25bd 77dc 803d 9fb7 64bc
000000f0: 8051 6f3c 873e 0cbd 313c 4abd 3f45 e0bc
00000100: baaf 4bbd 63dd 823d e61a 7a3d 3bcb 6b3b
00000110: e46d 1ebc bc82 d9bc a8b4 883d 120b cebc
00000120: 08ce 973b 38d5 a4bd b218 4a3d c77f 353d
00000130: 6bd2 5cbd 8859 173d bd7b 1e3d dc29 e5bc
00000140: d1eb 66bd 7046 ad3d 19fd 86bd e913 a7bc
00000150: c831 47bd 370b 923d 4416 e0bc b8e1 1f3d
00000160: 085d 873d 1d1d 853d 440d 81bd 8407 c2bc
00000170: 5cbe 5cbd 00c6 3ebc 77ba 463d bf14 093d
00000180: 7795 febc 0262 893d 815d a1bd 029d 24bd
00000190: b868 02bd 7345 a4bd e416 46bd 00dd e23c
000001a0: e221 853c a280 a9bd 4d82 62bc 7280 f53c
000001b0: e950 86bd 1c77 8ebc 6b96 94bd 6fe7 a8bd
000001c0: 9618 a73d 8fa2 8b3d 5ff1 a6bd 38de 973c
000001d0: bf59 2fbc d84c dd3c e127 913b d487 bd3c
000001e0: 3f31 a9bd 4fd0 87bd cdb4 c43c 8cc3 adbd
000001f0: aa7b 51bd 5fe1 a63c fb41 0bbc 0abf 1cbd
