code/models/ppo_checkpoint_500.pt (torch, 75495 bytes, 7 tensors)

encoder.0.weight f4 [128, 5]
000000 17 52 cd 3e 62 93 88 3e a3 5e 0a 3e 01 78 93 3e
       0.40101692 0.26674944 0.13512664 0.28802493
000010 de 13 cb 3e 70 27 f8 bc d6 05 92 3d 91 de d4 3e
       0.39663595 -0.030292243 0.07130019 0.41576055
000020 3b fb 96 be 3e 4d b5 3e bd e8 2e 3e d5 66 59 3e
       -0.2948855 0.35410494 0.1708097 0.21230634
000030 41 49 a0 3e 6c 2f 0d 3e 6f 6c bf 3e ee c5 3e be
       0.31305888 0.13787621 0.37387416 -0.18630192
000040 7e bb 07 bc c5 d7 8f be ed 6d 1a 3e 07 4a aa be
       -0.008284448 -0.28094307 0.15080996 -0.33259603
000050 8d 95 ff bd 82 6c e0 3e 14 be 7a be 4e b3 c6 be
       -0.124796964 0.43832785 -0.24486572 -0.38808674
000060 21 66 c7 3d a0 c1 b1 3e b2 43 10 be 77 30 9d 3e
       0.097362764 0.34718037 -0.14088324 0.30701038
000070 f7 71 86 3e ab c7 3b 3e f2 05 59 bd ac 7c d1 3e
       0.26258823 0.18337886 -0.052984186 0.4091543
000080 21 af b4 3e 4b 84 11 3e 3e 32 1a 3e 04 0f b6 be
       0.35289863 0.14210622 0.15058228 -0.3555833
000090 72 2d 02 3d e3 06 d9 3e f4 cf d3 3e 03 cd 67 3b
       0.03178162 0.42388067 0.41369593 0.003537
0000a0 11 1c b1 bd 51 c3 ce 3c 94 00 51 3e 69 b7 85 bd
       -0.08647931 0.025239618 0.20410377 -0.06529123
0000b0 21 13 95 be 22 2d 03 be ae 34 91 3c ae 51 88 3e
       -0.29116157 -0.12810186 0.017725315 0.26624817
0000c0 60 25 d8 be 21 83 36 3c 8d a3 c2 be 18 d1 d1 3e
       -0.42216015 0.011139662 -0.38015404 0.40979838
0000d0 d6 13 c2 be da 92 be 3d f8 23 ce be 9e c3 93 be
       -0.3790576 0.093053535 -0.40261817 -0.28860182
0000e0 0b c4 e0 3d 26 91 ba 3e 0f b6 45 be 0a 61 be 3e
       0.10974892 0.36438864 -0.19307731 0.3718341
0000f0 24 15 96 3e 45 ae 6f be 2e 46 e0 3e d8 a0 a7 bd
       0.29313004 -0.23406322 0.43803543 -0.081849754
000100 38 4e 35 be 13 d8 bd be d3 7e f9 3c d7 22 b3 be
       -0.1770562 -0.37078914 0.030455982 -0.34987518
000110 b8 be 9e be 60 59 18 be cc f1 aa be 18 f9 d7 3e
       -0.31004882 -0.14877844 -0.333876 0.4218223
000120 91 f6 b5 be 42 90 b5 be 42 56 c7 3e ad 43 3c be
       -0.35539678 -0.35461622 0.38932997 -0.18385191
000130 a3 d0 9c be c7 6a 85 3e ff 07 c5 be 2d 58 af be
       -0.30627927 0.26058027 -0.38482663 -0.3424696
000140 aa df 6a 3e fe 84 bf 3e d5 b8 a7 3e 53 0e b9 3e
       0.22936884 0.37406152 0.32758203 0.3614374
000150 93 da ec 3d 31 12 ab be 8c 43 43 3d eb 82 7d bd
       0.11565127 -0.33412316 0.04767184 -0.06189243
000160 d4 b4 10 be 0f d6 d4 3c f7 07 2c 3c c7 8f 49 3e
       -0.1413148 0.025980977 0.010499946 0.19683753
000170 8f af 63 be ad 8e 14 be 3d b2 7d 3e 94 65 8d be
       -0.22234939 -0.14507551 0.24775024 -0.2761656
000180 d4 24 a2 be 36 74 90 be 3c eb ce be f0 f8 ca be
       -0.31668723 -0.28213662 -0.40413845 -0.3964305
000190 ad 90 d5 be d8 64 9f be cd c2 34 3e b8 b7 e1 3e
       -0.4171194 -0.31131625 0.17652436 0.4408548
0001a0 3c fd a5 3e 51 86 48 be 1b 6c 9e 3e 3b 13 cb 3e
       0.32419765 -0.19582488 0.30941853 0.3966311
0001b0 35 3e 93 bb dd 88 a4 3d 74 be 9c be 19 4f 6a 3e
       -0.0044934996 0.08033917 -0.30614054 0.22881736
0001c0 d6 e7 de bb ed eb 68 bd 72 d8 d3 be ac ff cc 3e
       -0.0068025393 -0.05686562 -0.41376072 0.40038812
0001d0 85 04 2b be 12 f9 d8 3e 85 d3 1d 3e e2 81 c9 be
       -0.16700943 0.42377526 0.1541272 -0.39356905
0001e0 29 d8 ab bd aa f6 cc 3e df ee 35 be e1 9b 50 be
       -0.08390839 0.4003194 -0.17766903 -0.20371963
0001f0 b0 b6 6e 3d bc 24 bc be 81 14 af 3e cf 3f b7 be
       0.058279693 -0.36746776 0.3419533 -0.3579087
000200 60 7e 32 be b2 cb b2 be b3 07 91 3e f1 c4 0d be
       -0.1743102 -0.34921032 0.28326187 -0.13844658
000210 e9 8d cc be 45 0d 5b 3e 7d 89 5a bd 51 d7 3d 3d
       -0.3995202 0.2139178 -0.053353775 0.04634792
000220 5f f0 4a be 5a 14 14 be 0b ec 89 bd 50 03 4f bd
       -0.19818257 -0.14460889 -0.06734475 -0.05054027
000230 bc 4e db 3e 53 66 7b be 0c 6f 6d 3e 7b eb b3 be
       0.42833507 -0.24550752 0.23186892 -0.35140595
000240 e2 c0 b5 3e 2c 62 86 3e 48 2e 09 3e 59 0a bb be
       0.3549872 0.26246774 0.13396561 -0.36531332
000250 33 26 cc be e7 84 a0 3e ce 82 03 be 20 d7 48 3e
       -0.39872894 0.31351396 -0.12842867 0.19613314
000260 e0 6a 3e 3c f4 44 ad 3e 8b 07 90 bd 5b 57 24 3e
       0.011622161 0.3384167 -0.07032689 0.16048948
000270 df 34 34 be c0 51 b4 3e f2 5a d0 be 04 3a d8 bc
       -0.17598294 0.3521862 -0.40694386 -0.026394852
000280 ce 83 2b be ab 96 f4 3d f8 8a a9 3d 3f f6 42 bd
       -0.16749498 0.119428 0.08278459 -0.04759812
000290 f3 e4 fc bc 9f 6c f2 bb 9f d6 06 bc a7 19 a0 3e
       -0.03087089 -0.0073982025 -0.008229881 0.3126957
0002a0 42 00 46 be bc 8f 60 3e 8c 47 5c 3e fa a0 16 3e
       -0.19336036 0.2192983 0.21511668 0.14709845
0002b0 fc da c5 3e 1c 7e 8a be 0c 73 91 3d 34 b5 e4 bb
       0.38643634 -0.2704934 0.071020216 -0.006979609
0002c0 0a fe 83 be 71 be cd be 39 a2 9b 3e 10 af 4a 3e
       -0.25779754 -0.40184358 0.30397204 0.19793344
0002d0 ef 1a 7d bd a1 e8 da be 0f eb b2 bd 45 82 9b be
       -0.061793264 -0.42755607 -0.0873624 -0.30372825
0002e0 3b ef d1 3e 59 3b 69 be f8 de c9 be 8b 95 78 bd
       0.4100283 -0.22776546 -0.39427924 -0.06068949
0002f0 f1 17 bc be 46 9e 7e 3c 1d e3 ce bd da a0 35 bd
       -0.36737016 0.015540665 -0.10101912 -0.044342853
000300 12 77 e4 be 6b 2b 6a 3d 47 30 9d 3a ee d9 88 3c
       -0.44622093 0.057170313 0.0011992537 0.01670548
000310 de 75 91 3c 8d 0b 0a 3e 2b ab 7c be d8 21 e5 3d
       0.017756399 0.13480969 -0.2467467 0.11188096
000320 a4 6b cd be 09 84 29 be a6 e2 fd bd 6d d3 4f 3e
       -0.40121186 -0.16554274 -0.123967454 0.20295496
000330 c2 23 bd 3e 25 e7 c7 be a9 a7 61 3e 6a 69 b7 3d
       0.36941344 -0.39043537 0.22036614 0.08955653
000340 53 d6 29 be 94 94 bf 3e b1 d6 31 3e 8c 8b a5 3e
       -0.16585664 0.37418044 0.17367055 0.32333028
000350 c0 f7 8e be ca 70 b9 bd 65 32 73 be 8e c9 7e be
       -0.27923393 -0.09054716 -0.23749693 -0.24881575
000360 53 11 cc 3e 3e 73 df be de 26 92 be 9f a1 c5 be
       0.39856967 -0.4364261 -0.28545278 -0.3859987
000370 d9 f9 2e be 6d 1e ad be e5 32 a6 bc 15 9e ff 3b
       -0.17087497 -0.33812276 -0.02028794 0.0078008273
000380 04 5d 63 be 74 10 ae be 6e 60 bd 3d 12 02 a9 bd
       -0.22203451 -0.33996928 0.09246908 -0.08252348
000390 d2 d4 14 be f9 90 a4 bd c6 26 c4 3e 89 4e aa be
       -0.1453431 -0.08035464 0.38310832 -0.33263043
0003a0 8b ce a4 3e 64 b9 bf be 03 a7 86 3e bd 66 ad be
       0.3218883 -0.3744613 0.26299295 -0.33867446
0003b0 46 67 84 3b d6 e2 d4 be d3 08 a8 3e 44 7e c7 3d
       0.0040406315 -0.41579312 0.32819232 0.0974088
0003c0 0f ea 13 3e d5 8f 28 3e 89 0c 63 3e 27 45 d8 be
       0.14444755 0.16461118 0.2217275 -0.4224026
0003d0 a9 61 cf bd 44 7b a7 3e be 6f c2 3e 65 a5 a3 be
       -0.10126049 0.32711232 0.37975878 -0.31962124
0003e0 f0 6d 50 be be 38 4d 3e 0c 55 d6 bd 96 4c 94 3c
       -0.20354438 0.20041177 -0.1046544 0.018102925
0003f0 8d 1c 6b be 25 d1 90 be 2c 33 84 3e fa 66 e4 bd
       -0.2296011 -0.28284565 0.2582029 -0.11152454

encoder.0.bias f4 [128]
000000 11 20 8f 3d aa 50 64 be 57 ac 6f be 01 99 5d be
       0.06988538 -0.22296396 -0.23405586 -0.21640398
000010 87 92 8e be 29 9f c1 3b 9e fa 2c be 67 b3 b4 3e
       -0.27846166 0.005908866 -0.16892478 0.35293123
000020 69 64 6e 3e 55 7b c7 be f5 0d 93 3e 07 e8 ad 3e
       0.23280491 -0.38961282 0.28721586 0.33966085
000030 a7 3f 81 3d 5e c2 ff bd dc 78 cd 3d 51 82 84 be
       0.06310969 -0.124882445 0.10032818 -0.25880674
000040 97 c0 84 3e 40 82 ae be be 11 43 be 90 9f 93 3c
       0.25928184 -0.34083748 -0.19049737 0.018020421
000050 9f e0 92 3e f0 6c 86 be 5c 6c d0 3c c6 ad 87 be
       0.28686997 -0.26254988 0.025442295 -0.26499766
000060 07 de 90 be 34 18 c6 3e 27 90 e8 bd 91 f5 94 3c
       -0.28294393 0.3869034 -0.1135562 0.018183501
000070 df 84 9c be de 17 bb 3e 7f d1 cd 3e c2 d1 1c 3e
       -0.30570123 0.36541647 0.40198895 0.15314391
000080 7d 56 8e 3e 62 3a b3 3e 26 a6 96 3e fc 30 b4 be
       0.2780036 0.3500548 0.29423636 -0.35193622
000090 c6 01 ab 3e 1f 60 17 3e 69 d5 d8 be 44 f6 8d 3e
       0.3339979 0.14782761 -0.4235032 0.27726948
0000a0 f8 4f 52 be 23 d9 07 3d 29 58 89 bd 65 1e 9c 3e
       -0.20538318 0.033166062 -0.06706268 0.3049194
0000b0 3b ce db 3e 18 0a a7 3e 1e 78 0e 3e 52 d0 43 bd
       0.4293078 0.32624888 0.13913009 -0.04780609
0000c0 d0 35 2f 3d 35 e0 2c 3e 79 c6 be be 58 0a 93 bd
       0.04277593 0.16882403 -0.37260798 -0.07179707
0000d0 72 c8 68 3e a1 f7 c5 3e f7 15 d8 3e 9d 33 0a be
       0.22732714 0.38665488 0.42204258 -0.13496251
0000e0 7c a7 cf be 6e 7b 18 3e 3a e3 40 3e 81 bf f2 be
       -0.40557468 0.14890835 0.1883668 -0.4741173
0000f0 de a2 d9 be 11 6d aa bd e1 6f d6 be eb eb 8a 3c
       -0.4250707 -0.08321584 -0.41882232 0.016958198
000100 b1 3b d2 3e f4 ce 8d be 21 54 e0 be ca 48 67 be
       0.41061166 -0.27696955 -0.43814185 -0.2258636
000110 7b 54 34 be d3 88 80 be 6d 43 38 3e 2f 60 b9 be
       -0.17610352 -0.2510439 0.17994471 -0.36206195
000120 a2 d4 a9 bd 06 4a ee 3b 6d 96 06 bc 3e 10 85 3e
       -0.082925096 0.007272008 -0.008214575 0.25988954
000130 e5 fc 86 3e e6 86 97 be 36 17 de bd b9 9c 84 be
       0.26364818 -0.29595107 -0.10844271 -0.2590082
000140 53 3e 75 3e ca 03 b2 3e b4 d4 0a 3e 21 22 c7 bd
       0.23949556 0.34768516 0.13557702 -0.097233064
000150 9d 5c e3 be e0 3a 51 3e e8 2b a2 3e 2c cc 54 be
       -0.44406596 0.20432615 0.31674123 -0.2078101
000160 71 a7 cc be 91 ed d0 3e 41 e4 2c be 77 54 51 3e
       -0.39971498 0.4080625 -0.16883947 0.20442377
000170 e5 b7 1e be 4a 95 c9 3e 6c a9 33 3e ac ef 4e be
       -0.15499838 0.3937171 0.17545098 -0.20208615
000180 96 84 aa 3e 8c 6b 33 3e 71 07 27 be 41 d4 5c bd
       0.3330428 0.17521495 -0.16311432 -0.05391336
000190 00 97 19 3d f6 df bd 3e 42 a3 98 bd 6e 38 b2 be
       0.03749752 0.3708493 -0.07453014 -0.34808677
0001a0 ec be 8f 3e 73 a8 86 3e 37 f3 80 be c5 b2 36 3e
       0.2807535 0.26300392 -0.25185558 0.17841633
0001b0 aa 59 00 3e 39 54 17 be b9 13 9c bd 52 b8 c8 be
       0.12534204 -0.14778222 -0.07620949 -0.39203125
0001c0 f1 03 de be b6 cb d8 3e 94 34 38 be c0 7e 70 be
       -0.43362382 0.4234292 -0.17988807 -0.23485851
0001d0 82 76 7a 3e ae 60 1a 3e 30 2e e1 bd 9e 45 30 3e
       0.2445927 0.15075943 -0.10995138 0.17214057
0001e0 88 a3 d0 3d 0b 4a ac bd 98 2e a2 3e 0a 33 8c be
       0.10187441 -0.0841256 0.31676173 -0.2738269
0001f0 c1 2f ae 3e 8f 01 6a be b3 6e 8d be 09 a1 be 3e
       0.34020808 -0.22852157 -0.2762352 0.37232235

encoder.2.weight f4 [128, 128]
000000 72 86 81 bb 63 68 f4 3c ee 53 f7 bb 12 03 33 bd
       -0.0039527947 0.029834932 -0.007547847 -0.0437041
000010 20 bb a3 bc 7a ab 6b 3d 3e 20 ce bc 82 c7 75 3c
       -0.01998669 0.05753658 -0.025161859 0.01500118
000020 02 0b 80 bd e7 0b b1 bd aa 43 30 3c 4c 90 93 bb
       -0.062520996 -0.08644848 0.01075832 -0.0045032855
000030 d6 70 80 bd 31 56 94 bd e9 a5 8d 3d bd 1e 41 3c
       -0.06271522 -0.07243002 0.069164105 0.011787114
000040 1d a7 87 bd 13 08 97 3d 9e 25 4f bd b9 a8 92 3d
       -0.06623671 0.07374587 -0.050572984 0.071610875
000050 3a 42 d2 bc 0a a5 a5 bd 0e c0 46 3d 3e e5 a4 bd
       -0.025666345 -0.08088119 0.048523 -0.08051537
000060 5e b5 90 3d 21 d5 b9 3c ef f0 c0 3c 97 10 4d 3d
       0.07065843 0.022684636 0.023552386 0.05006465
000070 c9 eb 9b bd 88 38 16 bc f7 2a ad bd ee 33 93 bb
       -0.07613332 -0.009168752 -0.084554605 -0.0044922745
000080 6a b3 27 bc f5 b6 f1 bc e6 81 82 3d ec c8 1b 3d
       -0.010235647 -0.029506186 0.063724324 0.03803341
000090 7f 24 9e 3d 22 d7 64 bd 23 cf 24 3d 32 90 8b 3d
       0.07721805 -0.05586923 0.040236603 0.068146124
0000a0 9d 1d 5c 3d 4f 2d 2b 3c 1a ff ac 3d 76 bd 81 bd
       0.05373918 0.010447814 0.08447094 -0.06334965
0000b0 be 4b 8a 3d 55 21 2b bd 4e ee 48 bc 23 8b 1d 3d
       0.06752728 -0.041779835 -0.0122638475 0.03846277
0000c0 40 61 15 bd d7 69 64 bd e2 c7 9c 3d ee da b2 3b
       -0.036469698 -0.055765 0.07655312 0.0054582274
0000d0 21 08 79 bc 6e 33 55 3d a1 b4 4f bd e6 33 88 bd
       -0.015199692 0.052051 -0.05070937 -0.06650524
0000e0 bb 19 ab bc a3 39 53 3d 26 cd a0 3d d6 2d 8c bd
       -0.020886293 0.05156864 0.07851629 -0.0684468
0000f0 c2 05 a9 bd c0 fb 9e bd c1 86 a3 3b ae 62 d8 3c
       -0.08253051 -0.07762861 0.004990429 0.026414242
000100 c4 89 72 bd fe 22 92 bd 01 ee fd 3b d3 bd 48 3d
       -0.059213415 -0.071355805 0.0077493195 0.049009155
000110 5a 82 8b bd 2f 1b 89 3d fd db bf 3a 0b d4 9f 3d
       -0.06811972 0.06694638 0.0014637705 0.07804116
000120 bc 01 7a 3c 3a 18 2b bc b1 33 0c 3d f4 78 1b bd
       0.015259203 -0.010442788 0.034228984 -0.037957147
000130 57 a2 21 bc 77 8c 86 bd 02 4c 87 3d fe 9b 9e bc
       -0.009865365 -0.0656976 0.06606294 -0.019361492
000140 35 10 87 bd 33 48 09 bd 86 ee 2f 3d 53 ca eb bc
       -0.06594888 -0.03351612 0.042952083 -0.028783
000150 cb bc 71 bc b3 c4 6d bd 82 af 7c 3d 4c 71 77 bd
       -0.014754484 -0.058048915 0.061690815 -0.060410783
000160 54 e5 99 3d 73 5f 2a 3c ea f6 a7 bd 1e 39 ac bd
       0.07514444 0.010398733 -0.08201392 -0.08409332
000170 d7 09 51 ba a2 60 97 3c 3c 81 78 bd 97 6e 21 3c
       -0.00079741835 0.018478695 -0.060670123 0.009853027
000180 da 03 b4 bc 20 8f 56 bc d7 59 87 bd 12 ec 4f 3d
       -0.021974493 -0.013095647 -0.066089325 0.050762244
000190 af 47 ca 3c a7 98 62 bc 2d 75 5c bd 23 cc f3 3c
       0.024692385 -0.0138303405 -0.053822685 0.029760426
0001a0 c9 c7 ef bc dc 87 a6 3d e8 cc b4 bd f5 7f 9f bd
       -0.02927007 0.08131382 -0.08828145 -0.07788078
0001b0 19 8a 8f bd a1 e2 02 bd fb 8b 91 bd 8c 19 26 bd
       -0.07008762 -0.03195441 -0.07106777 -0.040551707
0001c0 94 36 74 3c 02 f7 a5 3d 97 e9 65 3d ee e9 9c 3d
       0.014905591 0.081037536 0.05613097 0.07661806
0001d0 0a 00 3c bd 2e 83 02 3d 19 fd 16 3d 69 6b 85 3d
       -0.045898475 0.031863384 0.036862466 0.065146275
0001e0 44 80 02 bd c9 d4 d0 3c d0 28 9c bd e6 b4 cc bc
       -0.031860605 0.025492089 -0.07624972 -0.024988603
0001f0 5e 55 f3 3b 3d 4d 9a 3c a3 7a 96 bd 89 7a 29 3d
       0.007425948 0.018835658 -0.0734761 0.041376624
000200 bc fa 81 3d 6e f7 aa bd 95 4b a9 3d 95 61 d5 bc
       0.06346652 -0.08347975 0.08266369 -0.026047507
000210 cd 64 c9 bc 73 51 a2 3d d8 d3 28 3d bb a2 45 3d
       -0.024584198 0.079256915 0.041217655 0.048250895
000220 c4 47 76 bb 89 8b 72 3d c2 00 f8 3c e5 92 ba 3b
       -0.0037579397 0.059215102 0.030273799 0.0056937807
000230 94 bc 4d 3d 77 d8 40 bc d4 dc 0d 3d a5 cf df bc
       0.05022867 -0.011770359 0.034634426 -0.027320692
000240 1f 6f 4f bd c4 bb 0a bd ec c5 a3 bc 9d fe 91 3d
       -0.050643083 -0.033870474 -0.019991837 0.07128642
000250 9d c7 9d 3c 63 bb 6f 3d f6 08 a9 bd a9 8a 0c 3d
       0.019260222 0.058528315 -0.08253662 0.034311924
000260 89 31 9b 3d 26 00 34 bd 60 d7 b6 3d e6 6d 8e 3d
       0.075778075 -0.043945454 0.08927798 0.06954555
000270 17 90 31 3d d9 7b 62 3d 64 69 8e 3d 99 3f c6 bc
       0.043350305 0.05529389 0.069536954 -0.024200248
000280 3c e8 20 bd e8 e2 98 bd 27 1f ad bd 0b 67 2c 3d
       -0.039283976 -0.07465154 -0.084532075 0.042090457
000290 4c 76 95 3c 5c 6a 34 bd 73 73 99 bc 27 73 7e bc
       0.018244885 -0.044046745 -0.018731808 -0.015530384
0002a0 f6 54 43 3d df 33 ff bc 0f f6 a4 3d 3f a3 a6 3d
       0.047688447 -0.031152664 0.080547445 0.081366055
0002b0 55 14 ab bd dd 58 89 3d 20 74 a8 3d 6c d4 44 3d
       -0.083534874 0.067064025 0.08225274 0.048054144
0002c0 47 b0 92 bd 70 1f 60 3d ea 87 0d bd e6 5b 26 3d
       -0.071625285 0.05471748 -0.034553446 0.040614985
0002d0 ad 42 8e 3d 85 4e 1a bc 7f ad 9c bd 96 65 0a 3b
       0.06946311 -0.009418135 -0.07650279 0.002111768
0002e0 71 e7 ab bd fc b9 0a 3d d9 b0 b1 3c b4 75 1d 3d
       -0.08393753 0.033868775 0.021690773 0.03844233
0002f0 30 73 9f 3d 1e 81 ad 3d d6 d2 df 3c b5 5a 85 bc
       0.07785642 0.08471893 0.027322214 -0.016278604
000300 d0 fa 7f 3d 60 32 8c bc cb 59 a2 bc 0b d1 23 3d
       0.062495053 -0.017113864 -0.019818207 0.03999428
000310 6e bd b2 bd f4 ef f7 3c 54 ce 0a bb 32 05 32 bb
       -0.08727537 0.030265786 -0.002118011 -0.0027163741
000320 c6 eb 46 bd fa d6 b0 3d 95 4a 17 3c b2 1a 5e bd
       -0.048564695 0.086347535 0.00923409 -0.054224677
000330 62 fd a0 bd a5 c2 f2 3b bb 5d fe 3c 51 16 af bd
       -0.07860829 0.0074084573 0.031050554 -0.085491784
000340 aa 30 41 bd f3 2e a3 3d e7 01 48 3d 7b 4e 2a bd
       -0.04716555 0.07967939 0.04882994 -0.04157875
000350 21 8b 25 bd 40 bb 9a 3d 25 fb 51 3d a1 8a f1 3c
       -0.040415887 0.07555246 0.0512649 0.029485049
000360 d6 15 96 bd 4d 91 90 3d d4 c1 73 3d 15 cf 48 bd
       -0.073283836 0.07058964 0.05951102 -0.049025614
000370 e3 6e 7c bd 97 c6 3f bd d9 63 39 bc 31 34 7b bd
       -0.061629187 -0.04682025 -0.011315309 -0.06132907
000380 ff 3f ad 3d d4 ad 2e 3c ba a8 7e bd 79 b7 8c bd
       0.08459472 0.010661561 -0.06217263 -0.06870932
000390 1f db 43 bc 7f 77 94 bd 2b 08 71 bc 5a 8f 09 3d
       -0.011954098 -0.072493546 -0.01471142 0.033583976
0003a0 02 f7 0f bd 23 32 86 3c e6 08 00 bb b3 e0 cb bc
       -0.035147674 0.016381329 -0.0019536554 -0.024887418
0003b0 92 a7 9a 3d 57 7d ff bc 7f 81 be b9 d3 ea 84 3d
       0.07551493 -0.031187696 -0.00036336106 0.06490102
0003c0 60 25 67 bc dc 1c 8b 3c fb 4d 5d 3d 8e ba a5 3d
       -0.014108032 0.016981535 0.054029446 0.08092223
0003d0 6f a2 f8 bc 15 3d a0 bb fa 30 b2 bd 3b 3d b0 3d
       -0.030350892 -0.004890094 -0.08700748 0.08605429
0003e0 d7 9c 1d 3c d4 bd c5 bd b2 6d 97 bd f2 00 7c 3d
       0.009619913 -0.096553475 -0.073939696 0.06152434
0003f0 42 e2 d8 3c 0f 4a 6e 3d eb cc f8 bb 09 3b 2e 3d
       0.026475076 0.058176097 -0.0075927875 0.04253677

encoder.2.bias f4 [128]
000000 8c e3 24 3d 2d c9 b0 ba 1b 02 4b 3d 7e 9a 05 3c
       0.040256068 -0.001348769 0.049562555 0.00815451
000010 a1 ce 86 3d 14 3d 3d 3c c3 37 4d 3c d3 d4 96 bc
       0.0658238 0.011550207 0.012525502 -0.01841203
000020 72 4f 8d bd 49 d9 5c 3d b8 36 38 bc 30 75 2d 3d
       -0.068999186 0.053918157 -0.011243515 0.042348087
000030 c9 3e 2e bd 0d a1 33 3d f3 1f 07 3d b0 17 80 bd
       -0.042540345 0.043854762 0.032989454 -0.06254518
000040 94 90 7d bb 6b bc fe bb 9d a7 c8 bc e4 1d 42 3b
       -0.0038690912 -0.007773926 -0.024493987 0.0029619867
000050 92 69 6b bd 2a cb ec 3b 0a 91 db bd e8 36 83 3d
       -0.057473727 0.0072263675 -0.107210234 0.06406957
000060 20 2c 9c 3c 2c 3a 99 bb 46 09 d6 bc b9 03 c7 bd
       0.01906401 -0.004676124 -0.026127469 -0.09717507
000070 8e 8a 13 bd ff 04 97 bd 73 00 3c bd 85 69 d5 bc
       -0.036020808 -0.07374 -0.045898866 -0.026051292
000080 f4 45 88 3c 55 de 73 bd 5a ef 8c bc 12 86 6a bd
       0.016634919 -0.059538204 -0.017203975 -0.057256766
000090 98 f1 cd bc b5 03 12 bd e0 b3 66 bd 93 6a ad 3b
       -0.025139615 -0.035648067 -0.056323886 0.0052922457
0000a0 cc 33 dd bc d4 d3 b0 bd 40 e1 86 3d 8d 18 89 3d
       -0.027002238 -0.08634153 0.06585932 0.06694136
0000b0 18 bb 0a 3d 9b 1e 82 bd f0 6a 1c 3d d2 f6 95 bd
       0.033869833 -0.06353494 0.03818792 -0.07322468
0000c0 1b 83 ef 3b ff 33 04 bd 81 a0 fc bc 98 68 91 bd
       0.00730933 -0.03227615 -0.030838253 -0.07100028
0000d0 5d 45 0e bd 29 44 82 3d fd 1e ab 3d 84 dc 59 3d
       -0.03473412 0.06360657 0.0835552 0.053188816
0000e0 47 0b 19 bd 47 ef ce bd f9 21 5d 3d 65 dd a8 3d
       -0.03736427 -0.10104232 0.053987477 0.08245353
0000f0 4a 39 0e 3d 84 5c 87 bd 39 f4 29 3d c2 56 b8 3b
       0.034722604 -0.06609443 0.041492674 0.0056255767
000100 05 ac 2e 3d 78 0f 21 3c 03 4b f4 3c 22 64 3c bd
       0.04264452 0.009830348 0.029820925 -0.04599393
000110 7b 5e 82 3d 39 ac 0e bc 6f 51 47 3d dc 3c 2e 3d
       0.06365677 -0.008708053 0.048661646 0.04253851
000120 4f 60 b1 3d 5d 0d 0b 3d a4 c9 82 3d 8c 0d 81 bd
       0.086609475 0.03394829 0.06386116 -0.06301412
000130 d5 98 d3 bd 10 ab ee bc 3a 0d 08 3d 6b 6d 88 39
       -0.10331885 -0.029134303 0.03321574 0.00026021464
000140 fb da 9b 3d e9 e6 20 3d a7 6a b8 bc f7 1d 2a bd
       0.076101266 0.039282713 -0.022511793 -0.041532483
000150 d9 0c 0a bd 7b 1b 14 bc 2b 89 c2 bd 16 aa c9 bc
       -0.03370366 -0.009039755 -0.09498819 -0.024617236
000160 57 52 16 3b 27 f3 28 3d ed 7f 0b bd cc 4e 68 3c
       0.0022937262 0.041247513 -0.034057546 0.014178943
000170 56 53 51 bc c7 a1 38 3d 24 10 a1 bd 0b 89 b4 3d
       -0.0127762165 0.045076158 -0.07864407 0.08815201
000180 8c ea 5d bc 9f 71 b9 bd b5 d5 7b 3d 75 a7 38 bd
       -0.01354469 -0.09054875 0.061483104 -0.045081574
000190 7a f1 dd bc d3 00 7f 3d 59 f4 81 bb ab c4 ef 3c
       -0.027092684 0.062256645 -0.003965896 0.029268583
0001a0 3c 03 44 bd 2d a4 51 3d 47 9b 3c 3d fb 94 97 3d
       -0.047854647 0.05118196 0.04604652 0.07401463
0001b0 e5 08 0f 3d f5 ed ae bb fb 5d ba 3c 65 16 d4 bd
       0.03492059 -0.0053384253 0.022749892 -0.10355834
0001c0 cd c3 a2 bd 50 dd 6a 3d 54 40 3e 3d 74 eb 7d bb
       -0.07947502 0.057339966 0.046448067 -0.0038745077
0001d0 b6 00 69 3d 3e eb 3e bd 3b 9f 2a bd 3a 63 3f bc
       0.056885444 -0.046611063 -0.04165576 -0.011681372
0001e0 31 37 48 bb c3 b4 8f 3d 70 ac 9f 3d d9 80 24 3d
       -0.0030550475 0.070168994 0.07796562 0.04016194
0001f0 e4 ff f6 bb 6c 20 99 3d dd 26 cf 3c 9b 5b ac bd
       -0.0075378288 0.07476887 0.025287086 -0.0841591

actor.weight f4 [4, 128]
000000 3e 48 36 3d c8 49 81 bd f2 ff 49 bd d3 1a b6 bb
       0.04450249 -0.06312901 -0.049316354 -0.005557397
000010 59 1e b0 bd a5 3a 7c 3d 50 d2 42 3c 8b 49 b4 3c
       -0.08599538 0.061579365 0.011890963 0.022007724
000020 2f e1 30 bc 7b 49 41 bc 93 b1 9b bd d5 25 d4 3d
       -0.010795875 -0.011797304 -0.07602229 0.103587784
000030 82 3c a3 bc bc 7a a4 bc 1f 20 2d bd f7 e8 f4 bc
       -0.019926313 -0.020078056 -0.04226696 -0.029896243
000040 c3 ac 68 bd 13 97 18 bd 0d bc 13 3d cd bf a0 3d
       -0.056805383 -0.03725345 0.03606801 0.07849083
000050 df d2 68 bb 5e be 9c bd 49 a1 5b 3d 30 c8 cf 3d
       -0.003552608 -0.07653497 0.05362061 0.101456046
000060 3b d4 9f 3d b5 2b 09 3d da 55 19 3d b5 17 3a 3d
       0.078041516 0.033488948 0.03743539 0.045432765
000070 7e fa b2 3d 94 83 78 3d 7f 4e 6e bd 33 e7 58 bd
       0.08739184 0.060672358 -0.05818033 -0.052954864
000080 9a da 9b 3d 0d 72 a8 bd 66 65 87 bd 8f 35 3d bc
       0.07610054 -0.082248785 -0.06611137 -0.011548414
000090 00 84 8c bd cd 92 10 bd 6e ae 40 3d 33 ad 9e 3d
       -0.068611145 -0.03529625 0.04704135 0.07747879
0000a0 f3 99 b2 bd 0e a1 8a 3d f1 a8 c6 3d d2 fa 17 3a
       -0.0872077 0.06769 0.09700192 0.0005797568
0000b0 61 c2 b0 3d 65 70 14 3c d5 63 74 bd d2 75 16 3c
       0.08630825 0.00906 -0.05966552 0.009183364
0000c0 9a fc f6 3b e9 5f ab bb ef e4 3e 3d 3d 97 4c 3c
       0.0075374367 -0.0052299392 0.046605047 0.01248723
0000d0 04 d9 50 bd 65 7a 6d bd b3 f7 d4 ba b3 da ae 3d
       -0.050988212 -0.057978053 -0.0016248137 0.08537807
0000e0 5a d6 8a 3d e1 77 56 3d bc 37 66 3d b7 a1 ca 3d
       0.067791656 0.05236042 0.056205496 0.09894126
0000f0 68 f8 2e bd 4f 0d 9a 3c 76 19 d3 bc 08 d9 8f bc
       -0.042717367 0.018805174 -0.025768977 -0.017559543
000100 da a7 ea bc 14 77 3a bd 19 40 63 3d 67 d9 c4 3d
       -0.028644491 -0.045523718 0.05548105 0.09611779
000110 99 7e 83 bd 61 3a b6 ba 47 d8 81 3d 57 35 ae 3d
       -0.06420631 -0.0013902896 0.0634008 0.085062675
000120 24 2d 1c bc ec 64 7a 3c 8e 4f d4 3d e1 7e 0a 3d
       -0.009532247 0.015282851 0.10366736 0.033812407
000130 a5 8f a9 3c e5 3e 83 bd 35 07 9c bc f3 4a ad 3c
       0.020698378 -0.064084806 -0.019046405 0.021153903
000140 50 6d 05 bd bb a4 c3 3d b4 65 d6 3d cf a1 43 3c
       -0.03257495 0.09552904 0.10468617 0.011940434
000150 f2 0f d9 bc d3 db 5c 3c 24 5f 7a 3b 9a 8c 97 bd
       -0.026496861 0.013480145 0.003820368 -0.073998645
000160 55 80 19 bd d2 4f 3e 3d 67 f9 f0 bc 23 ac 08 bd
       -0.037475903 0.04646284 -0.0294158 -0.033367287
000170 16 98 b3 3d 44 c9 4b bd 67 26 12 bd 4a 21 04 37
       0.087692425 -0.04975249 -0.035681155 7.875564e-06
000180 aa 81 27 3b ae 21 68 3d 8c 15 3d 3b f6 66 21 bb
       0.0025559464 0.056672744 0.0028851954 -0.002462802
000190 4c 22 2f bd 95 72 3c bd a6 7b e9 bb 7d db 57 bd
       -0.042757317 -0.04600771 -0.0071253357 -0.052699555
0001a0 58 ef 9e 3d 7d 13 46 bd 77 45 01 bc 01 f5 3f bc
       0.07760495 -0.04835843 -0.007890097 -0.011716128
0001b0 1d 27 4c 3d 5d 33 8e 3d 17 c9 c1 b8 8c 30 2a bd
       0.04984199 0.069433905 -9.240413e-05 -0.041550204
0001c0 50 ff 25 bc e9 07 8c 3d 2a 7f f0 3a c2 3c 8f bc
       -0.010131672 0.06837446 0.0018348445 -0.017485026
0001d0 f0 34 6e bd 23 53 57 bd 4d 0e 32 bd b0 8d b9 3c
       -0.058155954 -0.05256952 -0.04347067 0.02265057
0001e0 02 72 8b 3c 03 78 ae bd cd 4a 0f bc 5d 94 86 bc
       0.017022137 -0.08518984 -0.008745861 -0.016428167
0001f0 87 27 e8 3c 14 b2 29 3d 0d 79 45 bd 84 9c 87 bd
       0.02833916 0.041429594 -0.048211146 -0.0662165
000200 f8 45 83 bd 14 c6 14 bd 9f 86 9f 3d 4e 26 ab 3d
       -0.0640983 -0.036321715 0.07789349 0.083569154
000210 1d 18 75 3d 3a 09 04 bc 89 db 95 bd e7 8c 5d bd
       0.05983745 -0.00805884 -0.07317264 -0.054089453
000220 7d 86 af bd 52 ad 44 bd 97 89 04 bd bb 32 bc bd
       -0.085705735 -0.048016854 -0.03235778 -0.091893636
000230 66 1d 4a bd dd 9a ab bc a7 12 bc 3c 47 0e 97 3c
       -0.049344443 -0.020947868 0.022958113 0.018439425
000240 07 25 2a 3c 5b 4e d1 bc d5 54 a1 3c 37 34 23 bd
       0.010384805 -0.025550058 0.019693771 -0.039844718
000250 f6 e5 4a bc 25 cf 16 3c a4 ab a0 3c 78 1d 1f 3c
       -0.0123839285 0.009204661 0.019613095 0.009711616
000260 d6 35 f7 3c d5 2a b0 bd 4c 55 52 3c c0 f2 87 3d
       0.030177038 -0.086019196 0.012837719 0.06638098
000270 df 92 cc 3c 28 48 9a 3b 18 19 88 3d 18 24 43 bd
       0.024972377 0.0047083087 0.06645411 -0.047641844
000280 c9 c2 9e bd f7 ea 98 bc f0 eb 5f bc 6d 25 05 3d
       -0.07751996 -0.018666727 -0.013667092 0.032506395
000290 73 b0 23 3d fb 76 86 3d fe 11 a0 3d 1f 08 9d 3a
       0.039963197 0.065656625 0.07815932 0.001198057
0002a0 04 37 5b 3d 24 8e ae 3d 3f 6c 00 3d 31 08 3f bd
       0.053519264 0.08523205 0.03135323 -0.04663867
0002b0 a6 1c 0d 3d f1 5b 61 bd 19 97 58 bd 51 85 06 bd
       0.03445115 -0.055019323 -0.052878473 -0.032841984
0002c0 e8 5a ce 3c c8 42 30 3b 84 ca 0e 3d 77 00 22 3d
       0.025189832 0.0026895273 0.034861103 0.039551225
0002d0 44 74 83 3d 3d d3 72 bd 62 16 16 3d 55 d5 77 3c
       0.0641866 -0.059283484 0.03664244 0.015126546
0002e0 62 51 2d ba 9a a6 07 bd 0e 17 05 3c e2 3a 15 3d
       -0.0006611553 -0.033117868 0.008123172 0.03643311
0002f0 a6 cb 06 bc fc 6e 58 3d cf 23 29 3d 11 18 87 bd
       -0.0082272645 0.052840218 0.041293915 -0.06596387
000300 74 86 c0 bc 7b d8 3d bd 65 13 8f bc 54 9a a9 3b
       -0.023501612 -0.04634903 -0.017465303 0.005175868
000310 52 9e f7 3c f9 6a a2 bc 8e a9 76 bc 02 6b a4 3d
       0.03022686 -0.0198264 -0.015055073 0.080282226
000320 a6 c1 c8 3c fe 3c 14 bc 78 a9 1a bd 9b 9b 36 bd
       0.024506401 -0.009047745 -0.037759274 -0.04458199
000330 8b 01 14 bd 00 5f b2 3d ee 68 2c 3c 21 75 21 bd
       -0.036134284 0.08709526 0.010523064 -0.039418343
000340 4a da 7d 3d 47 bb a5 3d aa 42 b3 bd 32 69 4e 3d
       0.061975755 0.08092361 -0.087529495 0.05039329
000350 db e4 df 3b 01 6e 36 3d e3 b6 3c bd ae 8c 9b 3d
       0.0068327016 0.0445385 -0.046072852 0.07595192
000360 28 e6 49 bd 52 7a 65 3d 5f b6 c7 bc 9e 6a 90 3b
       -0.04929176 0.056024857 -0.024378954 0.004407241
000370 fa 4c 7b 3d 82 15 81 bd 0e e1 99 3d 92 7f b1 3d
       0.061352707 -0.063029304 0.07513629 0.0866691
000380 00 4f f7 bb 80 65 d9 3c d1 a3 b2 bd 31 07 8c 3d
       -0.0075472593 0.026537657 -0.08722652 0.06837309
000390 8f 8d 91 bd 66 da af 3d bf 6c 75 3d 8f b7 85 bd
       -0.07107078 0.08586578 0.05991816 -0.06529152
0003a0 fd 88 68 3d 14 22 4d 3d b3 29 a6 3d 15 68 a5 3d
       0.056771267 0.050081328 0.08113422 0.08076493
0003b0 dc 1f 94 bc ef bb ad 3d 86 4c 4e 3c bc e1 9b bd
       -0.018081598 0.08483111 0.012591487 -0.07611415
0003c0 bf 6e a4 bd d1 56 7f 3d 75 8e 12 3d 32 78 15 3c
       -0.08028936 0.062338654 0.03578039 0.009122895
0003d0 9a 07 33 bd 5e 1e 77 3b 42 89 26 3d f6 5f c3 3b
       -0.04370842 0.003770731 0.040658243 0.005962367
0003e0 f9 69 71 3d 2f d0 73 3c 0e 40 8c 3a c3 1f 57 bc
       0.058938954 0.014881178 0.0010700242 -0.013130131
0003f0 e2 a3 1c 3d e9 34 1f 3d b1 80 ca 3c 04 f3 0c bd
       0.03824223 0.03886882 0.024719568 -0.034411445

actor.bias f4 [4]
000000 08 9e a6 3d 3b 86 02 3d 75 d6 d7 bd ac ea 85 bd
       0.08135611 0.031866293 -0.10538951 -0.06538901

critic.weight f4 [1, 128]
000000 d5 fb e5 bb 7e 7e 46 3d 5b bd f7 bc c5 81 0c bd
       -0.007018546 0.048460476 -0.030241659 -0.034303445
000010 63 db 1a 3d b4 18 2a bd 8b 06 2b 3d 31 73 af bd
       0.03780688 -0.041527465 0.041754287 -0.08566893
000020 bd 5a 93 3d 15 2f 61 bc 6e cd 3f 3d 83 65 88 3c
       0.07195041 -0.013744135 0.046826772 0.016649967
000030 c0 be 21 3d b7 39 89 bd 6d 3a 8d 3d f8 dc 38 3c
       0.039488554 -0.06700461 0.068959095 0.011283152
000040 01 d6 5e 3d 04 ff d0 bc a5 b6 ab 3c f4 4d af 3d
       0.05440331 -0.025512226 0.020961115 0.0855979
000050 81 6e 2f 3d 0b c0 5a 3d d8 78 91 bc ca c3 7a bd
       0.042829994 0.053405803 -0.017757818 -0.061221875
000060 27 b9 39 bb ee 18 a2 3d 6c 8e 8e bd 52 4d 59 bd
       -0.002833912 0.07914911 -0.069607586 -0.053052254
000070 37 02 51 3d aa 29 03 bd 25 1c ce 38 59 15 80 3d
       0.051027503 -0.032022156 9.828088e-05 0.06254072
000080 dd 0a 44 bb 46 3c 3c 3c 6c 73 5d 3d 6e 6e 25 3d
       -0.0029913702 0.01148898 0.054065153 0.040388517
000090 a1 bf 30 3c 0b e3 5d 3d 07 4f 94 bd c2 ba a7 3c
       0.010787875 0.054171603 -0.07241636 0.020474795
0000a0 b3 db 87 bd ac 84 5c bd 10 ec 23 bd 4b 4a 48 3c
       -0.06633701 -0.053837463 -0.04002005 0.012224744
0000b0 a1 85 3d bc 22 30 4b bc ea 66 55 3b c9 67 82 3c
       -0.011567504 -0.0124016125 0.0032562562 0.01591863
0000c0 90 b6 f4 3c 4b 0e 3a bd 45 a7 a9 3d d5 05 aa 3d
       0.029872209 -0.045423787 0.08283857 0.083018936
0000d0 54 a8 d5 3c 7f a5 7e bd 76 31 ee bc eb 51 9b 3d
       0.026081242 -0.062169548 -0.02907632 0.07583984
0000e0 bc 63 f9 38 d1 ca ba b9 42 f8 81 3d 00 bc af 3c
       0.00011891822 -0.00035627795 0.063461795 0.02145195
0000f0 7f cd dc bc 46 f0 21 3d c3 15 e0 3c 81 f8 09 bd
       -0.026953457 0.039535783 0.027354127 -0.033684257
000100 b9 00 aa bd 0d 04 89 bd 38 2c 93 bd ec 36 a1 bd
       -0.08300919 -0.06690226 -0.071861684 -0.07871804
000110 83 d7 ab bd 16 cd 76 bd 9a f6 72 3d eb 42 b1 3d
       -0.08390715 -0.06025418 0.05931721 0.08655342
000120 08 af 96 bd 87 b8 76 3d b4 13 94 3d e8 3c dd 3c
       -0.07357603 0.060234573 0.072303206 0.027006581
000130 ab 44 4b bd 71 91 7d bd 83 56 d9 bb 7a f3 33 3c
       -0.049626034 -0.06190628 -0.0066326275 0.010983342
000140 ea 59 a8 3c 80 cf 10 bd 00 b2 78 bc 25 3a 5d 3d
       0.020550687 -0.035354137 -0.015179157 0.05401053
000150 2b 18 9d 3d 0e f2 d0 3c f3 b8 cd bc b1 e3 7c 3c
       0.07670625 0.025506046 -0.025112605 0.015435145
000160 39 71 ad 3d fb 58 3b bd a7 2e 6d 3d 87 94 93 3c
       0.08468861 -0.045739155 0.05790582 0.01801516
000170 b6 07 30 3d 93 07 12 3d a6 58 2f bd 40 bc 2f 3d
       0.042976104 0.035651755 -0.04280915 0.04290414
000180 1f 90 56 3d f1 31 a6 bd fd 02 f7 bc 62 79 e5 bb
       0.05238354 -0.08114994 -0.030152792 -0.0070029953
000190 3c fc af bd e1 94 8d 3a ab 9a ac 3d ed 4c 8a 3b
       -0.08593032 0.0010801816 0.08427938 0.004220596
0001a0 59 97 69 3d 61 31 1f bd 28 4e 9f bd da 0e 2e 3d
       0.057029102 -0.03886545 -0.07778579 0.042494632
0001b0 23 d3 86 bd 47 17 9a 3d 68 ef 69 3d 22 95 83 bd
       -0.0658324 0.07523971 0.05711308 -0.06424929
0001c0 cc 1e b3 3a 74 76 a9 bc b8 ab 6e 3d 87 63 ab bd
       0.0013665794 -0.020686366 0.058269233 -0.08368593
0001d0 2a f9 21 3d c7 ed bf bc 0c f6 08 3c eb 65 e4 3c
       0.039544262 -0.02342881 0.008359443 0.02788063
0001e0 b4 b6 9d bc 45 a9 8e bb d1 fd 96 bb 0d d8 52 bd
       -0.019252159 -0.0043536746 -0.004607894 -0.051475573
0001f0 9b 65 86 3d a8 d9 9d 3d 32 aa 47 3d a5 62 94 bd
       0.065623485 0.0770753 0.048746295 -0.072453775
