code/models/prm_seed_0.pt (torch, 74871 bytes, 7 tensors)

encoder.0.weight f4 [128, 4]
000000 70 93 d8 3e 60 9b 2e be 44 b5 03 be d0 86 aa 3d
       0.42299986 -0.17051458 -0.12862116 0.08326495
000010 48 55 85 bd 4e 5a 93 be 1a 78 9e 3e e0 8c 80 3e
       -0.06510407 -0.28779835 0.30951005 0.2510748
000020 32 f8 bb 3e 67 f4 90 3d 16 1f dc 3e a8 ad 91 bd
       0.36712795 0.07077866 0.42992467 -0.071132004
000030 c4 fc 2f 3e 32 96 ac be 50 a9 97 3e 58 4b be 3e
       0.17186266 -0.3370834 0.29621363 0.37166858
000040 c0 cb af be 68 35 9b be 30 b0 06 bd 64 e0 b6 3e
       -0.34335136 -0.30314183 -0.03288287 0.3571807
000050 f0 2b 51 bd 05 57 1c 3e 88 b2 c9 3e 48 ab 70 be
       -0.051067293 0.1526757 0.3939402 -0.23502839
000060 68 1a 05 be 10 14 32 be 88 f1 3e 3e 66 33 e5 be
       -0.12998354 -0.17390466 0.18646824 -0.44765776
000070 08 f9 d1 be 08 dd 10 be 8a 3f a8 3e 24 2c d5 3e
       -0.41010308 -0.14146817 0.32860976 0.4163524
000080 c0 dd aa 3e ee 54 ab be 44 d4 76 3e 84 c6 5b be
       0.33372307 -0.33463234 0.2410441 -0.21462446
000090 6a 26 e3 be ee 27 d1 be b8 9a b0 3d 90 be 25 bd
       -0.44365245 -0.40850776 0.0862326 -0.040464938
0000a0 b4 e4 f3 be 40 0d db bc 62 97 91 be 02 02 f4 3e
       -0.47635424 -0.026739717 -0.28435808 0.47657782
0000b0 3e 4a e7 be 5f 4c 6b 3e f2 3e e6 be f8 91 84 3d
       -0.4517383 0.22978352 -0.44969898 0.06473154
0000c0 00 54 4c 3c a0 03 85 bc 60 2a ea 3e e4 7d 23 3e
       0.012471199 -0.01623708 0.45735455 0.15965992
0000d0 80 39 2b be 68 36 a7 bd 28 de e8 bd 00 3f de be
       -0.16721153 -0.08164674 -0.11370498 -0.4340744
0000e0 04 8f 36 be 22 c7 db 3e 44 67 63 be a8 2f af 3d
       -0.17827994 0.42925364 -0.22207361 0.085540116
0000f0 74 60 3e 3e 54 59 6b be a2 6e ea be 80 30 23 be
       0.18591481 -0.22983295 -0.4578753 -0.1593647
000100 00 ec 03 3d 8a 45 aa be 52 87 d4 be 98 a3 61 3e
       0.03220749 -0.3325618 -0.4150949 0.22035062
000110 00 b9 00 3b 58 86 83 bd a6 6b 94 3e bc 77 0d 3e
       0.0019641519 -0.064221084 0.2898838 0.13815206
000120 88 6f a7 bd d0 b4 d1 bd 9c 85 6b be d0 04 60 3e
       -0.0817557 -0.10239565 -0.23000187 0.21876836
000130 34 af 31 3e 85 08 4d 3e a8 88 ca 3d f4 4b a0 be
       0.17351991 0.20022781 0.09889346 -0.31307948
000140 80 23 38 bc 8a 80 e8 3e 90 39 da be 60 4a c1 bd
       -0.011238933 0.45410568 -0.42622042 -0.09438014
000150 72 4f 8b 3e 2c 2b 16 be fa c0 db 3e 00 f2 82 bd
       0.2720905 -0.14664906 0.42920667 -0.06393814
000160 58 12 81 3d 7a 95 f2 3e 44 b7 59 be 50 7c 4a be
       0.06302327 0.47379667 -0.21261317 -0.19773984
000170 3c 5c 9d be 6a cd 8b be 96 7e df 3e 80 fa dd 3b
       -0.30734432 -0.27305156 0.43651265 0.0067742467
000180 0c 11 a7 be 2e 80 98 be dc b6 c7 be b2 fc 8e 3e
       -0.32630193 -0.29785293 -0.39006698 0.27927166
000190 50 eb cc 3e 48 00 56 be 0c 4d 5d be 4c 08 50 be
       0.4002328 -0.20898545 -0.21611422 -0.20315665
0001a0 80 dc b8 be d8 5f e0 be d0 df ee bd b8 54 ad 3e
       -0.36105728 -0.43823123 -0.116637826 0.33853698
0001b0 50 b9 80 be 94 92 a5 be f0 78 0c be 0e a1 b9 3e
       -0.25141382 -0.32338393 -0.13718009 0.36255687
0001c0 ca 8b 97 3e ce f4 f6 3e 0e 6f b0 be aa 96 8d be
       0.29598838 0.48233646 -0.34459728 -0.2765401
0001d0 7c 06 31 be 16 e7 8d 3e 2a 5d f7 3e 9c 23 ea be
       -0.1728763 0.27715367 0.48313266 -0.45730293
0001e0 3a ab b1 be 40 aa ff 3e aa 1b dc be ba a8 ee be
       -0.34700948 0.49934578 -0.42989856 -0.46613103
0001f0 c0 ab 7d 3c 78 b3 f6 3e 02 4e dc be 24 d0 ce 3e
       0.015482843 0.481838 -0.43028265 0.40393174
000200 50 03 6b be 68 2d 5a be 40 05 4b 3d b0 83 5b 3e
       -0.22950482 -0.21306384 0.049565554 0.21436954
000210 7c 96 cf be 50 d7 e2 be 80 6d a7 3e b0 6c e8 3d
       -0.40544498 -0.44304895 0.3270073 0.113488555
000220 b6 67 d4 be 10 6e eb be b0 f7 41 bd 1c bd 7a be
       -0.41485375 -0.4598241 -0.047355354 -0.24486202
000230 08 63 bb be 16 a4 ac be 30 85 00 3e 76 a8 8c 3e
       -0.36598992 -0.33718938 0.12550807 0.27472275
000240 44 71 94 be 80 2d a4 3e dc ef b9 3e e0 73 61 be
       -0.28992665 0.32065964 0.3631581 -0.22016859
000250 a0 98 e1 bd 11 dd 87 3d c0 5d 2a 3c 50 7d 6a be
       -0.11015439 0.06633962 0.010398328 -0.22899365
000260 76 22 e1 3e fc 15 c0 3e 04 92 2e be 92 c8 f6 3e
       0.43971604 0.37516773 -0.17047888 0.48199898
000270 5c 02 31 be 18 6a f4 3e 6e 65 c0 be 8e 5e 9b 3e
       -0.17286056 0.47737193 -0.37577385 0.30345577
000280 7c e2 02 be e2 b6 eb be 88 5c 93 3d 90 01 52 bd
       -0.1278171 -0.46037966 0.07195383 -0.05127102
000290 70 a7 f4 bd 39 ae 31 3e c8 81 f5 bd c2 08 fd 3e
       -0.11945999 0.17351617 -0.119876444 0.49420744
0002a0 d8 f9 92 3d a4 8f 8c be 10 30 dc 3d 90 b7 ef be
       0.0717656 -0.2745334 0.10751355 -0.46819735
0002b0 24 75 c5 be 78 f9 b4 be 10 ea 7b 3d 5a 8e cf be
       -0.38565934 -0.3534658 0.061502516 -0.40538293
0002c0 f8 f6 d6 3e 08 a3 ad bd 08 34 bf be ee fa 8b be
       0.41985297 -0.08478361 -0.37344384 -0.27339882
0002d0 ec 42 8c 3e 06 75 fb 3e 20 6e c6 3c 64 6f d5 3e
       0.27394807 0.4911272 0.024222434 0.41686547
0002e0 76 31 81 3e e8 f2 de be 38 c1 fc be a0 fd 91 be
       0.25233048 -0.43544698 -0.49366164 -0.28513813
0002f0 c2 cc ca be b9 4a 7e 3e ac 3b 57 3e 48 7d af 3d
       -0.39609343 0.24833192 0.21018857 0.085688174
000300 20 5c 16 3d be b4 80 be ca 2a 89 be e2 31 ca be
       0.03670895 -0.25137895 -0.26790458 -0.39491183
000310 40 37 7a 3d 7a b6 c2 be f0 60 0f 3e fc b6 d5 3e
       0.061087847 -0.38029844 0.14001822 0.41741168
000320 14 28 2a be da bf a3 3e 58 4b 3d 3e 8e 02 81 3e
       -0.16616851 0.3198231 0.18485773 0.25197262
000330 00 9b 4c 3c a7 73 28 3e a4 9e 03 3e 0e 5c ae 3e
       0.012488127 0.16450368 0.12853485 0.34054607
000340 30 19 db be 48 35 92 bd 9e 92 d3 be 90 02 30 3d
       -0.42792654 -0.07139069 -0.41322798 0.042971194
000350 10 3e 77 3e 74 3d d7 3e 58 ab 42 be 60 f6 55 bd
       0.24144769 0.42039073 -0.19010675 -0.052236915
000360 dc 06 50 be 1e e6 d3 3e ce 9f bb 3e d8 64 75 3e
       -0.20315117 0.41386503 0.3664536 0.2396425
000370 da 63 fc 3e cc 07 e5 be 2e e8 91 be 10 1b b1 bd
       0.4929493 -0.4473251 -0.28497452 -0.0864774
000380 26 1a 9f 3e 32 6f cf be 92 9c 8b be e0 c6 d9 3c
       0.31074637 -0.40514523 -0.2726789 0.026584089
000390 56 8c a4 be 70 45 c3 bd a0 e2 53 bd ee 06 e3 be
       -0.32138318 -0.095347285 -0.0517298 -0.44341224
0003a0 70 96 b9 bd bf f7 8b 3d 98 8a fe be 2a 7c ac be
       -0.09061897 0.06834363 -0.49715114 -0.3368848
0003b0 10 21 3a be a3 1d 49 3d 70 aa f7 bd 70 63 d2 be
       -0.18176675 0.04910053 -0.12093055 -0.4109149
0003c0 a2 36 d3 3e 58 4f 0c be 98 dd e8 3d 58 d9 99 3e
       0.4125262 -0.13702142 0.11370391 0.30048633
0003d0 10 bb 19 bd 36 30 8f 3e ae 50 af be 3e a1 a0 3e
       -0.037531912 0.2796647 -0.3424124 0.31373018
0003e0 12 ac c7 3e 90 1e e9 3e f8 20 db bd a8 d5 d1 3e
       0.38998467 0.4553113 -0.10699648 0.4098332
0003f0 26 cd f6 be 72 b3 ef 3e f0 f7 90 be 58 fc 46 be
       -0.4820339 0.46816593 -0.2831416 -0.19432199

encoder.0.bias f4 [128]
000000 b4 8e c3 be e0 72 81 be 67 a2 a3 3d 9c df b1 be
       -0.3819481 -0.25282955 0.0798996 -0.34740913
000010 ba 4c 9b be 04 af 99 3e 38 6f da be 62 36 f3 3e
       -0.30331975 0.3001634 -0.42662978 0.47502428
000020 60 22 3c bd 78 2e 82 3e b4 1f ac be 61 f4 04 be
       -0.04593122 0.25426078 -0.33617938 -0.12983848
000030 b0 c0 23 3e 44 27 e4 be 8d c7 0c bd e4 dc 9f be
       0.15991473 -0.44561207 -0.034369994 -0.31223214
000040 9e 7f 80 be 60 60 66 be 40 db 3a 3e b9 2a bd 3d
       -0.25097364 -0.22497702 0.182477 0.09236664
000050 6f dc ac bd 20 e6 d5 bc 97 d0 43 3e 08 3e f4 be
       -0.08440482 -0.026110709 0.1912254 -0.47703576
000060 54 c5 e0 be da 53 d6 3e 9c 1b 53 3e 34 11 f9 3e
       -0.4390055 0.4186085 0.20616001 0.48645937
000070 33 2a 55 be fa 59 8a be c3 f4 34 bd 71 4b 70 be
       -0.20816879 -0.27021772 -0.044178735 -0.23466279
000080 ee cf c0 be 58 0b bb bd 12 76 80 3e 42 8a 97 3e
       -0.37658638 -0.09133023 0.2509008 0.2959767
000090 8a 24 d3 3e aa 73 e8 be 1c 8f e3 be a3 51 58 be
       0.41238815 -0.45400745 -0.4444512 -0.21124892
0000a0 f8 bf ba 3e 7e 86 f0 3e 40 5c 4e bd ac e2 e9 3e
       0.36474586 0.4697761 -0.050380945 0.4568075
0000b0 6c 85 a5 be f2 af c5 3e 0e 04 ed 3e 11 6e d8 3d
       -0.32328355 0.38610798 0.46292156 0.105678685
0000c0 60 6e b0 be 14 f9 06 3e 29 dc f7 bd 56 ff 96 be
       -0.3445921 0.13180953 -0.12102539 -0.2949168
0000d0 48 33 03 be 07 a8 a4 bd 5d 47 13 3d f0 f7 1f 3d
       -0.12812531 -0.08039861 0.03595673 0.03905481
0000e0 2c 4c 87 3e 5a 8a 88 be 26 a3 d6 be 3b cf eb bc
       0.26425302 -0.26668054 -0.41921347 -0.028785339
0000f0 7c 92 43 be 67 24 f5 bd cc a0 e7 3e 96 6d a2 3e
       -0.19098848 -0.11969834 0.45239866 0.31724232
000100 18 da 1f be f0 1c ac 3d 70 b5 c5 bd 25 c0 ba 3c
       -0.1561054 0.08403957 -0.09653747 0.0227967
000110 ca b3 61 bc 64 f3 99 3e e2 5d f9 be 1a d7 ca 3e
       -0.013775775 0.30068505 -0.4870444 0.39617234
000120 bf 00 34 be cc 2a 94 3e a5 05 61 3e 33 d2 7e bd
       -0.1757841 0.289389 0.2197481 -0.06221218
000130 68 44 aa be e5 72 02 be d8 7b d1 be e9 35 63 be
       -0.33255315 -0.12739141 -0.40914798 -0.22188534
000140 b0 c3 6c be ce 5e 98 3e 08 c7 f8 3e 1e 06 c9 3e
       -0.23121524 0.2975983 0.4858935 0.3926248
000150 0e 5e f4 be be 3a b7 3e ac ac b9 be 64 73 5f be
       -0.47728008 0.35787004 -0.3626455 -0.21821362
000160 1e 30 c5 be 70 db c5 3e cb 9c 01 bc 94 83 ff be
       -0.38513273 0.3864398 -0.0079109175 -0.49905074
000170 20 c8 a4 be e4 9b 04 3e 44 1e 79 3e c0 5a 98 3e
       -0.32183933 0.12950093 0.24327952 0.29756737
000180 10 08 c0 3e 7e 7b a0 3e 70 dc 50 be fd f8 27 be
       0.3750615 0.31344217 -0.2039659 -0.16403575
000190 18 ce 95 bd be ff d4 be ec 6c 81 be 34 b4 8c be
       -0.073147 -0.41601366 -0.25278413 -0.27481234
0001a0 30 ab 88 be 74 7e 43 3e 0d d7 3c 3e 28 ec 89 bd
       -0.26693106 0.19091207 0.1844141 -0.06734496
0001b0 c9 27 0a be b1 41 22 3e 9c 39 cc be 08 1e 9d be
       -0.1349174 0.15845372 -0.39887702 -0.30686975
0001c0 ea 06 f3 be 16 f3 e4 be 92 f0 9f 3e 64 bf b6 3e
       -0.47466213 -0.4471671 0.31238228 0.35692894
0001d0 18 78 b3 bd 14 3d b7 3e 7c 86 b1 be 75 b7 03 3e
       -0.087631404 0.35788786 -0.34672916 0.12862952
0001e0 90 54 c2 3e e0 b0 8b 3e 95 be 6f be 96 05 da 3e
       0.3795514 0.27283382 -0.23412545 0.42582387
0001f0 68 9e e6 3d 76 1b d7 3e d3 dd 63 3d 6e 59 e8 be
       0.11260682 0.4201314 0.05563147 -0.4538073

encoder.2.weight f4 [128, 128]
000000 9d 26 9b 3d 93 99 1c bd f1 e8 a3 bd ea c7 7a 3d
       0.07575724 -0.038232397 -0.080034144 0.06122581
000010 fd 4a ad 3d 76 3f 0b bc 76 cb 3f bd 9e 24 ae 3d
       0.084615685 -0.008499017 -0.046824895 0.08503078
000020 cd de cb bc e6 27 a5 bd 2f ed c3 3c 86 61 70 3d
       -0.024886513 -0.08064251 0.023916809 0.058686756
000030 1e b4 6d 3d 6a 16 4f 3d 20 83 b4 3d 72 ee 5e bd
       0.0580331 0.050558485 0.088140726 -0.054426618
000040 1c 34 a5 3d a6 71 9f 3d 65 1d 9e bd f5 d5 19 3b
       0.0806658 0.077853486 -0.0772045 0.0023473476
000050 95 29 ba 3a 8b 3c 85 bd 7e 67 48 3d e4 fb 3a 3d
       0.0014203066 -0.06505688 0.048926823 0.045650378
000060 bc 03 b1 3c ad e7 b1 3d 7b 47 53 3c 83 92 42 bd
       0.021608226 0.08686767 0.01289546 -0.047503006
000070 46 2c 3b bd 3a a5 a1 3d f0 4f 78 bd 0f f9 9d bd
       -0.04569652 0.078928426 -0.06062311 -0.0771352
000080 2c 8c 9a 3d 9f 0f 48 bd b7 80 5b 3b c2 4a 41 bd
       0.07546267 -0.048843022 0.0033493468 -0.047190435
000090 58 e9 c2 3b 85 84 5e b9 9f cc 5a 3d 89 b9 a7 bd
       0.005948227 -0.00021220937 0.053417798 -0.08189685
0000a0 d6 ee c8 bc fe e5 12 bd 59 b3 01 3c fa 80 8d bd
       -0.024527948 -0.03586387 0.007916295 -0.06909366
0000b0 ba 3b 7d bd 79 f4 76 bc f6 37 89 3c 33 7c ae 3c
       -0.061824538 -0.015072935 0.016750317 0.021299457
0000c0 c7 45 94 3d 81 34 7a 3d 13 cf 32 3d fa 59 e8 bc
       0.072398715 0.061085228 0.043654513 -0.028363217
0000d0 50 2f 67 3d 32 c6 a4 3d b4 1b f1 3b 43 1c 4a 3d
       0.056441605 0.08045615 0.007358039 0.04934336
0000e0 36 f6 62 3d 28 06 9b 3d 0c 36 31 bd 53 cd 18 3b
       0.055410586 0.075695336 -0.043264434 0.0023315742
0000f0 19 bb 63 3c 4c c3 78 3d 60 49 ae bc 61 fb 32 bd
       0.013899588 0.060733125 -0.021275222 -0.043696765
000100 03 d3 4f 3d 3e 59 9e 3d 9d 53 87 3c 9b c9 56 bd
       0.050738346 0.07731865 0.016519362 -0.05243836
000110 d5 17 82 3d 43 b9 3d bc 1f 04 7a 3b 58 43 a0 bd
       0.06352202 -0.011579814 0.003814943 -0.07825345
000120 ad 41 c5 3c 75 3b dc bc c8 46 a3 3c 1f 38 9e 3d
       0.024079168 -0.02688382 0.019931212 0.07725548
000130 8d 1e 6b 3d 75 09 0b 3b 47 0d f9 bc 1c 36 12 3d
       0.057402182 0.0021215354 -0.030401839 0.035696134
000140 11 dd 3c 3d b6 57 81 bc 3d d2 ab bc ad 5f a8 3d
       0.046109263 -0.015788894 -0.020974273 0.08221374
000150 d7 ea d8 bc dd 79 3e 3d cf 79 c8 3b f7 b9 ba 3c
       -0.026479168 0.046502937 0.0061180363 0.022793753
000160 8d 7c 65 ba 6d 6c cf 3c 7c 02 b2 bd a1 b1 67 bd
       -0.0008754216 0.025320256 -0.0869188 -0.056565885
000170 bf 54 8d bd 54 62 51 3d e0 50 9d 3d c2 9b 66 3d
       -0.0690093 0.051119164 0.07681441 0.056300886
000180 d2 ae f6 bc 05 7b 92 3c 42 c6 9d bd 71 d7 1f 3d
       -0.030112658 0.017880926 -0.0770383 0.03902382
000190 ed 86 4a bd 70 0a 62 3b 3b 8b af bd c7 d5 af 3d
       -0.04944508 0.0034491085 -0.08571478 0.08585697
0001a0 cf c7 40 3d 28 44 86 3d ee 62 4a 3d ff 97 8e 3d
       0.047065552 0.065559685 0.049410753 0.06962585
0001b0 f0 ed 3c 3d 55 a4 d3 bc 58 c7 e6 bc d2 28 ff 3c
       0.046125352 -0.025835196 -0.028171226 0.031147394
0001c0 d4 fd 46 3c 54 11 06 bc c7 ce c7 bc 5d be 64 bd
       0.012145478 -0.008182842 -0.024390591 -0.055845607
0001d0 a1 3b 3b 3c 82 25 d5 bc 3c 86 60 3d ea 4c a5 bc
       0.011427791 -0.026018862 0.054815516 -0.020178277
0001e0 86 40 87 bd c9 7d 89 bd 13 25 94 bd ab a3 95 bd
       -0.06604104 -0.06713445 -0.07233634 -0.07306608
0001f0 24 88 0f 3d af a4 87 3d 01 80 be bb 32 64 90 bd
       0.035041943 0.06623208 -0.005813599 -0.07050361
000200 77 5b a4 bd aa c7 a2 bd 7d 85 af 3d 95 bf 31 3d
       -0.08025258 -0.07948239 0.08570383 0.043395597
000210 11 f8 4d 3c 2e 67 7d 3d 94 29 bf bc 2a 13 4b 3d
       0.012571351 0.061865978 -0.023335256 0.049578823
000220 bb 75 46 bd 39 bf 64 bc dc 27 57 bc 7a 89 39 3d
       -0.04845212 -0.013961607 -0.013132062 0.045297123
000230 92 4c 84 bd 87 3d ad bd 97 9f a3 3b 52 51 7c bb
       -0.06459917 -0.08459001 0.00499339 -0.003850062
000240 17 68 6b 3d 75 d2 b0 3c 9a 49 7f 3d e6 81 72 bc
       0.057472315 0.021584729 0.06232605 -0.014801478
000250 d0 a6 6b 3a 13 66 27 3d 02 fb a4 bd 2d 41 65 3d
       0.00089893956 0.04086883 -0.080556884 0.05597036
000260 95 05 ae bb cc a8 87 3d a3 08 af 3d fc f3 b0 3d
       -0.005310724 0.06623992 0.08546569 0.08640286
000270 a1 ea a9 bd 21 a9 03 3d 9f f9 02 bd 45 7e 95 3d
       -0.08296705 0.032143716 -0.03197634 0.072994746
000280 e6 b5 4d 3d bd 7c db bc 00 9e 49 bd 9f 80 06 bd
       0.0502223 -0.026792878 -0.049222946 -0.032837506
000290 95 d0 68 3d 99 e0 a9 bd 96 ac af bc b0 17 86 3d
       0.056839544 -0.08294792 -0.0214446 0.06547487
0002a0 ea bd 26 bc 0a 49 c4 3c 0b 91 5d 3d de 17 ce bc
       -0.010177115 0.023960609 0.054093402 -0.025157865
0002b0 f1 25 24 b9 a0 3e 85 bd 99 ed 22 3d 4c ac 8a ba
       -0.00015654393 -0.065060854 0.039777372 -0.0010579913
0002c0 b1 6d 13 3d f6 eb 92 bd 64 c3 7f 3d c7 bf 95 3d
       0.03599328 -0.07173912 0.0624422 0.07311969
0002d0 fb 6d b4 3d 70 7d 71 bd 47 0e c1 3c 78 f2 7d bc
       0.088100396 -0.058957517 0.023566378 -0.015499704
0002e0 c0 20 ae 3d 84 b3 4a bc 62 19 4d 3d 84 ed 71 3d
       0.0850234 -0.012371901 0.050073035 0.059064403
0002f0 97 0f 74 bd 9a d3 0b 3c aa af b1 bd d5 e4 e4 3c
       -0.05958518 0.008534336 -0.086760834 0.027941147
000300 ba 60 27 3c b8 99 b3 3c 11 19 46 3d 20 f4 f5 bc
       0.0102159325 0.021923885 0.04836375 -0.030023634
000310 7f dd a1 3d 6b a1 87 bc a3 b9 90 bd 77 1b 0b 3d
       0.07903575 -0.016556462 -0.070666574 0.03396174
000320 50 c7 91 bd 69 92 34 bd 2b d5 1c bb 7d 0e e9 3a
       -0.07118094 -0.04408494 -0.002393077 0.0017780807
000330 83 f7 00 3d b1 f9 32 3c a6 a4 b0 3d c4 fc 87 3c
       0.031486046 0.010923789 0.08625154 0.01660002
000340 2a c3 9b 3a b6 1f b9 3c 41 16 2e 3d 15 26 09 bd
       0.0011883725 0.022598129 0.04250169 -0.033483583
000350 8a 5e a4 3d 9d 43 42 3c d8 f1 39 bd f4 65 92 3d
       0.080258444 0.011856941 -0.045396656 0.07148352
000360 da f9 a9 bd a7 03 62 bd 5b 60 cc 3c 0a cf 22 bd
       -0.082996085 -0.055179264 0.02494829 -0.03974823
000370 e4 c6 e4 bc 81 c1 f4 3c 82 5c b3 3d 00 fb 9d bd
       -0.02792687 0.029877426 0.08757879 -0.0771389
000380 13 72 b1 3d d7 9c 96 3d 59 73 26 3d f9 8e 43 bd
       0.08664336 0.073541336 0.040637348 -0.04774377
000390 9f c5 80 3d fd b7 b1 3d d2 54 e5 bc 95 1a a4 3c
       0.06287693 0.08677671 -0.027994547 0.020032207
0003a0 85 9d 7a bc 99 33 4e 3c d4 1e 02 bc d6 48 b8 bc
       -0.015296345 0.012585544 -0.00794192 -0.022495668
0003b0 4b 21 02 bd 5d a2 93 bd ba 8a 0d bd 38 fa 81 bd
       -0.031770032 -0.07208703 -0.034556128 -0.063465536
0003c0 d6 56 32 bd 20 44 a1 3d 0f 4d 29 bd c3 79 96 bc
       -0.043539844 0.07874322 -0.041333254 -0.018368607
0003d0 16 b9 7a bd 6d 68 47 bd 12 fb 49 3d 59 6e a5 bc
       -0.061211668 -0.048683573 0.049311705 -0.02019422
0003e0 9e 6b 58 3d 98 88 24 3d 85 00 9f 3d 97 dd 5f 39
       0.052837007 0.04016933 0.07763771 0.00021349486
0003f0 7a 81 7f 3d ae 74 99 bd 36 70 98 3d 8d 44 23 bc
       0.062379338 -0.07492958 0.074432775 -0.009965074

encoder.2.bias f4 [128]
000000 f5 40 65 bd 14 c1 10 3c 93 e8 69 bd 15 34 aa 3d
       -0.05597015 0.008835096 -0.057106566 0.08310715
000010 2e 11 54 3c 89 11 22 bd a6 3d 68 3d e8 5d 47 3c
       0.012943549 -0.039567504 0.056699418 0.012168385
000020 0b ff b4 3d ab 71 4a bc b4 10 89 3d 46 38 85 bd
       0.08837708 -0.012356202 0.06692639 -0.06504874
000030 59 a1 8a bd 8c 85 b1 3d 01 32 b3 bd 44 62 8d 3d
       -0.06769056 0.0866805 -0.08749772 0.06903508
000040 92 c2 45 bb ee 2b 76 3d fd 1b 04 bd 93 e3 3e 3c
       -0.0030175787 0.06010049 -0.032253254 0.011650938
000050 d2 ee 68 3d 06 64 bc 3c 94 32 98 3d 42 eb 91 bd
       0.05686838 0.022996914 0.07431522 -0.0712495
000060 13 a5 03 3d 5c 04 a4 3d 9f 30 6c 3d 1a 9e c2 3c
       0.03213985 0.08008644 0.057663556 0.02375703
000070 86 02 84 3d e9 93 aa bc ad e6 b4 3c 2b c8 a6 bc
       0.06445794 -0.020822482 0.022082651 -0.02035912
000080 cd 31 80 3d 1b ed 8a 3c 03 1e 99 3b a0 d3 b9 3a
       0.06259499 0.016958764 0.004672767 0.0014177449
000090 4d 48 8d bd 5b 71 59 bd 3a 86 2f bd 4c 1e 91 bd
       -0.06898556 -0.05308662 -0.042852618 -0.07085857
0000a0 15 91 91 bc 7d 34 a9 bd 72 79 0b bc f0 51 4a bd
       -0.017769376 -0.082619645 -0.008512842 -0.049394548
0000b0 fc d9 f5 bb 41 78 9b 3d 93 9c 0e bd 20 ba af bd
       -0.0075027924 0.07591296 -0.03481729 -0.085804224
0000c0 da d7 82 3c 38 71 38 bd b3 d5 7f bd 26 76 19 3c
       0.015972067 -0.04502985 -0.06245966 0.009366548
0000d0 77 fb 37 bd ea 44 1c bc e9 53 86 3d 6a ae f7 3c
       -0.04491755 -0.009537915 0.06558973 0.030234534
0000e0 03 9d 37 bd 62 05 15 3d d8 64 8d bd a4 17 25 bd
       -0.044827472 0.036382087 -0.06904 -0.04030575
0000f0 f6 a4 a0 3d 08 a6 a2 bc 7c ee 92 3d 77 b1 56 bd
       0.07843964 -0.01985456 0.071743935 -0.052415337
000100 dd b4 96 3d da 24 9c 3d 46 6b 04 3d c0 94 bf 39
       0.07358716 0.076242164 0.032328866 0.00036541186
000110 3d 01 a6 bd db 4e ae bb dc 22 b7 bb 01 51 3a bb
       -0.08105705 -0.005319459 -0.0055888724 -0.002842963
000120 01 50 61 3d 03 4e b8 bc 25 69 64 3d f8 4e 34 bd
       0.05500794 -0.022498136 0.055764336 -0.044020623
000130 c1 65 85 bd a8 1e a6 3d 42 73 52 bc 00 dc 8d 3d
       -0.06513549 0.08111316 -0.012844862 0.06926727
000140 c6 e9 f3 3c 58 63 10 bd 9a 31 12 3d 9a d4 0a 3b
       0.029774558 -0.03525099 0.035691835 0.002118385
000150 15 8a 70 3d 81 dd 84 3b 53 8e 36 bc 2a 02 d2 3c
       0.058725435 0.0040547256 -0.011142331 0.025635798
000160 7a 03 4d 3d 09 6a ed 3c 42 95 e7 bb 25 8e 34 bd
       0.050052144 0.028981226 -0.0070673535 -0.044080872
000170 6e 73 d8 3c ec 6d 1e bc ba 4c 97 bc b0 3d bf 3b
       0.026422229 -0.009669762 -0.018469203 0.005836211
000180 1f f0 50 3c 66 3b 83 bd b5 ed 27 3c 4f b9 7a bd
       0.012752562 -0.06407814 0.010249545 -0.06121188
000190 a8 0a 97 3d 95 2f 6c bd c8 ce 1c 3d 97 61 c4 3c
       0.073750794 -0.057662565 0.03828314 0.023972316
0001a0 82 f3 57 bc 94 3d ba bc 99 a6 b3 bc ab 6a a0 3d
       -0.013180615 -0.02273444 -0.021930026 0.07832845
0001b0 52 2d 07 bd 93 54 fa 3c fd 90 a0 3b b1 82 9a bd
       -0.033002205 0.030557906 0.0049000965 -0.07544459
0001c0 33 57 06 3b 6d dd 41 bd 26 eb ea bc a8 eb 52 3d
       0.0020498752 -0.04733031 -0.02867658 0.05149427
0001d0 c6 be a5 3d f1 13 a7 3d d1 46 c7 bc 2c 43 46 3d
       0.08093028 0.081581004 -0.02432576 0.048403904
0001e0 8d be a8 bd 5f 62 c2 3c 0f 14 df bc 85 07 55 bd
       -0.0823947 0.023728548 -0.027231244 -0.052009124
0001f0 cf 1c 95 bd c7 6d 45 3c f9 9d a7 3d e9 4f f9 bb
       -0.072808854 0.012050099 0.08184428 -0.007608403

actor.weight f4 [4, 128]
000000 20 3c 39 3d f8 90 91 3c 35 51 43 bd b3 bc 98 bc
       0.045223355 0.017769322 -0.047684867 -0.018644666
000010 5c 98 ad bd f6 18 76 3c 1a e0 c3 3c ce c2 9b 3d
       -0.08476326 0.0150206 0.02391057 0.076055154
000020 72 93 6b 3d 4d fc e0 bc e9 ac fb 3c 90 13 42 bd
       0.05751366 -0.027464056 0.030722098 -0.047381938
000030 f4 2c 86 3c d5 ab 47 3d f5 4b 57 bd 39 08 11 3d
       0.016378857 0.048747856 -0.052562673 0.035408232
000040 b2 42 31 3c c1 b6 31 bd 79 a3 98 bd 70 8c 8f 3d
       0.010819124 -0.04338718 -0.07453055 0.07009208
000050 5e ac 5d 3b f3 ab af 3d 77 d2 3b 3d ec a5 8e 3d
       0.0033824663 0.085777186 0.04585501 0.06965241
000060 76 b2 b4 bc 11 f6 02 bd 6e c7 17 3d 81 f1 8b bd
       -0.022057753 -0.03197295 0.037055425 -0.068331726
000070 c1 bb aa 3d f8 aa 86 bc 5f d4 3e 3c e0 d2 ae 3d
       0.083365925 -0.016438946 0.011647313 0.08536315
000080 ae ef ab bd 74 f3 b2 bd a2 5f 09 3d e2 52 4d 3d
       -0.08395325 -0.08737841 0.03353847 0.05012787
000090 a1 5e 35 bd 0f 9b 9c bd ed 7b b8 bc 52 ce 24 bc
       -0.0442797 -0.076467626 -0.02252003 -0.010058956
0000a0 b8 5d 32 bd 8c 26 9e 3c d8 c0 78 3d 73 b0 6d 3d
       -0.04354641 0.01930549 0.060730785 0.058029603
0000b0 64 36 ab bd 03 5b 92 bd a8 a0 08 bd 02 1b 93 3c
       -0.083599836 -0.07146265 -0.03335634 0.017957214
0000c0 b5 03 27 3d fc 1b a3 3d 81 34 67 3d 39 e8 b0 3d
       0.04077502 0.07964322 0.056446556 0.08638043
0000d0 f0 7d 60 bd 06 08 81 3d b8 66 44 3d c1 93 39 bc
       -0.054807603 0.063003585 0.047949523 -0.011326731
0000e0 06 af 47 bd 07 47 c4 3c e1 fb b0 bd 6d da 60 bc
       -0.0487509 0.02395965 -0.08641792 -0.013723952
0000f0 2b 68 95 3d 18 6d f0 3c a9 a6 54 3d c6 3c cd bb
       0.07295259 0.029348895 0.051916752 -0.0062633483
000100 99 96 f7 3c 59 21 99 bd 73 67 3d bd a7 60 89 3b
       0.030223178 -0.07477064 -0.046241235 0.00419243
000110 9b 56 55 3d 0b c2 fb bc 0c fb 06 bd 3b f1 a8 bd
       0.052084547 -0.030732175 -0.03295426 -0.08249136
000120 6a de 1a bb 14 e3 10 3c 26 b3 9f bd f5 76 16 bd
       -0.0023631104 0.008843202 -0.07797842 -0.03673454
000130 ae 94 a7 3d 57 d8 9a 3c 6f 47 7e bd 3c dd bf bc
       0.08182655 0.018901987 -0.062079843 -0.023420922
000140 0d 46 a8 3d d0 46 43 bd 88 1b 0f bd 07 ed 1b 3d
       0.08216486 -0.047674954 -0.034938365 0.038067844
000150 5d 4a a1 bd ea 4a 64 3d 2f 5f 4d 3d 26 99 9d bd
       -0.07875512 0.055735506 0.050139602 -0.07695226
000160 35 d0 53 bd a6 9d 7b 3d d7 5b d3 bb 5b 12 fb 3c
       -0.051712234 0.061429642 -0.006450157 0.030648401
000170 0b ad 43 3d a4 ac ba bc 48 37 27 bd f8 b6 43 3d
       0.04777245 -0.0227874 -0.040824205 0.047781914
000180 59 40 5d 3d a1 59 be bc 04 81 43 3d 13 4b 2f bc
       0.054016445 -0.023236098 0.04773046 -0.010699051
000190 b7 b4 95 3d 49 2b 83 3c 14 60 68 bd ac 3f 86 3d
       0.07309859 0.01601185 -0.056732252 0.06555113
0001a0 2a dd 73 bd a5 ec 12 bc db 16 cc bc 98 e0 b4 3d
       -0.05953709 -0.008967553 -0.024913242 0.088319
0001b0 c9 be 9f bd 9d fa 81 bd ea cd 94 bd a5 c9 99 3d
       -0.07800061 -0.06346629 -0.072658375 0.07509164
0001c0 2b dd e8 bc 03 4c 77 3d 0d e2 25 bc 5d be 9a 3d
       -0.028425774 0.060375225 -0.0101246955 0.0755584
0001d0 30 95 80 3d db 7b 5a bd df 96 0a bd 0a 76 90 3d
       0.06278455 -0.053340774 -0.033835288 0.07053764
0001e0 0b 4d cd 3c 0b b7 42 3c bf 09 07 3d 86 c4 54 3d
       0.025061151 0.011884461 0.03296828 0.05194523
0001f0 70 0d 30 b9 b8 6e 2e bd 8b e7 38 3d df a0 fd 3c
       -0.00016789674 -0.04258606 0.04514269 0.030960498
000200 d8 2c 0d 3d 1a 23 0b bd 6b 63 cf 3b c2 dc 9a 3d
       0.034466594 -0.033969022 0.00632899 0.075616375
000210 65 ab 51 bd 47 65 9f bd 03 06 8d bd 80 8c 92 3d
       -0.051188845 -0.07782989 -0.06885912 0.071557045
000220 5c 42 85 bd a6 7b 71 bd 29 58 8f 3c 37 fe af bc
       -0.06506798 -0.05895581 0.017498093 -0.021483524
000230 de e1 a4 bd 83 65 b1 bc 4c df 8c bd 47 de 63 bd
       -0.08050893 -0.02165485 -0.06878528 -0.055631902
000240 0a 1c 41 3d 55 b6 9e 3d d7 31 a1 3d 96 29 85 3d
       0.04714588 0.07749621 0.07870834 0.065020725
000250 15 97 b4 3d 7a 7a 4d bc f3 05 89 bd 82 68 22 3d
       0.08817879 -0.012541408 -0.06690588 0.039650448
000260 3a a1 83 3b 06 6f 87 3d ad 2b ad bd b1 0c 62 3c
       0.0040170224 0.06612973 -0.08455596 0.013796971
000270 0e a6 03 bd df 12 50 3d e5 8c 8a bd db da 8f 3d
       -0.032140784 0.050799247 -0.06765155 0.07024165
000280 e0 c3 9d 3d b0 42 8c bd d0 b4 ae bd bf ff a2 bd
       0.07703376 -0.06848657 -0.08530581 -0.07958936
000290 8a 2a 06 bd 17 49 49 3d 4a ef 59 bd a2 31 30 bb
       -0.032755412 0.04914197 -0.05320672 -0.0026885052
0002a0 84 38 54 3d db 1f 3f 3c 97 d5 f0 bc b5 0b 2d 3d
       0.05181171 0.01166531 -0.029398723 0.042247493
0002b0 71 5b 54 3d 45 75 52 bc 1b e5 ab 3c bd 5d 7d bd
       0.051845018 -0.012845342 0.02098327 -0.061856974
0002c0 20 41 70 bc 14 59 5a 3d eb ee db 3b f4 0f a2 3c
       -0.0146639645 0.053307608 0.006711831 0.019782998
0002d0 aa c1 23 bd 69 ba f9 bc 1a fa 52 3a bc f4 8b 3d
       -0.039979614 -0.030484395 0.00080481323 0.06833789
0002e0 cd 52 da 3c 15 4d 81 b9 56 a0 97 3d 94 bc 4c bd
       0.02665081 -0.00024662228 0.074036285 -0.04998453
0002f0 7d 7c 73 3d c2 1b 9c bd 70 4a 8c 3c 60 f0 7c 3c
       0.059444893 -0.07622482 0.017125338 0.015438169
000300 4f 1a 9a bc 2d 2f 70 3d 1b 86 34 3c a2 7d ed 3c
       -0.018811373 0.05863874 0.011018301 0.02899057
000310 11 6b 92 bc bb 16 87 bd 9b 38 6f 3d 87 3d 18 3d
       -0.017873319 -0.06596132 0.058403593 0.037168052
000320 9d 7e 55 3d 49 ef 01 3d 5e 12 92 3c 5e ff 17 bd
       0.0521227 0.03172234 0.017831024 -0.03710877
000330 3d d6 51 bd 91 82 38 bd 72 e9 b1 3c f5 bb cb bc
       -0.051229704 -0.045046393 0.02171776 -0.024869898
000340 ea 6a 92 bc 41 76 99 bc e2 8e 96 bd 05 eb 4b 3d
       -0.017873246 -0.018733146 -0.073514715 0.04978468
000350 79 af 8b 3c 1b 9f 02 bd 1a b2 ba bc f0 12 c5 3c
       0.017051445 -0.031890016 -0.022790004 0.024056882
000360 96 a5 3f 3d 9e b5 aa 3d 74 87 7a 3d 2c 56 66 3d
       0.046788774 0.08335422 0.061164334 0.056234524
000370 67 7c a4 bd 75 f5 ac bd 2f 81 0e bd a3 79 52 3d
       -0.0803154 -0.08445255 -0.034791168 0.051385533
000380 e9 48 52 bd 90 80 3a bc bf fc e8 bc d3 14 70 bd
       -0.051339064 -0.011383191 -0.028440831 -0.05861361
000390 ed a0 ec 3b 69 58 8b 3c 7f 61 57 3d 3f 9b 71 3d
       0.0072213323 0.01700993 0.052583214 0.058985945
0003a0 72 cc eb 3c d2 14 3a 3d a3 c5 09 3c 72 c8 56 bc
       0.02878401 0.045430012 0.008408937 -0.013109313
0003b0 db 74 9a 3c 92 8a 87 bd 82 88 4e bd 31 45 13 bd
       0.01885455 -0.06618227 -0.050423153 -0.035954658
0003c0 70 c3 b0 3d 0b ef 45 3c 42 e3 99 3d a8 db f2 b9
       0.08631027 0.012080918 0.07514049 -0.00046321494
0003d0 d5 0e 84 bd 33 49 62 3d 06 de 49 bd e6 57 e8 3c
       -0.064481415 0.05524559 -0.049284004 0.028362226
0003e0 14 9b aa 3d a4 fc 80 bd 57 eb a4 bd 25 52 2f 3c
       0.0833036 -0.062981874 -0.080527 0.010700737
0003f0 54 c6 31 3d cf b3 19 bd 05 d1 8b 3d 6a 7a 8b 3c
       0.04340203 -0.037524994 0.06826977 0.017026145

actor.bias f4 [4]
000000 7e 8f 90 bd 03 f7 c7 bc b3 93 88 bd 24 41 04 3d
       -0.07058619 -0.024409777 -0.066687964 0.032288685

critic.weight f4 [1, 128]
000000 14 fa 34 bc 6f 61 93 bd 57 7b 00 3c bc fc 4e 3d
       -0.011045951 -0.07196318 0.0078419065 0.050533995
000010 75 00 90 bc 99 ce f6 3c 74 21 5b bd da 7a 86 bd
       -0.017578343 0.03012781 -0.0534987 -0.06566401
000020 16 a4 8c 3c 40 fa 24 bd 36 0e b5 bd 82 4e db 3c
       0.017168086 -0.04027772 -0.08840601 0.026770834
000030 87 cd 56 bd e1 08 4f bc 52 d4 ea 3c 16 62 07 bc
       -0.0524421 -0.012636394 0.028665695 -0.008263132
000040 76 93 64 bd 74 01 d7 bc 25 97 35 3c d1 80 41 bd
       -0.055804692 -0.02624581 0.011083399 -0.04724199
000050 f3 95 b4 bd 2c 2d 8a 3d 2b 79 61 3c 79 53 0d bb
       -0.08817663 0.06746897 0.013761799 -0.0021564646
000060 b3 4b 8b bc 8a 94 97 3d ce cd bf bc 6c 19 6e bd
       -0.01700387 0.074013785 -0.023413565 -0.058129713
000070 5f c1 0f 3d ac a4 a3 3c b1 ef 97 3c 47 9e 7d 3c
       0.035096522 0.019975983 0.018546911 0.015479631
000080 8e ba 46 bd 60 0b 0e 3d d1 18 5f bd 2a db ed bb
       -0.048517756 0.034678817 -0.054467026 -0.0072587924
000090 f5 0a a6 bd 68 49 07 3d a7 3a 97 3d d6 62 38 bd
       -0.08107559 0.03302899 0.07384234 -0.045016132
0000a0 98 6b a7 bd 2a 04 85 bd 93 2c 88 bd 17 73 3c 3d
       -0.08174819 -0.06494935 -0.06649127 0.046008196
0000b0 71 aa a6 bd 32 26 db bb bc 28 5d 3d 38 41 15 bc
       -0.08137978 -0.006687903 0.053993925 -0.009109788
0000c0 80 73 20 3b a8 1e a4 bd c1 42 a7 bd 40 7d 9b 3d
       0.0024482906 -0.0801366 -0.08167029 0.07592249
0000d0 fb 08 16 bc 3b 4b a7 3c 16 07 43 bd da 15 56 bc
       -0.009157415 0.020421615 -0.04761418 -0.013066733
0000e0 aa 62 4e 3d e8 88 41 bd 9e 58 79 3d 8b d1 2d 3d
       0.050387062 -0.047249705 0.060875528 0.042436164
0000f0 d0 ad 09 3d 96 7d 98 bb 39 36 4d 3d c1 5f 95 bd
       0.033613026 -0.004653643 0.05010054 -0.07293654
000100 8a d4 03 bd 60 df a3 bd 51 75 7a 3d d6 7e 9e bb
       -0.032185115 -0.0800159 0.061147038 -0.0048368974
000110 24 43 40 bc 84 71 7c bd e2 62 5f 3d 8f ae 5c 3d
       -0.011734758 -0.061631694 0.05453766 0.05387741
000120 3e 4f 86 bb 0c fe 05 bd 22 41 00 bd 51 00 91 bd
       -0.004098802 -0.03271298 -0.031312115 -0.070801385
000130 08 67 9d 3c 51 a7 93 bd 03 8f 46 3d 5b 37 e8 3c
       0.019214168 -0.072096474 0.04847623 0.028346708
000140 5b e0 f4 3c 0c 20 c0 3c a0 34 46 b8 7d 94 64 3c
       0.029892137 0.023452781 -4.725589e-05 0.013951418
000150 b8 bd a2 3d 8c 6e 31 bc ab de 36 bd 22 3d 89 bd
       0.07946342 -0.010829579 -0.044645946 -0.06701113
000160 9c cc 67 bd 51 5f a8 3d b6 6a a9 bd c3 d3 b0 bd
       -0.056591615 0.08221305 -0.082723066 -0.0863414
000170 12 ef 2a 3d 9b f7 53 3d b3 1f 84 bc 89 94 b0 bd
       0.0417319 0.051749807 -0.016128397 -0.08622081
000180 88 c4 4a bc 75 e8 fa 3c 2f cb 90 3d e7 f8 5f 3d
       -0.012375958 0.030628422 0.07070004 0.05468073
000190 53 2f a4 3d 87 86 2a 3d 92 4e 7c bd 4f d9 f7 bb
       0.08016839 0.0416322 -0.061598368 -0.007563747
0001a0 eb 60 74 bd f0 21 7d 3d 75 2c a5 3d 70 c2 e2 bc
       -0.05966274 0.061799943 0.0806512 -0.027680606
0001b0 57 63 ab 3c b7 4e 38 bd 67 7a 3a bd 20 6f d6 bc
       0.020921392 -0.044996943 -0.04552689 -0.026176035
0001c0 c0 ed ea 3c e1 b9 f6 3b b2 36 84 bd e7 59 3d 3d
       0.028677821 0.0075294827 -0.06455745 0.046228316
0001d0 a0 b7 7f bd 91 c3 4b bd f6 ae a5 bc a5 5d 97 bd
       -0.062430978 -0.049747054 -0.02022503 -0.07390908
0001e0 60 28 08 bd e6 ac 53 bc 75 ed 9b 3d d9 c9 a6 3d
       -0.03324163 -0.01291964 0.07613651 0.08143968
0001f0 90 1c ab bd be 8d 90 bc 0f af ad bd 53 53 53 bd
       -0.08355057 -0.017645713 -0.084806554 -0.051593136
